mmhmm-camera-development/teleport/assets/models/SegNetUSlimReversed_160_BCEWL_SP23AllData_ri_v114_nhwc_fix.onnx (onnx, 554607 bytes, 164 tensors)

_base_model.merge3.0.weight f4 [16, 1, 4, 4]
0	0x3e79dd39	0.24400796
1	0x3ef7b651	0.48381284
2	0x3ea3ba69	0.31978157
3	0x3dac13cb	0.08402213
4	0x3f02e225	0.5112632
5	0x3f71be6a	0.94431174
6	0x3f4c6226	0.7983726
7	0x3eb9b301	0.36269382
8	0x3ece4f42	0.40294844
9	0x3f58c09b	0.8466889
10	0x3f56a1f0	0.83840847
11	0x3ec9808d	0.3935589
12	0x3e042b5c	0.12907165
13	0x3eb23068	0.34802556
14	0x3eb485b6	0.35258263
15	0x3e12d546	0.1433917
16	0xbd714acc	-0.058909222
17	0xbeb5c23b	-0.3549975
18	0xbf8be43a	-1.0929024
19	0xbf5cb62f	-0.8621549
20	0x3f07e0c8	0.53077364
21	0x3e33f6e1	0.17574646
22	0xbfc1abd0	-1.5130558
23	0xbf9db035	-1.2319399
24	0x3fa84d08	1.3148508
25	0x3fbe6d53	1.4877113
26	0xbe39d3ca	-0.18147197
27	0xbeb650b4	-0.35608447
28	0x3f42b1cf	0.76052564
29	0x3f833eec	1.0253577
30	0x3e93ff18	0.2890556
31	0x3d036d97	0.032086935
32	0x3e6d3ccf	0.23167728
33	0x3e350fdf	0.17681836
34	0x3d245a8a	0.040125407
35	0x3d3ae2e2	0.04562653
36	0x3eb7d42c	0.35904062
37	0x3ecb9e3e	0.39769167
38	0x3e2ee4c1	0.1707945
39	0x3e06b78b	0.13155954
40	0x3de2bc68	0.11071092
41	0x3e3bbd44	0.18333918
42	0x3d3e2ee9	0.046431456
43	0xbb48a6eb	-0.003061707
44	0xbda2866b	-0.079357944
45	0xbc55cea0	-0.0130497515
46	0xbc723b24	-0.014784608
47	0xbd3e2259	-0.046419475
48	0xbecddf60	-0.40209484
49	0xbf24c9e1	-0.6437054
50	0xbe7f7007	-0.24945079
51	0xbd2efe12	-0.04272277
52	0x3cf60593	0.030031955
53	0xbf273ae2	-0.65324223
54	0xbf34907b	-0.7053296
55	0xbed2f6d4	-0.4120394
56	0x3ef721fd	0.48268119
57	0x3ec8d061	0.3922148
58	0xbdc3db61	-0.095633276
59	0xbebe0640	-0.37114143
60	0x3ea58695	0.3232924
61	0x3f2b5b21	0.66935927
62	0x3f254c8b	0.6456992
63	0x3e26a4d6	0.16273817
64	0xbc83a722	-0.016070906
65	0x3c5b6d3f	0.0133927455
66	0xbcb55b40	-0.022138238
67	0xbd60836b	-0.05481283
68	0xbd4bf1f5	-0.049791295
69	0xbce98603	-0.028506285
70	0xbdad3774	-0.084578425
71	0xbdd055a7	-0.10172587
72	0xbdf93c28	-0.12169677
73	0xbe656492	-0.22401646
74	0xbeae1715	-0.34001985
75	0xbe4d6bd1	-0.2006066
76	0xbdffe038	-0.12493938
77	0xbe7762fe	-0.24158856
78	0xbe900b45	-0.28133598
79	0xbe1c4687	-0.15261279
80	0xbcf14088	-0.029449716
81	0xbe338f79	-0.17535199
82	0xbe51e371	-0.20496918
83	0xbe1bf182	-0.15228847
84	0xbe693632	-0.2277458
85	0xbec1ffa3	-0.37890348
86	0xbe4f6c37	-0.20256124
87	0xbe4d902c	-0.20074528
88	0xbea4810f	-0.32129714
89	0xbf2c9fc6	-0.67431295
90	0xbf01128e	-0.5041894
91	0xbe802ebb	-0.25035653
92	0xbdeccf42	-0.11562969
93	0xbede3646	-0.43400782
94	0xbf010dd5	-0.5041173
95	0xbe86e425	-0.26345935
96	0xbe40fc57	-0.1884626
97	0xbe12d402	-0.14338687
98	0xbed85676	-0.42253464
99	0xbec1e8ec	-0.37873018
100	0xbe58b730	-0.2116363
101	0xbea8de32	-0.32982022
102	0xbf0e9c22	-0.5570699
103	0xbebc88f1	-0.36823228
104	0x3d4039c2	0.046930082
105	0xbdd92231	-0.106022246
106	0xbeb7c974	-0.35895884
107	0xbe47457e	-0.19460103
108	0x3d483d58	0.048886627
109	0xbb36a0fb	-0.0027866948
110	0xbe859eca	-0.2609771
111	0xbe55be9e	-0.20873496
112	0xbcb09e79	-0.02155994
113	0x3ea4ab01	0.32161716
114	0x3f643c59	0.89154583
115	0x3f1c79a8	0.6112313
116	0xbf11aa86	-0.56900823
117	0xbea14bb7	-0.31503078
118	0x3f549767	0.8304352
119	0x3f8faba1	1.1224252
120	0xbf5cb237	-0.86209434
121	0xbf932473	-1.1495498
122	0xbea49f23	-0.32152662
123	0x3f1f1395	0.62139255
124	0xbeb9433c	-0.36184108
125	0xbf3d555c	-0.73958373
126	0xbf07ea4f	-0.530919
127	0xbd0a66e1	-0.03378952
128	0x3eaaf782	0.33391958
129	0x3f0e88e5	0.55677634
130	0x3e0ced37	0.13762365
131	0xbc671a94	-0.014105458
132	0x3f27a404	0.65484643
133	0x3ea10f77	0.3145711
134	0xbec293c3	-0.38003358
135	0xbeba9863	-0.36444387
136	0x3e642e2b	0.22283237
137	0xbef82304	-0.48464215
138	0xbf3da96c	-0.7408664
139	0xbeb2d72d	-0.3492979
140	0xbe453c1a	-0.19261208
141	0xbf1f5c39	-0.62250096
142	0xbedab759	-0.42718008
143	0xbd805c3f	-0.062675945
144	0xbe256a07	-0.16153727
145	0xbe7ebb48	-0.2487613
146	0xbe6eb8a3	-0.23312621
147	0xbe2a5ed8	-0.16637743
148	0xbe775c6c	-0.2415635
149	0xbe895a3e	-0.26826662
150	0xbe803923	-0.25043592
151	0xbe8ae3c0	-0.27126884
152	0xbe72b799	-0.2370285
153	0xbe8d0d81	-0.27549365
154	0xbe8dfc62	-0.27731615
155	0xbe78344d	-0.24238701
156	0xbe28483d	-0.16433807
157	0xbe8cb4df	-0.27481744
158	0xbe7b2440	-0.24525547
159	0xbe0024f8	-0.12514102
160	0x3f01ffe1	0.50781065
161	0x3e8033a4	0.250394
162	0xbee344bf	-0.44388387
163	0xbe9cd1e0	-0.30628872
164	0x3f54096e	0.8282689
165	0x3f4be379	0.7964397
166	0xbeadfda3	-0.33982572
167	0xbf533c96	-0.8251432
168	0x3eeffcd4	0.4687258
169	0x3f2ad22e	0.6672696
170	0x3cfd5186	0.030922662
171	0xbf736cf0	-0.950881
172	0x3dd1b7d2	0.10240139
173	0x3e620a23	0.2207418
174	0x3e19a5fa	0.15004721
175	0xbebbc371	-0.36672547
176	0xbddda057	-0.10821598
177	0xbdbe5c16	-0.09294908
178	0x3dac3bc0	0.08409834
179	0x3db33c17	0.087516956
180	0xbe0e7aa4	-0.13913971
181	0xbdd0b00a	-0.10189827
182	0x3e3b12d9	0.18268909
183	0x3e2c5dd2	0.16832665
184	0x3cb5495c	0.022129707
185	0x3e05fbc6	0.13084325
186	0x3edc502d	0.4302992
187	0x3ea38aa6	0.31941718
188	0x3da356cf	0.07975542
189	0x3e1079e3	0.14108996
190	0x3e9e909f	0.30969712
191	0x3e735edd	0.23766656
192	0xbf270fe4	-0.6525862
193	0xbf5dbeff	-0.8661956
194	0xbe90cae1	-0.28279784
195	0x3d19a733	0.03751297
196	0xbf5dd3cc	-0.866513
197	0xbecb3390	-0.39687777
198	0x3eb9c450	0.36282587
199	0x3ecb033b	0.39650902
200	0xbe0e6d4e	-0.13908884
201	0x3f308a9f	0.6896152
202	0x3f2700a6	0.65235364
203	0x3e7c2de0	0.24626875
204	0x3e1ebbc8	0.1550132
205	0x3f101ff6	0.5629877
206	0x3e89a190	0.26881075
207	0xbd5edcb4	-0.054409698
208	0x3cc60054	0.024170078
209	0xbe230de8	-0.15923274
210	0xbe63648e	-0.22206327
211	0xbd69ee4a	-0.057112016
212	0xbe694adf	-0.22782467
213	0xbf42ebda	-0.7614113
214	0xbe8550e3	-0.26038274
215	0x3d479872	0.048729368
216	0xbf6c2d6e	-0.9225682
217	0xbf8d7e22	-1.1054118
218	0xbe5ffc45	-0.21873577
219	0x3c41f225	0.011837517
220	0xbf49f04c	-0.7888229
221	0xbf02473f	-0.5088996
222	0xbd454a58	-0.048166603
223	0x3c8e9d96	0.017409127
224	0xbe05148f	-0.12996124
225	0xbe38d711	-0.18050791
226	0xbd1b5a9d	-0.037928212
227	0xbb8ac091	-0.0042343815
228	0xbe4ef354	-0.2021001
229	0xbecb2cf6	-0.3968274
230	0xbe6b0a06	-0.22953042
231	0xbd37e4b3	-0.04489584
232	0xbeb59adf	-0.3546972
233	0xbf1a782b	-0.6033961
234	0xbf055a14	-0.52090573
235	0xbe90ff56	-0.28319806
236	0xbe66e636	-0.22548756
237	0xbebbf1cb	-0.3670791
238	0xbeaac64f	-0.33354422
239	0xbe8a17dd	-0.2697133
240	0xbe784458	-0.24244821
241	0xbef17250	-0.47157526
242	0xbeb7c8a0	-0.35895252
243	0xbe2eb7a2	-0.17062238
244	0xbf05d120	-0.52272224
245	0xbf77f248	-0.96854067
246	0xbf5ec8bd	-0.8702505
247	0xbee6d3ae	-0.45083374
248	0xbed9fab3	-0.4257408
249	0xbf62d94a	-0.88612807
250	0xbf794761	-0.9737454
251	0xbeeb0aba	-0.4590662
252	0xbe35be6a	-0.17748418
253	0xbed73196	-0.4203002
254	0xbee10f94	-0.43957198
255	0xbe16c588	-0.1472379

onnx::Conv_657 f4 [16, 3, 3, 3]
0	0xbdd52a0f	-0.10408413
1	0x3de3d7da	0.11125155
2	0x3e0406f3	0.12893276
3	0x3e00305f	0.12518452
4	0x3e2eca9d	0.17069478
5	0x3de71812	0.11283888
6	0x3cddd8ac	0.027080856
7	0x3dd1a15b	0.10235854
8	0x3e7b0361	0.24513008
9	0xbe3e093d	-0.18558212
10	0xbdc7364d	-0.09727154
11	0x3d9a8a16	0.07545869
12	0x3cf36ac8	0.029714003
13	0xbe6ecb47	-0.23319732
14	0x3d0ddb9e	0.03463327
15	0xbdcd7978	-0.10032934
16	0xbeced4a0	-0.40396595
17	0x3d8603dd	0.065437056
18	0x3d516b87	0.051127937
19	0x3e2068f4	0.15665036
20	0xbe40cafa	-0.1882743
21	0x3f4503dd	0.7695902
22	0x3f6436ee	0.89146316
23	0x3e95f033	0.2928482
24	0xbdad4a93	-0.084614895
25	0x3d124af5	0.035716016
26	0x3e53f51d	0.20698972
27	0xbebafc51	-0.36520627
28	0xbf24898f	-0.642724
29	0xbef7cf09	-0.48400143
30	0xbf8b19d7	-1.0867261
31	0xbffaedd4	-1.9603829
32	0xbf9f6801	-1.2453614
33	0xbf22c842	-0.6358682
34	0xbfb0851d	-1.3790623
35	0xbf7c4a33	-0.9855072
36	0x3edf8b4e	0.4366097
37	0x3eee4e32	0.46544033
38	0x3f174c21	0.5910054
39	0x3f3c8872	0.736457
40	0x3f3f65c3	0.7476465
41	0x3f39d74f	0.7259416
42	0x3f2a5e64	0.6655028
43	0x3f3b7c7b	0.7323682
44	0x3f33d3fb	0.7024533
45	0xbdd6d71c	-0.104902476
46	0x3e33df3f	0.1756563
47	0xbe0710ff	-0.13190077
48	0x3ea1def5	0.31615415
49	0x3f8e32c7	1.1109246
50	0x3ede1dbb	0.43382058
51	0xbd740ff7	-0.059585538
52	0x3f3a960d	0.7288521
53	0x3e98047d	0.29690924
54	0x3f60518b	0.87624425
55	0x3fab9f8c	1.3408065
56	0x3f7e57b5	0.9935258
57	0x3fc05f1e	1.5029027
58	0x3fe229f6	1.7669055
59	0x3f70a4e6	0.94001615
60	0x3fae6515	1.3624598
61	0x3fcf05f3	1.617369
62	0x3f5e09ff	0.86734
63	0xbf86eedf	-1.0541648
64	0xbfe28614	-1.7697167
65	0xbfa03030	-1.2514706
66	0xc0171ed0	-2.3612556
67	0xc0694f79	-3.6454756
68	0xbfe5b33e	-1.7945325
69	0xbfacdb6d	-1.3504463
70	0xc01227c1	-2.2836764
71	0xbf8f0ee9	-1.1176425
72	0x3e6f6b11	0.23380686
73	0x3ef13d68	0.47117162
74	0x3e102052	0.14074829
75	0x3f50e810	0.816041
76	0x3fecf243	1.8511432
77	0x3f314367	0.6924347
78	0xbd5733b3	-0.05253954
79	0x3f117c00	0.56829834
80	0x3ea3b201	0.31971744
81	0x3fbdfe35	1.4843203
82	0x3facca01	1.3499147
83	0x3f1ed620	0.6204548
84	0x404c4022	3.1914144
85	0x3fa5a0b3	1.2939667
86	0xbf4ffc9b	-0.8124482
87	0x3efc1d6e	0.49241203
88	0xbf86a44a	-1.0518887
89	0xc06aa629	-3.6663916
90	0x3f6e9f85	0.9321216
91	0x3f437740	0.76353836
92	0x3f0c3cab	0.5478007
93	0x405f8f35	3.4931157
94	0x3f707ac4	0.93937325
95	0xbed5b735	-0.41741338
96	0x3f1c1ce0	0.6098156
97	0xbf809787	-1.0046242
98	0xc04eb090	-3.2295265
99	0x3fca5cea	1.5809605
100	0x3f899bd4	1.075068
101	0x3fa0aa5b	1.2551988
102	0x405a6a42	3.4127355
103	0x3edd7ae2	0.43257815
104	0xbf5f8454	-0.8731129
105	0x3f2bba8e	0.67081535
106	0xbf91f87e	-1.1403959
107	0xc06137bb	-3.5190265
108	0xbf3532ba	-0.7078053
109	0xbfabeb68	-1.3431215
110	0xbfc7a9d5	-1.5598704
111	0xbd7cc1d6	-0.061708294
112	0xbe282c7c	-0.1642322
113	0x3fcb4593	1.5880607
114	0xbe3b8570	-0.18312621
115	0x3fe83469	1.8140994
116	0x402f48df	2.7388227
117	0xbf7a8907	-0.9786534
118	0xbf9e3c27	-1.2362107
119	0xbfbc4edd	-1.4711567
120	0xbe74fd72	-0.23924807
121	0x3e5c6b1b	0.21525232
122	0x3ffa83fe	1.9571531
123	0xbecf7d44	-0.40525258
124	0x3ff49d73	1.911055
125	0x4055eaaa	3.3424478
126	0xbf51773d	-0.8182257
127	0xbfb02007	-1.3759774
128	0xbfe07efa	-1.753875
129	0xbf2dcbf2	-0.6788932
130	0xbf5d10ed	-0.8635395
131	0x3fd311ad	1.6489769
132	0xbdd63e95	-0.10461155
133	0x3ffb6625	1.9640547
134	0x4094b34e	4.646888
135	0xbef6c707	-0.4819872
136	0x3ec0c864	0.37652886
137	0x3ef800b5	0.4843804
138	0x3e3bea84	0.1835118
139	0x3f8d5f21	1.1044656
140	0x3f555893	0.8333828
141	0x3e901246	0.28138942
142	0x3f5bb29c	0.8581941
143	0x3f1aaa30	0.60415936
144	0x3f0ff3c6	0.56231344
145	0x3f84606d	1.0341927
146	0x3f8ca691	1.0988332
147	0x3faf12b1	1.3677579
148	0x3ffc22a2	1.9698069
149	0x3fcdb38b	1.6070417
150	0x3fb28830	1.3947811
151	0x3fb8a822	1.442631
152	0x3f9ffc1e	1.2498815
153	0xbe589b95	-0.211531
154	0xbfc3004f	-1.5234469
155	0xbfc4111d	-1.5317723
156	0xbfcadac8	-1.5848017
157	0xc02a88d3	-2.664601
158	0xc012ac27	-2.2917573
159	0xbfd9b4aa	-1.7008259
160	0xc01644a3	-2.3479393
161	0xbfe972fd	-1.8238217
162	0x3fd45ab2	1.6590178
163	0xbed72602	-0.42021185
164	0xc018e977	-2.3892496
165	0x40528965	3.289636
166	0x3ec75d13	0.38938197
167	0xc090fc7a	-4.53082
168	0x40001233	2.0011108
169	0x3f756b57	0.9586691
170	0xbfc0dd3e	-1.5067518
171	0x3fcd59d0	1.6043034
172	0xbed3573f	-0.412775
173	0xc01ad727	-2.4193819
174	0x4046e78f	3.1078832
175	0x3ed5b000	0.4173584
176	0xc09cd8b9	-4.9014554
177	0x3ffa73d2	1.9566596
178	0x3fa85c8b	1.3153242
179	0xbf635951	-0.8880816
180	0x3fe05901	1.7527162
181	0xbf1df005	-0.61694366
182	0xc0481e80	-3.1268616
183	0x405f0175	3.484464
184	0x3ebc5d16	0.3678977
185	0xc09f460d	-4.977301
186	0x40099c55	2.1501667
187	0x3fdb22a1	1.7119943
188	0xbf268904	-0.6505282
189	0xbf1aff76	-0.6054605
190	0x3efe04ae	0.49612945
191	0x3f4bc494	0.7959683
192	0xc0169514	-2.352849
193	0x4086032c	4.187887
194	0xbee2a1ca	-0.4426406
195	0xc0041e80	-2.0643616
196	0x4084879b	4.1415534
197	0xbdbaca0f	-0.09120571
198	0xbfa6cf94	-1.3032098
199	0xbf1498b4	-0.58045506
200	0xbeaf771c	-0.3427056
201	0xbff7da0b	-1.9363416
202	0x40382045	2.8769696
203	0xc0025904	-2.036683
204	0xbe57f712	-0.21090344
205	0x40880e17	4.25172
206	0xbed79677	-0.42106983
207	0xbf844b8b	-1.0335554
208	0xbe7ecf04	-0.24883658
209	0x3f696995	0.9117673
210	0xc017f814	-2.3745165
211	0x40706e2b	3.756724
212	0xbfb94a4a	-1.4475796
213	0xbfb92ac8	-1.4466181
214	0x40a423fe	5.1293936
215	0xbf0383a8	-0.51372766
216	0x3f159e7c	0.5844495
217	0xbe81a1dc	-0.253188
218	0x3e886ebb	0.2664698
219	0x3b8883ea	0.004166116
220	0xc0099d50	-2.1502266
221	0xbfd965e0	-1.6984215
222	0xbdaf518b	-0.08560475
223	0xbf635157	-0.8879599
224	0xbfa83dbd	-1.3143841
225	0x3eeaacf0	0.45835066
226	0xbf6dc956	-0.9288534
227	0x3e81c43e	0.25345033
228	0xbf63a1aa	-0.88918555
229	0xc03818ae	-2.8765063
230	0xbf8d9fa5	-1.1064345
231	0xbee43b7f	-0.44576642
232	0xbf9d0647	-1.2267541
233	0x3d02e955	0.031960804
234	0xbe890fdb	-0.2676991
235	0x3e6b3a58	0.22971475
236	0xbe448684	-0.19191939
237	0x3f0256c6	0.50913656
238	0x3ff39a91	1.9031545
239	0x3f50c8ed	0.8155659
240	0x3ed887e5	0.4229118
241	0x3fe5f80a	1.796632
242	0x3fa61b4d	1.2977082
243	0xc0ed74a1	-7.420487
244	0xc14346fc	-12.20483
245	0xc059e251	-3.4044383
246	0xc0a5b9b0	-5.178917
247	0xc0aa75f3	-5.326898
248	0x402ce5f7	2.701536
249	0x4111a70a	9.103281
250	0x414ae959	12.68197
251	0x410edff9	8.929681
252	0xc05c6335	-3.443555
253	0xc01b4d23	-2.426583
254	0x3d42ab88	0.047526866
255	0xbf17407d	-0.59082776

onnx::Conv_658 f4 [16]
0	0x3f9bda04	1.2175908
1	0x404977f8	3.1479473
2	0x3e20c236	0.15699086
3	0x40b7e8b8	5.747158
4	0x40c375a0	6.1081085
5	0x3f90d17d	1.1313931
6	0x3fe5d618	1.7955961
7	0x411bc888	9.736458
8	0xbf3a33c2	-0.72735226
9	0xbe01fcb2	-0.12694052
10	0x406bb0ea	3.682673
11	0xc057e824	-3.3735437
12	0x4053dedd	3.3104775
13	0x40c73a73	6.225885
14	0xc046bdfb	-3.1053455
15	0x3f51d743	0.8196909

onnx::Conv_660 f4 [16, 1, 3, 3]
0	0x3e2f8f20	0.17144442
1	0x3fdc8c2e	1.723028
2	0xbe9f35c0	-0.31095695
3	0xbf852292	-1.0401175
4	0x3fb2e2c7	1.3975457
5	0x3fd38e0a	1.6527722
6	0xbfb05ed4	-1.3778939
7	0xbdce66f9	-0.10078234
8	0xbe5672eb	-0.20942275
9	0x3efc52d9	0.49281958
10	0xbf690e37	-0.91037315
11	0x3e8b82af	0.2724814
12	0xbf8dd30f	-1.1080035
13	0x40a9fa32	5.3117914
14	0xbf08e6b7	-0.5347704
15	0x3eb03f61	0.34423354
16	0xbf4c9afa	-0.79923975
17	0x3ec4c010	0.38427782
18	0xbe7eda43	-0.24887948
19	0xbe91e0ce	-0.28491825
20	0x37d6ec4c	2.5620822e-05
21	0xbfc44e0c	-1.5336318
22	0x40730bd0	3.797596
23	0x3ef57b39	0.47945574
24	0xbf2e2044	-0.68017983
25	0xbe5a6f22	-0.21331456
26	0xbe8ecdff	-0.27891538
27	0xbcf9d540	-0.030497193
28	0xbe3a531a	-0.18195763
29	0xbc089238	-0.0083356425
30	0xbe04cd7e	-0.12969014
31	0xbde735e7	-0.11289578
32	0x3d2b12c3	0.04176594
33	0xbd3b181f	-0.0456773
34	0xbd01f539	-0.031728003
35	0x3e008643	0.12551217
36	0x3dd9c70b	0.106336676
37	0x3e2bf5c9	0.16792978
38	0xbd4fd565	-0.05074062
39	0x3de9077d	0.113783814
40	0x3de6cb3d	0.112692334
41	0xba6c2d74	-0.00090094586
42	0xbd00dbd1	-0.031459633
43	0x3b208187	0.0024491267
44	0xbd08e7d4	-0.033424214
45	0x3e4000ad	0.18750258
46	0xbe90184a	-0.2814353
47	0xbf18409a	-0.59473574
48	0x3f843ec9	1.033166
49	0xbf78523a	-0.9700047
50	0xbfc1527e	-1.51033
51	0x3fe43fc0	1.7831955
52	0xbe22c67f	-0.15896033
53	0x3f0fe6ad	0.5621136
54	0xbcc31bc1	-0.023816945
55	0x3c06bca9	0.008223691
56	0xbbc20f03	-0.0059221997
57	0x3db3b192	0.08774103
58	0x3f531b34	0.82463384
59	0xbe2ae503	-0.16688924
60	0xbce7cf4f	-0.028297095
61	0x3d8327d0	0.06404078
62	0x3c9525c6	0.018206488
63	0xbbdf6237	-0.006817128
64	0xbe4fbfba	-0.20287982
65	0x3e0a4c0b	0.1350557
66	0xbd9017f9	-0.070358224
67	0xbf40fef0	-0.75389004
68	0x3f88d06c	1.0688605
69	0xbced13d2	-0.028940115
70	0xbd92604b	-0.07147273
71	0xbcfcfab9	-0.030881273
72	0xbf039373	-0.51396865
73	0xbf562983	-0.8365709
74	0xbeb9c741	-0.3628483
75	0x3fb7a9fd	1.4348751
76	0x3ee92ee7	0.45543596
77	0xbf6b6e96	-0.91965616
78	0x3f186918	0.5953536
79	0x3e9433fe	0.28945917
80	0xbeace1b4	-0.33765948
81	0xbd6b5167	-0.05745068
82	0x3d775c25	0.06039061
83	0xbc88c3d3	-0.016694939
84	0x3cce1c0f	0.025159864
85	0xbea3d8c6	-0.32001323
86	0xbe59802a	-0.21240297
87	0xbd809f25	-0.062803544
88	0xbf071584	-0.52767205
89	0xbeb43867	-0.35199282
90	0x3f0c3a42	0.54776394
91	0xbd670f13	-0.05641086
92	0x3d82fed4	0.06396261
93	0xc00b20db	-2.1738803
94	0xbe07cd87	-0.13261996
95	0x404bbd80	3.1834412
96	0xbfa07da3	-1.2538341
97	0xbf451766	-0.7698883
98	0x3f003b9e	0.5009097
99	0x3f36b48c	0.7136924
100	0x3ff236cc	1.8922973
101	0xbe8c340e	-0.27383465
102	0x3d5861ad	0.052827526
103	0x4162aec0	14.167664
104	0x3ee30d81	0.4434624
105	0xbeb2bd3c	-0.3491
106	0xbf71594b	-0.94276875
107	0xbdc01739	-0.09379429
108	0x3b02782a	0.001990805
109	0xbd20632e	-0.039157085
110	0xbc030577	-0.007996908
111	0xbdd08f69	-0.10183603
112	0x3e1f45d1	0.15553977
113	0xbe0c5b0c	-0.13706607
114	0xbe9fa574	-0.31180918
115	0x3fd3bc93	1.6541923
116	0xbdf85cbe	-0.12127064
117	0x3d1d8a26	0.038461827
118	0xbe8f688e	-0.28009456
119	0x3a7eafc2	0.0009715521
120	0xbe9e6b5a	-0.30941278
121	0x401519f7	2.3297098
122	0xbe09e87e	-0.13467595
123	0xbdf2dc96	-0.1185848
124	0x3e295854	0.16537601
125	0xbd8264d3	-0.06366887
126	0x3f3ad319	0.7297836
127	0x4046527d	3.0987847
128	0x400cb2e9	2.1984198
129	0xbecc2fc7	-0.398802
130	0xc01b4dd3	-2.426625
131	0xbf9e794f	-1.238077
132	0x3ec881e1	0.3916159
133	0x3e57e6e4	0.21084172
134	0xbfd6261d	-1.6730381
135	0xbd2fd57f	-0.042928215
136	0xbc15761f	-0.009122401
137	0x3d6b52d5	0.05745204
138	0xbe7c0b1f	-0.24613617
139	0xbff3e338	-1.9053717
140	0xbd363cfe	-0.04449176
141	0x3bb90dcc	0.0056473967
142	0xbe0a3a5c	-0.13498825
143	0xbddbe296	-0.10736577

onnx::Conv_661 f4 [16]
0	0x3e926e20	0.28599644
1	0xbfaca9e0	-1.3489342
2	0xbcc7c0c0	-0.024383903
3	0x4072b98e	3.7925754
4	0x4009ccd4	2.1531267
5	0x3f928b81	1.1448823
6	0xbfd68c56	-1.6761577
7	0x3f496253	0.78665656
8	0x4030a86a	2.7602792
9	0x3fdba9c9	1.7161189
10	0x40a16782	5.043885
11	0xc09bd127	-4.8692813
12	0xc036c6d9	-2.8558867
13	0xc0fb9ab8	-7.8626366
14	0x3e4918c8	0.1963836
15	0x4055edb1	3.3426325

onnx::Conv_663 f4 [16, 16, 1, 1]
0	0xbd02e4b7	-0.0319564
1	0x3f68c282	0.90921795
2	0x3ef4e142	0.47828108
3	0xbdd9f02c	-0.10641512
4	0x3da092d3	0.078405045
5	0xbd07671d	-0.03305732
6	0xbc0f5d79	-0.008750313
7	0xbd2fa6b4	-0.04288359
8	0x3d2650af	0.04060429
9	0xbe621b08	-0.22080624
10	0xbb632e2c	-0.0034664972
11	0x3b8204f1	0.003967874
12	0x3a037362	0.0005014447
13	0xbbba2404	-0.005680563
14	0x3dd57600	0.10422897
15	0xbd0a6faf	-0.033797916
16	0x3ec39cc7	0.3820555
17	0x3df8924b	0.12137278
18	0x3f06d66d	0.5267094
19	0x3dd79ca4	0.10527924
20	0xbef43acb	-0.47701105
21	0x3f5936c1	0.8484917
22	0x3ce6613e	0.02812254
23	0x3d2fefac	0.04295318
24	0xbe9793c9	-0.2960494
25	0xbed6fd0a	-0.41989928
26	0xbf264398	-0.6494689
27	0x3dc21df3	0.094783686
28	0x3c622b71	0.013804303
29	0xbcbaf975	-0.022824029
30	0x3d93d06e	0.07217489
31	0xbc532c61	-0.012888999
32	0xbdf424af	-0.11921059
33	0x3ab7c286	0.0014019764
34	0x3e406faa	0.18792596
35	0xbf06179d	-0.5237978
36	0x3eded9a1	0.43525413
37	0x3d52331b	0.05131827
38	0xbf33b795	-0.70202
39	0x3e3a96fa	0.18221655
40	0xbd91e3b9	-0.07123513
41	0x3e8f4378	0.27981162
42	0x3e3dad30	0.18523097
43	0x3f5715cb	0.8401763
44	0xbee1ef23	-0.4412776
45	0xbf16de0f	-0.58932585
46	0xbf0146d8	-0.50498724
47	0xbeb6e130	-0.3571868
48	0x3d482ed7	0.048872795
49	0x3ec07e5c	0.37596405
50	0xbd176239	-0.036958907
51	0xbcbee706	-0.02330352
52	0x3de88164	0.11352804
53	0xbc28055b	-0.010255183
54	0x3babdac7	0.005244586
55	0xbbac145b	-0.00525145
56	0x3932574e	0.00017007926
57	0xbcf793e4	-0.030221887
58	0xbbc46542	-0.005993516
59	0x3e02b39e	0.12763831
60	0xbbb382b4	-0.0054782275
61	0x3bc14a50	0.0058987513
62	0x3d2083dc	0.03918825
63	0xba3d5d27	-0.00072236586
64	0xbc5c93f6	-0.013463011
65	0x3eb838f8	0.35980964
66	0xbd33d78c	-0.043906733
67	0xbd859bfe	-0.06523894
68	0x3d71bb06	0.05901625
69	0x3c92740e	0.017877605
70	0x3b4b281a	0.0030999244
71	0x3a831096	0.000999945
72	0x3a817ef6	0.0009879756
73	0xbd90a176	-0.07062046
74	0xbb978f16	-0.0046252115
75	0x3e163ce2	0.14671662
76	0x3c335fb6	0.010948112
77	0x3ca07419	0.01958661
78	0x3c9baeef	0.019004313
79	0x3b6419d7	0.003480544
80	0xbcef25a0	-0.029192746
81	0xbcff16b0	-0.031138748
82	0xbdb5de21	-0.08880258
83	0x3f6bc298	0.920938
84	0x3d766b77	0.06016108
85	0xbb56ac8b	-0.0032756652
86	0xbf02fa72	-0.511634
87	0x3fb8ca2d	1.4436699
88	0x3eb49cb8	0.35275817
89	0xbe47723d	-0.19477172
90	0xbdf1c6bd	-0.118054844
91	0x3eeb2d37	0.45932934
92	0xbd8a4f93	-0.06753459
93	0xbd46bc73	-0.048519563
94	0x3f1f5a4c	0.6224716
95	0xbdec6f24	-0.11544636
96	0x3d7cfc1a	0.06176386
97	0x3c87b8cc	0.01656761
98	0x3e4057bd	0.1878347
99	0xbd2b0cc3	-0.041760217
100	0xbdc31c53	-0.09526887
101	0x3c97ba22	0.018521372
102	0x3e1da879	0.15396298
103	0x3d22f1b1	0.039781276
104	0xbc9761f9	-0.018479334
105	0x3d028b83	0.03187133
106	0xbcb4852a	-0.022036154
107	0x3c0b7940	0.008512795
108	0xbf1aef45	-0.60521346
109	0x3f2a65a1	0.66561323
110	0x3c823f87	0.015899433
111	0x3d21868f	0.039434966
112	0xbf21423c	-0.6299169
113	0xbe36ecbb	-0.17863743
114	0xbe892c00	-0.26791382
115	0xbdad79e9	-0.08470518
116	0xbf045a0c	-0.516999
117	0x3e62fec3	0.22167496
118	0xbed767b8	-0.4207132
119	0x3edd5659	0.4322994
120	0xbdd27546	-0.102762744
121	0x3f1d4eae	0.6144818
122	0xbd146ca1	-0.03623641
123	0x3e89aeef	0.26891276
124	0x40951a10	4.6594315
125	0xbfc1f523	-1.5152935
126	0xbf048bee	-0.51776016
127	0xbd9c340e	-0.07627116
128	0xbe0ceeed	-0.13763018
129	0xbc771636	-0.015080979
130	0xbe2713fc	-0.16316217
131	0x3c8643b6	0.016389709
132	0x3deb5fd3	0.114928864
133	0xbf247d7f	-0.6425399
134	0xbd391a9b	-0.04519139
135	0xbc26bd6a	-0.010176996
136	0x3ed459f1	0.4147487
137	0xbc882e62	-0.01662368
138	0x3fa5f941	1.2966691
139	0xbc9ede05	-0.019392977
140	0x3c8aead4	0.016957678
141	0x3c6ea67d	0.014566061
142	0x3dd2573c	0.10270545
143	0x3cd5ed97	0.026114268
144	0xbe2e101e	-0.16998336
145	0xbba18fcd	-0.0049304725
146	0x3ca661f5	0.020310381
147	0x3da741d9	0.08166856
148	0xbdac60da	-0.084169105
149	0x3db02c83	0.0860224
150	0x3de5ddea	0.112239674
151	0xbe17ac17	-0.14811741
152	0xbe8089f0	-0.25105238
153	0xbd9a2cb9	-0.075280614
154	0xbdedec58	-0.116173446
155	0x3cdef665	0.0272171
156	0xbd18a31e	-0.037264936
157	0xbd50dffd	-0.050994862
158	0x3da3459e	0.07972263
159	0x3e652c9a	0.22380295
160	0x3db53236	0.088474676
161	0xc0184b29	-2.3795874
162	0x3e5fc512	0.2185252
163	0x3e3f99e5	0.1871105
164	0xbecc195d	-0.398631
165	0x3d9ee3c2	0.07758285
166	0x3d534b13	0.05158527
167	0xbd45e892	-0.0483175
168	0x3d89bfb5	0.06726018
169	0x3edd109c	0.43176734
170	0x3d9f381f	0.07774376
171	0xbdf93eea	-0.12170203
172	0x3cfab03c	0.030601613
173	0xbc744e4c	-0.014911246
174	0xbb23c72e	-0.0024990547
175	0x3d681ccf	0.0566681
176	0x3e0ec0a6	0.13940677
177	0x3be42221	0.0069620763
178	0xbca6da60	-0.020367801
179	0xbe02e541	-0.12782766
180	0x3d0febbe	0.03513693
181	0x3db80780	0.089858055
182	0xbc1f8a74	-0.0097376
183	0x3da40d44	0.08010343
184	0x3df17dcf	0.11791574
185	0xbd1b8f89	-0.037978683
186	0xbe1f67a8	-0.15566885
187	0x3e3269c4	0.17423159
188	0xba1d89c2	-0.0006009602
189	0x3d7bd1d3	0.0614794
190	0xbd7bf3d8	-0.061511844
191	0x3c20e674	0.009820569
192	0xbe39a11b	-0.18127863
193	0x3fabac25	1.3411909
194	0xbead1d00	-0.33811188
195	0xbe000cab	-0.12504832
196	0xbd74a292	-0.05972535
197	0xbd70b6ab	-0.058767956
198	0x3d06097f	0.0327239
199	0x3d45d4e5	0.048298735
200	0x3db215e5	0.08695582
201	0xbee7c69a	-0.45268708
202	0xbcaafb7e	-0.020871874
203	0x3f39ef1b	0.7263047
204	0x3d2cac48	0.042156488
205	0x3d5fefbc	0.054671988
206	0xbd54b6b8	-0.051932067
207	0x3c20f120	0.009823114
208	0xbe763db9	-0.24046983
209	0x3c1bcbb9	0.0095090205
210	0xbc2ea1ae	-0.010658665
211	0xbe0715aa	-0.13191858
212	0x3e474fce	0.19464037
213	0x3d5c232d	0.053744484
214	0xbe81ffeb	-0.25390562
215	0x3e6dca1e	0.23221633
216	0x3e2aa063	0.16662745
217	0x3eb786c8	0.35845017
218	0xbd9036b3	-0.07041683
219	0x3d03344b	0.032032292
220	0xbe489980	-0.19589806
221	0xbf4aab50	-0.7916765
222	0x3d5c0569	0.053716097
223	0x3f204e81	0.6261979
224	0x3e56156e	0.20906612
225	0xbc8dbae6	-0.017301034
226	0xbc03d169	-0.008045533
227	0xbd727a44	-0.059198633
228	0x3e199e89	0.15001883
229	0x3cfe8f4d	0.03107419
230	0x3e3ad97a	0.18247023
231	0x3db43f53	0.08801141
232	0xbd78a5b8	-0.060704917
233	0x3da30db6	0.079615995
234	0xbe063c5c	-0.13108963
235	0xbdb76f05	-0.08956722
236	0xbd0c64ad	-0.0342757
237	0xbdf31eaf	-0.11871087
238	0xbdd7345b	-0.10508033
239	0xbe77ab26	-0.24186382
240	0xbcb608dc	-0.022221021
241	0x3eb85997	0.36005852
242	0xbda1298d	-0.07869253
243	0xbd95506a	-0.072907284
244	0x3d440157	0.04785284
245	0x3bd26054	0.0064201746
246	0xbd310578	-0.043218106
247	0xbc35726e	-0.011074645
248	0x3c7227c5	0.01477999
249	0xbd3bedf6	-0.045881234
250	0xbc7f6d24	-0.015589986
251	0x3e11dc23	0.14244132
252	0xb92d20a3	-0.00016510724
253	0x3a71c2d6	0.0009222453
254	0x3c61448c	0.013749253
255	0x3b8745e8	0.0041282065

onnx::Conv_664 f4 [16]
0	0xc101d23b	-8.113826
1	0x4099ba0e	4.8039618
2	0x40152328	2.3302708
3	0xbf8b73b8	-1.089469
4	0xbec250b8	-0.3795221
5	0xbff44237	-1.9082707
6	0x3fc604ae	1.5470178
7	0x406e52b9	3.723799
8	0xc0aaeb1e	-5.341201
9	0x40a910e2	5.283311
10	0x41c617ad	24.76156
11	0x408e8ee0	4.454941
12	0xc1445d15	-12.272725
13	0x400af99c	2.171485
14	0x4087be8b	4.2420096
15	0xbdf58ba0	-0.11989522

onnx::Conv_666 f4 [16, 1, 3, 3]
0	0xbf3aeebe	-0.7302054
1	0xbe42d73c	-0.19027418
2	0xbe932e34	-0.28746188
3	0xbef053b1	-0.4693885
4	0x4079300c	3.8935575
5	0xbe5a440e	-0.21315023
6	0xbf2a1ff7	-0.66455024
7	0xbf4b6579	-0.7945171
8	0xbee3022c	-0.44337595
9	0xbe647e1d	-0.22313733
10	0xbe2e07bf	-0.16995142
11	0xbe63c820	-0.2224431
12	0x3f088ed7	0.53342956
13	0x3e6ffe35	0.23436816
14	0xbf0e17a2	-0.5550481
15	0xbd072f0c	-0.03300385
16	0x3da77566	0.08176689
17	0x3e103886	0.14084062
18	0x3d81786e	0.06321798
19	0x3f0ff0b7	0.56226677
20	0x3de152e5	0.11002139
21	0x3d48f2df	0.049059745
22	0xbfa6595e	-1.2996023
23	0x3e6d4c0e	0.23173544
24	0xbd849c2f	-0.06475102
25	0xbe32ebdd	-0.17472787
26	0x3d293848	0.04131344
27	0xbf0a9dea	-0.5414721
28	0xbe192b87	-0.1495801
29	0x3f9e5e41	1.2372514
30	0xc00308df	-2.0474164
31	0xbf8780c7	-1.0586175
32	0x40255c21	2.583748
33	0xbedd0ba6	-0.4317295
34	0xbeafa560	-0.3430586
35	0x3f39f291	0.7263575
36	0xbe8c9652	-0.27458435
37	0xbfae3d46	-1.3612449
38	0xbfc35411	-1.526003
39	0x3fbff70b	1.4997267
40	0x3f1c3a63	0.6102659
41	0xbfe34314	-1.7754846
42	0x3f8f8400	1.1212158
43	0x3fbce3b2	1.4756987
44	0x3dfbe039	0.122986265
45	0x3ddfb6f1	0.10923565
46	0x3e04205e	0.12902972
47	0x3c9211bd	0.017830724
48	0x3f2114ec	0.6292255
49	0x3e258044	0.1616221
50	0xbd6444d0	-0.055729687
51	0x3d92bc48	0.07164818
52	0x3d0ea37c	0.03482388
53	0xbc3b628b	-0.011437069
54	0x3de6071e	0.11231826
55	0xbe3e1e79	-0.18566312
56	0xbc0aa313	-0.0084617315
57	0x3ce0cda4	0.027441807
58	0xc01c9f06	-2.447206
59	0x3ced8a08	0.028996482
60	0x3e0c023f	0.13672732
61	0x3ea61d7d	0.32444373
62	0x3dfd91dd	0.12381337
63	0xbd413a90	-0.04717499
64	0xbe31190f	-0.17294715
65	0xbd0ff263	-0.035143267
66	0xbcb5c400	-0.022188187
67	0x3c1d4309	0.009598502
68	0xbb363f87	-0.0027808861
69	0xbb952762	-0.004551814
70	0xbbc005ee	-0.005860082
71	0x3b4599f0	0.0030151568
72	0x3d8f142e	0.06986271
73	0x3e3d1d29	0.18468155
74	0x3d5d9ded	0.054105688
75	0xbe501dab	-0.20323817
76	0x3f4f0476	0.8086618
77	0x3e9cf832	0.30658108
78	0x3d325a3c	0.043543085
79	0xbd4b889f	-0.04969084
80	0xbc6f4d5a	-0.014605844
81	0x3e12e6ff	0.1434593
82	0x3f0235a3	0.50863093
83	0x3e362f4b	0.17791478
84	0xbdeb6726	-0.114942834
85	0x3f9a8a5c	1.2073474
86	0x3f45c57f	0.7725448
87	0xbd1109d2	-0.035409756
88	0x3e8243af	0.25442263
89	0x3cb315c8	0.021860972
90	0xbed3bde3	-0.4135581
91	0xbe85a170	-0.2609973
92	0x3dbb3a7b	0.09142014
93	0xbec8b45a	-0.39200097
94	0xbc5195ac	-0.012792032
95	0x3e9c27f5	0.30499235
96	0x3d21e0db	0.03952108
97	0x3ea57b3d	0.32320586
98	0x3e9e8642	0.30961806
99	0x3dc14ea2	0.09438826
100	0x3f49d06d	0.7883366
101	0x3e9551ad	0.29163876
102	0xbe4a9310	-0.19782662
103	0x400fdf7b	2.2480152
104	0x3f0596fb	0.521835
105	0xbd411389	-0.04713777
106	0xbe851869	-0.25995186
107	0xbd963ff4	-0.07336417
108	0x3ede1950	0.43378687
109	0x3ee1fbed	0.44137517
110	0xbde6e901	-0.11274911
111	0x3f176256	0.59134424
112	0xbc7883e6	-0.015168166
113	0xbf1b89a9	-0.6075693
114	0x3d234a2b	0.039865654
115	0xbef315ad	-0.47477475
116	0xbea59e53	-0.32347354
117	0xbdd4b64f	-0.10386335
118	0x3d8307d8	0.063979805
119	0xbe895a9d	-0.26826945
120	0xbd9aa5c9	-0.07551152
121	0x3fb886b6	1.441611
122	0xbce1d892	-0.02756909
123	0xbcb277f3	-0.021785712
124	0x3d998b15	0.07497231
125	0x3de8b250	0.113621354
126	0x3d58affb	0.052902203
127	0x3eb70beb	0.3575128
128	0x3d43061f	0.04761326
129	0xbd8befad	-0.06832824
130	0x40014aa2	2.0201802
131	0x3e992d40	0.29917336
132	0x3d9f6fee	0.07785021
133	0x3ef19c30	0.47189474
134	0x3e687d80	0.22704124
135	0xbf2214ce	-0.63312995
136	0xbf9f8b49	-1.2464381
137	0xbf0fdbc8	-0.56194735
138	0xbf9c8d14	-1.2230554
139	0xc028fdbf	-2.6404874
140	0x3e422961	0.18961097
141	0x3f858c4d	1.0433441
142	0x4068a3da	3.6350007
143	0x3fa90b80	1.3206635

onnx::Conv_667 f4 [16]
0	0x3e645768	0.22298968
1	0x410cc976	8.799185
2	0x4068de1a	3.638556
3	0x3db5a0f9	0.08868594
4	0x3eb317d2	0.3497911
5	0x3f582b68	0.8444123
6	0x4098ab33	4.7708983
7	0x415bdec1	13.741883
8	0xbfc2ff2c	-1.5234122
9	0xc0c479f6	-6.139888
10	0x3c2f0392	0.010682004
11	0xc12857ac	-10.521404
12	0xbd69ee49	-0.057112012
13	0x3e20e1d0	0.1571114
14	0xc0e1ea8f	-7.0598826
15	0x3e6f7fb6	0.23388562

onnx::Conv_669 f4 [16, 16, 1, 1]
0	0xbe58dc03	-0.21177678
1	0x3d701a03	0.058618557
2	0x3ebf64f6	0.37381715
3	0x3e803ee8	0.25047994
4	0x3e6b96be	0.23006722
5	0x3e28dfae	0.16491577
6	0xbeb8938d	-0.36050072
7	0xbe88226c	-0.26588762
8	0x3d3c2e89	0.045942817
9	0x3e981aaa	0.29707843
10	0xbe19cb07	-0.15018855
11	0x3dd0f1a0	0.10202336
12	0x3c3b9678	0.011449449
13	0xbf2e034c	-0.6797378
14	0xbe7b8ee9	-0.24566235
15	0xbeb98f9a	-0.36242372
16	0xbe0ad699	-0.13558425
17	0x3d7ca332	0.061679073
18	0xbf0338f1	-0.5125876
19	0xbdb408f0	-0.08790767
20	0xbd914520	-0.07093263
21	0xbeba119b	-0.36341557
22	0xbd9c85ae	-0.07642685
23	0x3d58b278	0.052904576
24	0x3c6d2ed8	0.0144765
25	0xbe345f06	-0.17614374
26	0x3d80c898	0.0628826
27	0x3e97a536	0.29618233
28	0x3ce87226	0.028374743
29	0x3d1a7ca7	0.037716534
30	0x3e370552	0.17873123
31	0xbe790193	-0.24317007
32	0x3d05694a	0.032571115
33	0x3dc26bbf	0.09493207
34	0x3d1c20a8	0.03811708
35	0xbb39fe55	-0.0028380353
36	0xbda89959	-0.08232374
37	0x3e9b08a0	0.30280018
38	0x3ec2a56a	0.38016826
39	0xbe63c496	-0.2224296
40	0xbd0bdc91	-0.034145895
41	0x3de8ae2d	0.113613464
42	0xbd67a5c2	-0.056554563
43	0xbdae4ed2	-0.085111275
44	0xbda263ad	-0.07929168
45	0x3eb1a7f2	0.34698445
46	0xbd6052f0	-0.054766595
47	0xbd153e11	-0.036436144
48	0x3bbcc04c	0.0057602283
49	0x3ce3043e	0.027711984
50	0x3ca50a5d	0.020146543
51	0xbc2ee20c	-0.010674011
52	0x3c307834	0.010770846
53	0xbb47f092	-0.0030508381
54	0x3beb47fe	0.007180213
55	0xbc1dd3bf	-0.009633004
56	0x3c9e65e6	0.019335698
57	0xbbdaeba7	-0.006680924
58	0xbbfbc7be	-0.0076837232
59	0x3c87febb	0.016600957
60	0xbd0698f9	-0.03286073
61	0xba3d16f5	-0.00072131987
62	0x3ba0e911	0.004910596
63	0xbbfdbe19	-0.0077436087
64	0xbf03bf18	-0.5146346
65	0x3de00e22	0.109401956
66	0xbe72b34d	-0.2370121
67	0x3d4991e3	0.049211394
68	0xbcba64e8	-0.022753194
69	0x3d7e059a	0.06201706
70	0x3e86b143	0.26307115
71	0xbe111517	-0.14168201
72	0x3d1971f4	0.03746219
73	0x3d96c759	0.07362241
74	0x3db82be5	0.08992747
75	0xbd6c509d	-0.057694066
76	0x3c083dda	0.008315528
77	0xbe845a57	-0.25850174
78	0x3de24560	0.110483885
79	0xbd249480	-0.040180683
80	0x3ad5613a	0.0016279586
81	0x3cbc2730	0.022967905
82	0xbe5d0a11	-0.21585871
83	0x3e92e366	0.28689116
84	0x3f196541	0.59920126
85	0x3e4a5062	0.19757226
86	0x3e143f1b	0.14477198
87	0xbec857b3	-0.3912941
88	0x3eced44a	0.4039634
89	0xbf092e14	-0.53585935
90	0xbe3985b1	-0.18117405
91	0x3e8ba237	0.27272198
92	0xbe2cb9c4	-0.16867739
93	0xbe1c0af2	-0.1523855
94	0x3f5f1297	0.8713774
95	0xbec7c0e3	-0.39014348
96	0x3ed067d5	0.40704218
97	0x3e2a3082	0.16620067
98	0xbe15cd17	-0.14629017
99	0xbc8857bf	-0.016643403
100	0x3ed23e4c	0.41063154
101	0xbf442c4c	-0.7663009
102	0x3de0f04e	0.109833345
103	0xbe753459	-0.2394575
104	0x3df58d30	0.1198982
105	0xbdc49b6c	-0.09599957
106	0xbe43c1e6	-0.19116935
107	0x3f4995c1	0.7874413
108	0xbe8cda57	-0.2751033
109	0x3e2d8e75	0.16948874
110	0xbeb76975	-0.35822645
111	0xbe366c99	-0.17814864
112	0xbb1e35ef	-0.0024141034
113	0x3d1a5254	0.03767617
114	0xbd969fff	-0.073547356
115	0x3c8f33db	0.017480781
116	0x3b6e0083	0.0036316223
117	0xbe71771d	-0.23580594
118	0x3d2ccdb9	0.04218838
119	0xbdf6f022	-0.120575204
120	0x3c7012ca	0.014652917
121	0xbd4bc46e	-0.049747877
122	0xb8adf86a	-8.2955536e-05
123	0x3dec7629	0.11545975
124	0xbd610721	-0.05493844
125	0xbc818b31	-0.015813442
126	0x3d5e7cb8	0.05431816
127	0xbc0a41a7	-0.008438504
128	0xbc09c884	-0.008409623
129	0x3cd601c0	0.026123881
130	0xbd6e8baf	-0.05823868
131	0xbde49c80	-0.111626625
132	0xbd948533	-0.07251968
133	0x3d93aa45	0.07210211
134	0xbe3d3022	-0.18475392
135	0x3df947be	0.12171887
136	0xbd3e8b12	-0.046519347
137	0x3c6a652b	0.014306347
138	0x3ba645e9	0.005074252
139	0x3cba4851	0.022739561
140	0x3d7b9857	0.06142458
141	0x3e079597	0.13240658
142	0xbc3eb590	-0.011639968
143	0xbd67cba3	-0.056590687
144	0xbdea7aaa	-0.114491776
145	0x3dd0cefc	0.10195729
146	0x3e93adb9	0.28843477
147	0xbb1c9a54	-0.0023895698
148	0x3ded031a	0.11572857
149	0x3c8e1171	0.017342301
150	0xbd9f73c0	-0.077857494
151	0xbdd5c6a2	-0.10438277
152	0x3d6f4d86	0.05842354
153	0x3ef407be	0.47662157
154	0xbdb738f9	-0.089464135
155	0xbd061349	-0.032733236
156	0xbdfea739	-0.12434239
157	0xbd3107c2	-0.04322029
158	0xbea998ba	-0.33124334
159	0xbe0e3af6	-0.1388968
160	0xbeb47444	-0.35244954
161	0xbd78704d	-0.060653973
162	0xbe0c68b7	-0.1371182
163	0xbe16bcff	-0.14720534
164	0xbed4094e	-0.4141335
165	0x3d8fb0e1	0.07016159
166	0x3e35c908	0.17752469
167	0xbf16d969	-0.5892549
168	0xbdf47c91	-0.11937822
169	0xbebe3e53	-0.37156925
170	0x3ee85b19	0.45382002
171	0x3e88dd71	0.26731446
172	0x3ef7a2dd	0.48366442
173	0x3ae321c4	0.0017328789
174	0xbea4a76a	-0.32158977
175	0x3f8745f5	1.0568224
176	0xbe422be4	-0.18962055
177	0xbfad1e6c	-1.3524909
178	0xbcee4a5f	-0.029088197
179	0xbd5d3d7c	-0.054013714
180	0x3e30e457	0.17274605
181	0xbc54eb43	-0.012995544
182	0x3e855420	0.26040745
183	0x3bc9705a	0.0061474266
184	0x3caf4f74	0.02140019
185	0xbc107a59	-0.008818232
186	0x3ca48842	0.020084504
187	0xbe36bfa0	-0.17846537
188	0xbd9219a5	-0.071337976
189	0xbd2d16c7	-0.04225805
190	0xbdfc3d00	-0.12316322
191	0x3db43280	0.087986946
192	0xbdab7ced	-0.08373437
193	0xbd98e7d1	-0.074660905
194	0x3dcd92f1	0.100377925
195	0x3f888781	1.0666353
196	0x3f31c62e	0.69443023
197	0x3d749786	0.059714817
198	0xbe76d0c6	-0.24103078
199	0x3e208150	0.15674329
200	0x3f91757f	1.1363982
201	0x3f413e06	0.75485265
202	0x3f2468a4	0.6422217
203	0x3ece6880	0.40314102
204	0x3f25f21a	0.6482254
205	0x3eab0826	0.33404654
206	0x3ec7727b	0.3895453
207	0xbcb7f04f	-0.022453455
208	0x3eab3f18	0.33446574
209	0xbd9dcbc5	-0.077048816
210	0x3ecec0ce	0.40381473
211	0x3e5c5b82	0.21519282
212	0x3e24f358	0.16108453
213	0x3e1501bb	0.14551441
214	0x3f5f28c3	0.8717157
215	0xbede1145	-0.4337255
216	0x3eb88ef1	0.36046556
217	0x3edcb97b	0.4311026
218	0x3e90829d	0.2822465
219	0x3eef167f	0.4669685
220	0x3eae866b	0.34086928
221	0xbf07fd45	-0.53120834
222	0xbf0ac38a	-0.5420462
223	0x3f0907b0	0.53527355
224	0xbdd242a1	-0.10266615
225	0xbe0c8f64	-0.13726574
226	0x3dc69579	0.096964784
227	0x3daf031a	0.085455135
228	0xbe112f65	-0.14178236
229	0x3d8f436a	0.0699528
230	0x3e67cc92	0.22636631
231	0xbf3c587f	-0.73572534
232	0xbe0c1778	-0.13680828
233	0xbe0793e9	-0.13240017
234	0x3e1f2b84	0.15543944
235	0xbe099e2f	-0.13439249
236	0x3e2607f4	0.16213971
237	0xbda05ae4	-0.07829836
238	0x3d8708b2	0.065934554
239	0xbd93332f	-0.07187497
240	0xbf70f9c7	-0.9413113
241	0xbdeafbe3	-0.11473825
242	0x3dace06d	0.08441243
243	0x3e4bc03a	0.19897547
244	0xbdbdbfe2	-0.09265114
245	0xbea3155f	-0.31852242
246	0x3d7a4074	0.061096624
247	0x3c26edef	0.010188564
248	0xbca81a13	-0.020520246
249	0xbe139a30	-0.14414287
250	0xbebc9500	-0.36832428
251	0xbda5008d	-0.08056746
252	0xbe8cacf5	-0.27475706
253	0x3d6ba4ae	0.057530098
254	0xbe50443f	-0.20338534
255	0x3da80ccc	0.08205566

onnx::Conv_670 f4 [16]
0	0x40a912c6	5.2835417
1	0x3ec10029	0.37695435
2	0x405e9997	3.4781244
3	0x40131de4	2.2986994
4	0x3fb93be9	1.4471408
5	0x3fd4fc73	1.6639541
6	0x40b883ca	5.7660875
7	0x4037b9b3	2.8707092
8	0xbf8fe975	-1.124312
9	0x4020ff86	2.515596
10	0x41343c96	11.2647915
11	0x4168b6ef	14.5446615
12	0xc120d6c8	-10.052437
13	0x410b22e4	8.696018
14	0x41456155	12.336263
15	0x40cdee24	6.43532

onnx::Conv_672 f4 [16, 16, 1, 1]
0	0x3dd1c3b1	0.10242403
1	0x3ee1afc1	0.44079402
2	0xbe3da41d	-0.18519635
3	0xbeee5dae	-0.46555847
4	0xbf59c384	-0.8506396
5	0x3d191953	0.037377667
6	0x3f2f6510	0.68513584
7	0x3fd69eb6	1.6767185
8	0x3d715e6b	0.058927935
9	0xbf03a092	-0.51416886
10	0x3d36ef9c	0.044662103
11	0xbe96136c	-0.29311693
12	0x3f2df7a5	0.67956
13	0x3fae6c3c	1.362678
14	0x3f4d6a77	0.8024058
15	0xbf2c323c	-0.6726415
16	0xbe0f2fa0	-0.13983011
17	0xbe7aa231	-0.24475934
18	0xbe9ba98a	-0.30402786
19	0x3e78a740	0.24282551
20	0xbf6286bd	-0.88486844
21	0xbe267ebb	-0.16259281
22	0x3d90b627	0.07065993
23	0xbe2576d2	-0.16158608
24	0x3ea6dfd1	0.32592633
25	0xbf006b57	-0.5016379
26	0x3e1b119f	0.1514344
27	0x3f32a3a8	0.6978097
28	0x3efa0e72	0.48839146
29	0xbebdbb43	-0.37056932
30	0x3f5868da	0.8453499
31	0x3d1df7ed	0.03856652
32	0x3e11a1b0	0.14221835
33	0xbe213d1b	-0.15745966
34	0x3ce21ea9	0.02760251
35	0x3e4ab13e	0.19794175
36	0xbf1cff17	-0.61326736
37	0x3ccef966	0.025265407
38	0x3f071a36	0.5277437
39	0x3f85e88d	1.0461594
40	0xbe02fe8e	-0.12792417
41	0x3c983f72	0.01858494
42	0xbb4fc027	-0.0031700225
43	0x3f03bc75	0.5145944
44	0xbe81d4c7	-0.2535765
45	0xbfdbfd64	-1.7186704
46	0xbe97343a	-0.29532033
47	0xbe9e6ad5	-0.3094088
48	0x3e5b52bb	0.21418278
49	0x3c9a5750	0.018840462
50	0x3ec40093	0.38281688
51	0x3c004d43	0.007830921
52	0x3cc621d2	0.024186049
53	0xbf0e4e83	-0.5558855
54	0x3c0888f2	0.008333432
55	0x3c2ab40f	0.010418906
56	0x3e540aa6	0.20707187
57	0xb9ad007b	-0.0003299749
58	0xbf9933c1	-1.1968919
59	0x3f12be42	0.5732156
60	0x3bda1e6c	0.0066564586
61	0x3bbabb88	0.005698625
62	0x3db31c11	0.087455876
63	0xb911c6d7	-0.00013902351
64	0x3f851b59	1.0398971
65	0x3ca93b64	0.020658202
66	0x3e331361	0.17487861
67	0x3ed323be	0.41238207
68	0x3ebad710	0.36492205
69	0x3db55b4c	0.08855304
70	0xbe4ca4ef	-0.19984792
71	0x3f10bbeb	0.5653674
72	0x3fa6dd03	1.3036197
73	0xbefcccde	-0.4937505
74	0x3e4efad8	0.20212877
75	0x3f00d38c	0.50322795
76	0xbe8a3d2a	-0.2699979
77	0xbe8be88b	-0.27325854
78	0x3f4db74d	0.8035782
79	0x3deeef14	0.11666694
80	0xbea4bccd	-0.32175294
81	0x3c26497b	0.010149355
82	0xbcb19167	-0.021675779
83	0xbead47ae	-0.3384375
84	0xbe80d63a	-0.25163442
85	0xbe48ea4d	-0.19620629
86	0xbf63652f	-0.8882627
87	0xbf0809c6	-0.53139913
88	0xbdef2af6	-0.11678116
89	0xbc31a58e	-0.010842694
90	0x3db14d0c	0.08657274
91	0x3e9b70a4	0.30359375
92	0xbee73acb	-0.45162043
93	0xbe3506f4	-0.17678434
94	0x3f5a4bcc	0.85271907
95	0x3f709395	0.9397519
96	0x3eba381b	0.3637093
97	0x3eefcb75	0.46834913
98	0x3e841ee7	0.25804827
99	0xbf1e79fe	-0.61904895
100	0x3ea17903	0.31537637
101	0xbd810e83	-0.06301596
102	0x3f2e0f1f	0.6799182
103	0xbf3eea61	-0.74576384
104	0x3f0c5048	0.5481
105	0x3e89f16c	0.26942003
106	0x3d92d38d	0.07169256
107	0x3fb6fbf5	1.4295641
108	0x3e31bf01	0.17358018
109	0xbed8953b	-0.42301354
110	0x3f6d4614	0.92685056
111	0xbe9a7608	-0.30168176
112	0x3e606e41	0.21917059
113	0xbd3d8d59	-0.046277378
114	0xbe6b8567	-0.23000108
115	0x3fdad4e2	1.7096217
116	0xbf68842d	-0.90826684
117	0xbe220e98	-0.1582588
118	0x3c9593e4	0.018258996
119	0xbf970fb2	-1.1801665
120	0xbee6c381	-0.45071033
121	0xbd318d1a	-0.043347456
122	0xbe777d30	-0.24168849
123	0x3cbb166b	0.022837838
124	0xbf3c9d94	-0.73677945
125	0x3ca5edd0	0.020255
126	0x3e4a4e83	0.19756512
127	0xbe2600a7	-0.16211186
128	0x3c93868d	0.018008495
129	0xbd5b8e8f	-0.05360275
130	0xbdd391cf	-0.10330545
131	0xbfa26279	-1.2686301
132	0x3fc4b367	1.5367249
133	0x3968d7ec	0.00022205681
134	0xbf3281a0	-0.6972904
135	0xbe12f4d1	-0.14351203
136	0x3cc52b1d	0.02406841
137	0xbecced86	-0.40024966
138	0xbd0726ea	-0.032996096
139	0x3b75ee1f	0.0037525964
140	0x3d35fa4d	0.04442816
141	0xbe47bb45	-0.19505031
142	0x3ec9aebb	0.3939112
143	0xbe739dac	-0.23790616
144	0x3ed86428	0.42263913
145	0xbe6ba05b	-0.2301039
146	0xbec11352	-0.37710053
147	0xbe186796	-0.14883265
148	0x3f6f73cc	0.93536067
149	0xbe7930f3	-0.24335079
150	0x3f0cb304	0.54960656
151	0xbe12550f	-0.1429026
152	0xbe1f576a	-0.1556069
153	0xbe2e261f	-0.1700673
154	0xbe6edda7	-0.23326741
155	0xbc0c2e8b	-0.008556019
156	0xbf179c9b	-0.59223336
157	0x3f3d9c6a	0.74066794
158	0xbdfa723d	-0.122288205
159	0xbf0b74da	-0.54475176
160	0x3d315680	0.043295383
161	0xbda79ebb	-0.08184572
162	0xbdd84883	-0.105607055
163	0xbd7ca7fa	-0.061683632
164	0x3ddae3c3	0.10687973
165	0xbcdbe583	-0.026842838
166	0x3ea41028	0.32043576
167	0xbea30a61	-0.31843856
168	0xbdabc566	-0.0838726
169	0x3efb7d1d	0.4911889
170	0x3e523f6c	0.20532006
171	0xbde35480	-0.111001015
172	0x3e7c82a9	0.24659218
173	0xbda4392f	-0.080187194
174	0x3f39ab78	0.72527266
175	0x3e2fa7d7	0.1715387
176	0xbe28158c	-0.1641447
177	0xbef07591	-0.46964696
178	0xbed65e0f	-0.41868636
179	0x3d8c2c55	0.06844393
180	0x3e968b76	0.29403275
181	0x3f1cfe2f	0.61325353
182	0x3d760a39	0.060068343
183	0xbe5b7798	-0.2143234
184	0xbe25ce4e	-0.1619198
185	0x3e69e542	0.22841361
186	0xbc0ca000	-0.008583069
187	0xbe0b2bc2	-0.13590911
188	0x3cbe9422	0.023263995
189	0x3dec7e96	0.11547582
190	0xbe022fd4	-0.12713557
191	0x3ea40d85	0.32041565
192	0xbde94d66	-0.11391716
193	0xbe18c0c0	-0.14917278
194	0xbe31effb	-0.17376702
195	0x3d868cd0	0.065698266
196	0x3d5127d5	0.051063377
197	0xbe34075e	-0.17580935
198	0x3ec3b177	0.38221332
199	0xbc9513b4	-0.018197872
200	0x3d184976	0.037179433
201	0x3d285021	0.041092042
202	0x3d81a76e	0.06330763
203	0xbf08afa2	-0.53392994
204	0x3e156c55	0.14592107
205	0xbcf02765	-0.02931566
206	0xbc9ddc98	-0.019270226
207	0xbdd46d30	-0.10372388
208	0xbeb60d65	-0.35557094
209	0x3d0f0b05	0.03492262
210	0xbe7646b4	-0.24050409
211	0x3e86fd37	0.26365063
212	0xbe79c688	-0.2439214
213	0x3ed793b1	0.42104867
214	0xbe236e77	-0.15960108
215	0x3f401116	0.7502607
216	0x3eac33df	0.33633325
217	0x3f762320	0.96147346
218	0xbe07dd64	-0.13268048
219	0xbec1dbba	-0.3786295
220	0xbeba8cdb	-0.3643559
221	0x3e9cd9a4	0.30634797
222	0xbecbdcf4	-0.3981701
223	0x3e463b70	0.19358611
224	0xbc8fd577	-0.017557843
225	0x3e31f2d6	0.17377791
226	0xbe256c1e	-0.16154525
227	0x3d347bea	0.044063486
228	0x3d030fe7	0.031997588
229	0x3cd3f39c	0.025872998
230	0xbe05bbd9	-0.1305994
231	0x3bcb0614	0.006195793
232	0x3c068f66	0.0082129
233	0x3f0ef40e	0.5584115
234	0xbd265063	-0.040604006
235	0xbf0e5fbc	-0.5561483
236	0xbf992ad0	-1.196619
237	0x3ed123f0	0.4084773
238	0xbdb82c1c	-0.08992788
239	0xbeb05bb5	-0.34444967
240	0xbda0fa2b	-0.07860216
241	0xbfec28cc	-1.844995
242	0x3f3d4915	0.7393964
243	0xbdf1d1bd	-0.118075825
244	0xbe448601	-0.19191743
245	0x3e0cf766	0.1376625
246	0xbd01085e	-0.03150212
247	0xbe7f95c3	-0.24959473
248	0xbd4f5d11	-0.050625864
249	0x3eba66fd	0.364067
250	0x3f18377b	0.59459656
251	0xbf872dd8	-1.0560865
252	0xbcffdd79	-0.031233536
253	0xbdfacc99	-0.12246055
254	0x3f666e24	0.9001181
255	0x3dedbd3d	0.1160836

onnx::Conv_673 f4 [16]
0	0xc19eaa2b	-19.83309
1	0x40e0da64	7.026659
2	0x40df0ffc	6.970701
3	0x40c698d8	6.2061577
4	0xc11f4574	-9.954456
5	0x415e2d0f	13.886001
6	0x41240e37	10.25347
7	0x4146e46e	12.430769
8	0x405fe5a4	3.4983912
9	0xc021f41d	-2.5305245
10	0x40033af3	2.050473
11	0x3fe5469a	1.7912171
12	0x4012a416	2.291265
13	0xc005436c	-2.08224
14	0x400acfa0	2.1689224
15	0x41217c03	10.092776

onnx::Conv_675 f4 [16, 1, 3, 3]
0	0x3bc3e025	0.005977648
1	0x3cd15e0c	0.02555754
2	0x3dbe5303	0.09293177
3	0x3aa67b46	0.0012701533
4	0x3f09bbf6	0.5380243
5	0xbdb74940	-0.08949518
6	0xbcabdee8	-0.020980313
7	0xbf3fe094	-0.74952054
8	0x3e3875a5	0.18013628
9	0xbc903b70	-0.017606467
10	0x3e810f76	0.25207108
11	0xbc3dfed6	-0.011596402
12	0x3e0e960f	0.1392443
13	0x3ecccff1	0.40002397
14	0xbe2de919	-0.16983451
15	0xbdc7ad46	-0.09749846
16	0xbf223531	-0.63362414
17	0xbe1a307d	-0.1505756
18	0xbd23dcd9	-0.04000554
19	0xbeba8038	-0.36425948
20	0x3dc8fd8a	0.09813984
21	0xbeaf8c6d	-0.34286824
22	0x3fb95990	1.4480457
23	0xbea06ea0	-0.313344
24	0x3d690a24	0.056894436
25	0xbe3fde2e	-0.18737099
26	0xbe05ad2b	-0.1305434
27	0xbe019e47	-0.12658034
28	0xbf4dbe29	-0.80368286
29	0xbe92a78e	-0.2864346
30	0xbf8214ed	-1.0162636
31	0xbf44c2be	-0.76859653
32	0x3ebe2fc9	0.37145832
33	0x3e482f30	0.1954925
34	0x3f2cc10d	0.6748207
35	0x3fd9b35d	1.7007862
36	0xbe138dd9	-0.1440958
37	0xbe47f554	-0.19527179
38	0x3c966fa5	0.018363783
39	0x3e8e5408	0.27798486
40	0x3f2088ff	0.6270904
41	0xbd29d81b	-0.04146586
42	0x3e94327e	0.28944772
43	0x3edc108c	0.42981374
44	0xbe045fb6	-0.12927136
45	0xbd40ee90	-0.04710251
46	0xbe8ba7f9	-0.2727659
47	0xbd61a733	-0.055091094
48	0xbdea0ac0	-0.11427832
49	0x3f54e550	0.83162403
50	0xbcb786be	-0.022403117
51	0x3b09266b	0.002092744
52	0xbe2f6ac4	-0.17130572
53	0xbd51cdd3	-0.05122168
54	0xbc946867	-0.01811619
55	0xbe89fb60	-0.26949596
56	0xbe0feb58	-0.1405462
57	0xbe2b9ee1	-0.16759826
58	0x3e2e8b18	0.17045248
59	0x3e29ce03	0.16582493
60	0x3c414809	0.01179696
61	0x3e0ba684	0.1363774
62	0xbcaf6d95	-0.021414557
63	0x3da5f954	0.08104196
64	0xbe7eea12	-0.24893978
65	0xbca20b14	-0.019780673
66	0xbee61b63	-0.4494277
67	0x3f573289	0.84061486
68	0xbd89675e	-0.06709169
69	0x3c8b7123	0.017021721
70	0xbd998c03	-0.07497408
71	0xbc872b0b	-0.016500017
72	0x3db7d638	0.08976406
73	0xbe573454	-0.21016055
74	0x3dab5230	0.083652854
75	0xbec4648b	-0.38357958
76	0x3fa74a52	1.3069556
77	0xbc37c212	-0.011215704
78	0x3c08b693	0.00834431
79	0xbe3bc538	-0.18336952
80	0x3c05b35a	0.0081604365
81	0xbd9df2b0	-0.077123046
82	0xbd154682	-0.036444195
83	0xbd43093a	-0.04761622
84	0xbe688951	-0.22708632
85	0x3fa3ea29	1.2805835
86	0xbe25b69a	-0.16182938
87	0xbdb050bc	-0.08609149
88	0xbea59026	-0.3233654
89	0xbddedf05	-0.10882381
90	0xbcfa4464	-0.03055019
91	0xbd8ce005	-0.06878666
92	0xbda17224	-0.07883099
93	0xbd54b8a9	-0.05193392
94	0xbdb8e943	-0.09028866
95	0xbdfabdbe	-0.12243222
96	0xbdba1447	-0.09085899
97	0xbd25b88b	-0.040459197
98	0x3d3b3f33	0.04571457
99	0x3e447c9f	0.19188164
100	0x3f048b8c	0.5177543
101	0xbea61491	-0.32437566
102	0x3ef2113e	0.4727878
103	0xbf68724e	-0.90799415
104	0xbe834a33	-0.25642547
105	0xbe299117	-0.16559254
106	0xbebd2c08	-0.36947656
107	0x3f17b755	0.5926412
108	0x3e0cbad7	0.13743149
109	0x3e7a65d4	0.24452907
110	0x3d242c8f	0.040081557
111	0x3da0dc40	0.07854509
112	0xbec71feb	-0.3889154
113	0x3bce3e4e	0.0062940484
114	0x3d0a5081	0.03376818
115	0xbbe4976d	-0.006976059
116	0xbd48193b	-0.048852187
117	0x3cbd6331	0.023118587
118	0x3d80c2ba	0.06287141
119	0xbb6ee9aa	-0.0036455193
120	0x3e27ff05	0.16405876
121	0xbe41d39f	-0.18928383
122	0x3e93d347	0.2887213
123	0x3de9a191	0.114077695
124	0x3d1bc954	0.0380338
125	0x39ce390e	0.0003933389
126	0x3c2442bf	0.010025679
127	0xbd8c21fe	-0.06842421
128	0xbcdcfb49	-0.02697529
129	0xbdd72a43	-0.10506108
130	0x3f868d90	1.0511951
131	0xbcfc7ca7	-0.030821158
132	0x3cadc164	0.02121038
133	0xbe76a982	-0.240881
134	0x3d86475a	0.06556578
135	0xbdee46d8	-0.11634606
136	0x3e16c621	0.14724018
137	0x3d184c80	0.03718233
138	0x3c11ec11	0.00890638
139	0x3f1b222b	0.6059901
140	0xbebb9398	-0.36636043
141	0xbcf69414	-0.030099906
142	0x3da451f4	0.08023444
143	0xbe800d93	-0.25010356

onnx::Conv_676 f4 [16]
0	0x3d94f152	0.07272591
1	0x406ef0f4	3.7334566
2	0xbf48bdb9	-0.78414494
3	0x40e76b0c	7.2318172
4	0xc09efb4c	-4.968176
5	0x3f06becc	0.5263488
6	0x3fcaa90a	1.5832837
7	0x4004cde4	2.0750666
8	0xbf1f0000	-0.62109375
9	0x4032f71d	2.7963326
10	0x40e9de79	7.3084073
11	0x3e124014	0.14282256
12	0x3ff7ccb4	1.9359345
13	0xc060b9b1	-3.5113337
14	0x3f5e7212	0.8689281
15	0xbd49b6b0	-0.04924649
