mmhmm-camera-development/teleport/assets/models/segnetu_dynamic_2022_09_01_nhwc_fix.onnx (onnx, 837221 bytes, 361 tensors)

morph0.0.weight f4 [16, 3, 3, 3]
000000 5c 68 a7 3e bc 7c 74 3f 46 00 54 bf f0 d4 c6 bf
       0.32696807 0.9550283 -0.8281292 -1.5533733
000010 ca b9 10 c0 33 1d 62 c0 4e 69 4a 3e fb 61 68 40
       -2.2613397 -3.5330322 0.19766733 3.6309803
000020 98 7b 29 40 76 ce 01 3f e6 dc 8c 3f 79 29 16 bf
       2.6481686 0.5070566 1.1004913 -0.5865703
000030 95 e8 e2 bf 43 88 0f c0 bb 0c 6c c0 7d b2 34 3e
       -1.7727228 -2.2426918 -3.688277 0.17646213
000040 9f 16 87 40 82 12 3e 40 ee a5 07 3f 46 27 5f 3f
       4.2215114 2.9698796 0.52987564 0.871693
000050 dd 83 98 bf 1f c0 ef bf f6 17 f9 bf 15 d0 84 c0
       -1.1915241 -1.8730506 -1.9460437 -4.1504006
000060 af 3d 6c 3b cf f0 88 40 83 b1 29 40 32 3c ff be
       0.0036047508 4.2793956 2.6514595 -0.49850613
000070 4a 8e 12 c0 49 b0 d7 be c0 4f 88 bf 70 1c a3 c0
       -2.2899346 -0.42126682 -1.0649338 -5.0972214
000080 63 1f 31 c0 90 a1 3b bf cb 74 82 c0 92 e2 00 c0
       -2.7675407 -0.732934 -4.076757 -2.0138288
000090 8a f2 87 bc e2 e6 a2 bf 3d 1a 82 be 19 db 37 bf
       -0.016595144 -1.272671 -0.25410643 -0.7181869
0000a0 39 a4 57 c0 d3 27 08 c0 70 f7 b7 be e9 33 06 c0
       -3.3693984 -2.1274307 -0.35930967 -2.0969183
0000b0 ba c7 80 bf 64 0a b2 bc 4b 9a 24 40 3c 22 01 3f
       -1.0060952 -0.02173347 2.5719173 0.5044286
0000c0 fa d2 6f 3f ab b6 a4 40 9d 27 2b 40 4c a5 de 3d
       0.936813 5.1472983 2.6742928 0.108713716
0000d0 13 bf 7e 40 6c 5e 10 40 d3 a3 27 3f 66 8e c9 be
       3.9804122 2.255763 0.6548435 -0.39366454
0000e0 22 0d bb bf 9d 20 86 40 62 81 e2 3f 48 93 37 c0
       -1.4613383 4.191481 1.7695735 -2.8683643
0000f0 75 7b 64 3f cd 63 f7 bc b6 cb 00 c0 c2 8f 95 3f
       0.8925088 -0.030198956 -2.0124335 1.1684496
000100 1a 49 01 bf 3a 12 d1 bf f4 31 96 40 41 60 ae 3f
       -0.5050217 -1.6333687 4.693598 1.3623124
000110 03 1e 6c c0 30 59 81 3f 52 38 d7 be 54 08 0c c0
       -3.6893318 1.0105343 -0.42035156 -2.1880083
000120 52 32 e8 3f 93 15 0f bf a2 b8 dd bf 56 c1 98 40
       1.8140357 -0.55892295 -1.732197 4.7736006
000130 1f 93 a3 3f 49 9d 78 c0 f7 ac 44 3f 4b 09 f2 be
       1.2779273 -3.8846 0.76826423 -0.47272715
000140 a5 43 ec bf a7 72 8e be 60 97 db 3d 1c 9a 69 3f
       -1.8458143 -0.27821848 0.10722232 0.9125078
000150 06 b1 0f bf 39 11 4e 3e 11 2d 35 c0 f9 6e ea 3e
       -0.5612949 0.20123757 -2.8308756 0.4578779
000160 b2 43 2f be fc c4 9c c0 a6 85 f4 be 1e ff 25 3f
       -0.17115667 -4.899046 -0.47758216 0.648424
000170 58 9a 42 3f b1 0e 97 3c db c3 83 3f 64 06 38 c0
       0.7601676 0.018439623 1.0294145 -2.87539
000180 eb 05 83 3e 62 45 53 3f 31 fc ad c0 9c 2b 8d bf
       0.25590453 0.82527745 -5.437035 -1.1028934
000190 81 72 1c 3f b2 3e b1 3f ec 05 17 bf f6 0a 8b 3f
       0.6111222 1.3847258 -0.5899341 1.086272
0001a0 af 9b 96 c0 f8 6b 90 3f b8 d5 b5 3f 42 70 e0 c0
       -4.7065043 1.128295 1.4205847 -7.0137033
0001b0 4c 1a 06 3f 1e e3 e1 3f e8 21 a9 3f 72 f7 68 3f
       0.52383876 1.7647436 1.3213472 0.9100257
0001c0 ff d4 2f 40 d8 4e 10 40 6e ce 99 3e 9b 88 e4 3f
       2.7473752 2.2548122 0.30040306 1.7854189
0001d0 35 1e da 3f 6d 70 16 3f dc b5 9b 3f 17 85 a5 3f
       1.7040468 0.587653 1.2164874 1.2931241
0001e0 5a 63 a8 3f cc 1f 11 40 c9 24 0f 40 62 5d 86 3f
       1.315532 2.2675657 2.2366202 1.0497248
0001f0 2d 19 09 40 89 25 0c 40 ad 8a 72 bf fa 16 2e c0
       2.1421616 2.189791 -0.9474285 -2.7201524
000200 44 68 2a c0 c1 b0 01 c0 20 28 95 c0 f5 cd 8a c0
       -2.6626139 -2.0264132 -4.661148 -4.3376412
000210 a6 de 81 bf 82 75 65 c0 6e 4d 42 c0 1f 13 b4 bf
       -1.0146072 -3.585297 -3.035976 -1.4068335
000220 2d ed 3f c0 7e 49 4c c0 74 08 22 c0 ce ce 8d c0
       -2.998851 -3.1919856 -2.531766 -4.4314947
000230 02 e3 83 c0 54 08 13 c0 97 2c 47 c0 85 c6 2c c0
       -4.121461 -2.2973833 -3.1120965 -2.6996167
000240 79 cb 09 40 61 ae 22 40 1f 41 6f 40 30 4d 35 40
       2.153044 2.5418932 3.7383497 2.8328362
000250 01 d5 06 40 cc 08 3d 40 af 92 47 40 c1 6f 08 40
       2.1067507 2.953662 3.1183279 2.131821
000260 3e 23 25 40 b7 fe 99 bf b5 d6 51 3f d8 eb 4c bf
       2.580276 -1.2030858 0.8196824 -0.8004737
000270 d2 8d 38 be bc c1 1d 40 02 94 90 3f 0b 5c 65 bf
       -0.1802285 2.4649496 1.1295168 -0.8959357
000280 4b de 54 3f 0d 05 41 3e a2 5c 61 3f 2f ff 80 bf
       0.8315169 0.18849583 0.8803197 -1.0077876
000290 dd d3 b5 3f 04 77 cc 3f 4d 40 aa c0 cc 36 a5 3f
       1.420528 1.5973821 -5.320349 1.2907348
0002a0 f3 49 f8 3f 5c e3 fa bf 43 d1 4d 3f 46 eb 46 3f
       1.9397568 -1.9600635 0.80397433 0.7770275
0002b0 42 ae 95 bf 7c 3f 96 3f 18 d5 0a 40 9f 76 a7 c0
       -1.1693804 1.1738124 2.1692562 -5.23323
0002c0 d2 a4 d4 3f 24 63 f7 3f da 74 f7 bf 03 e8 32 3f
       1.6612799 1.932713 -1.9332535 0.6988527
0002d0 0e 9e 7c 3f 7b c4 b6 bf 1e d1 cd 3f da ac 11 40
       0.9867867 -1.4278711 1.6079443 2.276175
0002e0 fa 9a dc c0 1c 7d ef 3f 63 b5 2d 40 81 d4 1a c0
       -6.893918 1.8710055 2.714196 -2.4192202
0002f0 e8 f1 ac 3f d5 00 05 b8 30 e0 6c 3d 05 1f db bd
       1.3511324 -3.1710446e-05 0.05783099 -0.10699276
000300 b8 7b 81 bb 01 5d 1d be e6 49 31 be ed fd e0 3d
       -0.003951516 -0.1536751 -0.17313346 0.109859325
000310 40 e8 f5 bc 17 ee 80 bd 15 a5 ea bd a3 de 6d bd
       -0.030017972 -0.06295412 -0.11457268 -0.05807365
000320 ca 86 89 3d 1f 80 bd bc fe e6 c1 3e e9 28 e8 bc
       0.06715162 -0.023132382 0.37871546 -0.02833982
000330 a6 c8 dc bd 71 ef 01 bd d2 e5 16 be 99 01 34 be
       -0.10780458 -0.03172249 -0.14736107 -0.17578734
000340 d3 83 a3 3d 76 de 49 be 72 2f 58 be dc 3f bb bd
       0.07984128 -0.19713768 -0.21111849 -0.091430396
000350 b1 f3 e6 3d b3 46 38 3e 7f a9 29 3e 96 01 0c 3c
       0.11276949 0.1799572 0.16568564 0.0085453
000360 26 17 36 bf f3 39 fe bf 44 fc 98 bf a5 0f 11 c0
       -0.7112907 -1.9861435 -1.1951985 -2.2665799
000370 b9 73 a4 c0 b7 59 73 c0 65 93 bd bf 41 29 6e c0
       -5.1391263 -3.8023508 -1.4810606 -3.721268
000380 b2 05 1c c0 c7 c1 81 3f 76 df d6 3f 95 c3 9b 3f
       -2.4378476 1.0137261 1.6786945 1.2169062
000390 91 b9 f2 3f 6a fc 73 40 e5 d0 45 40 91 dc c7 3f
       1.896288 3.8122811 3.090875 1.5614187
0003a0 ac 2c 2e 40 27 9c 26 40 2c 50 9e be 57 84 83 3e
       2.7214766 2.6032808 -0.3092054 0.25686905
0003b0 e8 1d f7 bd 24 cf f7 3e 73 19 cd 3f 33 c9 4a 3f
       -0.12066251 0.48400223 1.6023391 0.79213256
0003c0 e9 d9 fe 3d 8c c6 98 3f 82 9d 5c 3d b9 02 e8 bd
       0.12443907 1.1935592 0.05386115 -0.11328644
0003d0 25 24 86 bd 0e 8f 17 be d7 69 c2 bd 48 e4 0b 3e
       -0.06549863 -0.14800665 -0.094928436 0.13661301
0003e0 15 13 21 3c 97 c0 78 bd 48 af ac 3d 28 c3 61 bd
       0.00983121 -0.060730543 0.0843187 -0.055117756
0003f0 09 a5 85 3d 2a 4f 92 bd e4 ad 71 3d a2 39 1f 3c
       0.065256186 -0.071440056 0.059003726 0.009718331

morph0.0.bias f4 [16]
000000 e2 b6 c4 40 8a b1 38 c0 9c af e2 40 82 f7 2e 41
       6.1473246 -2.8858361 7.0839367 10.935427
000010 2b 98 6b 40 63 50 6d bf ac 26 b4 40 1c 7d d3 bf
       3.6811626 -0.92700785 5.6297207 -1.6522555
000020 b3 ca 19 41 e0 8a 1e bf f4 0f de 40 2e 63 95 41
       9.611987 -0.61930656 6.9394474 18.673428
000030 ee df af 40 29 27 29 c0 9a a6 6b c0 84 96 3c bf
       5.496085 -2.6430151 -3.6820436 -0.7366717

morph0.2.weight f4 [16]
000000 f0 2c d5 3e 23 ca 99 3e e4 df fd 3e b6 a2 84 3f
       0.41635847 0.3003703 0.49584877 1.0362155
000010 0e 6f 14 3f cf 9c ea 3e 43 70 ad 3e 5b 17 00 3d
       0.57981956 0.4582276 0.3387471 0.031272274
000020 66 5a 78 3f d8 d7 74 3e f1 3b d1 3e ce ea 8e 3f
       0.9701294 0.23910463 0.40866044 1.1165407
000030 ca f5 45 3f a3 6d 39 3f 30 39 00 bd f8 0a cc 3e
       0.7732817 0.7243292 -0.03130454 0.39852118

morph0.2.bias f4 [16]
000000 bf cf 19 3e 73 ac a8 3e 0d ae 7e 3d d7 df 91 bf
       0.15020655 0.32944068 0.062177707 -1.1396435
000010 8b 75 05 3f d7 15 bf be be 05 01 be 20 06 a1 3a
       0.5213248 -0.3732135 -0.12599847 0.0012285151
000020 e4 a3 02 3c 70 15 db 3a 45 6e 7a 3e 93 fa 09 bf
       0.007973645 0.0016714763 0.24456127 -0.5389797
000030 6d 46 99 3e 4b f5 13 bf 8c c7 1a bd f4 a1 10 bd
       0.29936543 -0.5779616 -0.03778796 -0.0353107

morph0.2.running_mean f4 [16]
000000 73 0c c5 40 d9 34 7a 3f 0e 38 e2 40 de 06 3c 41
       6.1577697 0.9773689 7.0693426 11.751677
000010 c7 da 4d 40 09 c9 38 3f 56 e9 b4 40 04 00 00 00
       3.216478 0.72181755 5.6534834 6e-45
000020 fd 7f 1e 41 04 00 00 00 9b 0d df 40 af 0a a0 41
       9.906247 6e-45 6.970411 20.005217
000030 50 13 c1 40 bc da 8c 40 04 00 00 00 04 00 00 00
       6.0336075 4.401701 6e-45 6e-45

morph0.2.running_var f4 [16]
000000 f6 70 68 3f 91 75 4a 40 1d 8c 38 40 0e 57 01 42
       0.90797365 3.1634257 2.8835518 32.335014
000010 37 42 a9 40 dc 61 2e 40 9b 95 61 3f 04 00 00 00
       5.289333 2.7247229 0.88118905 6e-45
000020 e1 f5 b2 40 04 00 00 00 5c 96 2c 40 7d dc b0 42
       5.5925145 6e-45 2.6966772 88.43064
000030 79 2b b1 40 f8 78 0c 42 04 00 00 00 04 00 00 00
       5.5365567 35.118134 6e-45 6e-45

morph0.3.path1.0.weight f4 [16, 1, 3, 3]
000000 6b 71 74 3e 2c 0a 1c c0 ab 41 c9 bd 8a 7e 4e be
       0.2387139 -2.4381208 -0.09826978 -0.20165458
000010 ab b9 03 41 12 8b ad be 5f 9b ad be fc 3e af bf
       8.232829 -0.33895165 -0.339076 -1.3691096
000020 88 f9 6c be a0 d0 82 bf ac e4 91 c0 04 a1 b5 bf
       -0.23142064 -1.0219917 -4.559164 -1.4189763
000030 b8 d8 33 3f 58 24 43 bf ff 52 36 3f 64 ae 93 3e
       0.7025256 -0.7622733 0.7122039 0.28843987
000040 f9 a7 75 40 cd ab 0c 40 2d 0d 04 be 3e 40 19 bf
       3.8383772 2.197986 -0.12895651 -0.5986365
000050 15 0c 27 3e 9d 04 5d bf b6 86 f2 40 b3 c6 04 c0
       0.16313203 -0.86335164 7.578944 -2.0746276
000060 0c 1e 2d 3e fd b7 9a bf 13 18 27 3d d7 23 9c 3e
       0.16905993 -1.2087399 0.040794443 0.30496094
000070 4a 33 9a 3f 55 c5 dd bc a6 d0 b3 c0 3b 59 81 40
       1.2046902 -0.027071634 -5.61922 4.0421424
000080 4f 9f e4 3d d2 de 3e be b5 b2 35 3e a4 7c 7c bd
       0.11163198 -0.18639687 0.17743953 -0.061642304
000090 61 eb 8e bf 3b 77 9a c0 86 b4 75 bf 84 fb 3d be
       -1.1165582 -4.8270545 -0.9597858 -0.18552977
0000a0 32 54 ee bf 51 df a0 3f 77 8d 32 3f 1c ea 9c 40
       -1.8619444 1.2568151 0.6974711 4.903578
0000b0 c2 3c 03 40 7d 36 e4 bc 9d d2 60 c0 50 fe 88 bf
       2.0505834 -0.027858013 -3.5128548 -1.070261
0000c0 30 85 51 bf e6 87 33 c0 c5 71 c2 3e 2e e0 32 3f
       -0.81843853 -2.8051696 0.37977424 0.6987332
0000d0 ee b2 b4 40 ae 77 dd 3f 14 da d0 bd 57 4b 47 3f
       5.646842 1.7302148 -0.10197845 0.77849334
0000e0 a0 09 95 3c 17 21 b8 3e 7b b7 f5 c0 f5 da ee 3f
       0.018193066 0.35962746 -7.6786475 1.866057
0000f0 58 a0 bd 3c 51 63 3e 3f d5 48 0d 3e 21 b0 bb bf
       0.023147747 0.74370295 0.13797314 -1.4663125
000100 2f 82 29 c0 c3 d7 c4 bf 2f 3d 83 be d6 64 89 bf
       -2.6485708 -1.5378345 -0.25632617 -1.0733898
000110 a9 98 21 be c5 4d f8 3f 97 fe e6 3f ea f0 55 3f
       -0.15780891 1.9398733 1.8046445 0.8357073
000120 ae f8 48 3f c2 20 a7 40 bb 4a 8c 3f 6d 94 54 3e
       0.78504455 5.2227488 1.0960306 0.20759745
000130 fd 4d 52 3f 7b d4 a6 bf 2b 7a a0 3d 1e 95 a3 c0
       0.8215025 -1.3033594 0.07835802 -5.111953
000140 1c 5d d4 bf cb bd e5 bf 84 ba 99 c0 25 69 49 c0
       -1.6590915 -1.7948545 -4.804018 -3.1470425
000150 ce fa fd 3f 5f 32 a8 be 55 a3 83 3f 04 ca 4c bf
       1.9842165 -0.3285093 1.028422 -0.7999575
000160 55 39 f1 bf e4 9e 88 bf 84 13 8e bd a8 b2 78 bf
       -1.8845621 -1.067349 -0.06937316 -0.9714761
000170 6c 5c 8f 3b 08 5b a3 bf d4 40 30 41 c2 f8 9f bf
       0.004375031 -1.2762156 11.015827 -1.249779
000180 52 4a 95 be 9d 0f 85 bf 79 b2 d8 be 09 ae 7c 3d
       -0.29158264 -1.039539 -0.42323664 0.06168941
000190 d3 28 99 40 34 fc 56 3f 65 48 9c 3d 24 f7 16 40
       4.7862334 0.8397858 0.07630996 2.3588343
0001a0 c8 49 f8 bf ff 01 a9 3e 52 3a 70 c0 9b 78 2f c0
       -1.9397516 0.33009335 -3.7535596 -2.7417362
0001b0 80 86 19 bf 8a c3 b1 c0 49 97 b7 bf 1e 68 d9 bd
       -0.59970856 -5.5551195 -1.4343044 -0.10615562
0001c0 83 78 9d be eb 4e b7 3f 04 e1 8f 3e 37 33 91 40
       -0.30756006 1.4320959 0.2810136 4.537502
0001d0 71 b6 cf 3f 9b 2a e3 3f fb 32 05 c0 d1 bf 31 be
       1.6227552 1.7747377 -2.0812366 -0.17358328
0001e0 9b be 2a 40 21 21 b2 c0 ae 7c 59 bf c6 23 24 40
       2.6678836 -5.566544 -0.8495587 2.5646834
0001f0 c8 14 41 3f b3 25 00 3f a3 29 95 bf 21 98 05 bf
       0.75422335 0.50057524 -1.1653332 -0.52185255
000200 25 b3 14 bf e3 b8 23 c0 e0 76 e5 bf ea 54 d0 3e
       -0.5808585 -2.5581596 -1.7926903 0.40689784
000210 85 67 38 3f 31 f4 a3 40 11 47 50 40 ca 6a 08 40
       0.7203296 5.1235585 3.2543375 2.131518
000220 eb 1a 87 40 dc 45 00 40 47 e2 e3 bf 6e 2a 98 bf
       4.222036 2.0042639 -1.7803429 -1.1887949
000230 5e b3 b4 bf a3 63 88 3f 82 9a b2 3f c1 c6 47 3f
       -1.4117239 1.0655407 1.3953402 0.7803765

morph0.3.path1.0.bias f4 [16]
000000 0a 44 27 40 4d c6 91 40 07 c9 82 40 61 80 05 3f
       2.6135278 4.5554566 4.0870395 0.52149016
000010 2b 9c 42 3d cc 4f da 3c 81 56 b2 40 6f 17 87 bf
       0.047512215 0.026649378 5.5730596 -1.0554026
000020 97 82 16 bd 7b be 57 bf fa 2c a9 3f 39 9c 89 3f
       -0.036745634 -0.84275025 1.3216851 1.07508
000030 0b 23 80 bc 57 79 9d 3f fd 74 6d 40 9e 96 18 3f
       -0.01564171 1.2302655 3.7102654 0.59604824

morph0.3.path1.2.weight f4 [16]
000000 92 3e 4b 40 31 73 7a 3f 65 ba 70 40 9d b6 6d 40
       3.175694 0.9783202 3.7613766 3.7142708
000010 9c 9c 93 3f 47 2a 9a bf e2 88 8b 40 23 ab 81 3d
       1.1532168 -1.2044152 4.3604593 0.0633147
000020 ce 77 df 3f 1c 77 b4 3f 6d 08 4f 40 63 6c 87 40
       1.7458436 1.4098849 3.2348893 4.231981
000030 5e 28 f7 3f a2 eb f9 3f ef ec 94 3f 05 1e 28 40
       1.9309194 1.9525034 1.1634806 2.6268322

morph0.3.path1.2.bias f4 [16]
000000 c8 e9 2e 40 83 ff 1f 3f 66 1e a5 3f 69 a4 84 bf
       2.7330189 0.62499255 1.2899902 -1.0362674
000010 ad 56 cf 3f 5f af a2 be 18 59 20 40 cd c0 ef bf
       1.6198326 -0.31774423 2.5054379 -1.8730713
000020 75 68 2c bf eb dc ca 3f 63 bb 90 3f 19 81 96 3d
       -0.6734689 1.5848669 1.1307186 0.07348842
000030 07 bd 4a bf a4 8e 7a bf e8 58 95 bd 48 64 b6 be
       -0.7919468 -0.978739 -0.07292348 -0.35623384

morph0.3.path1.2.running_mean f4 [16]
000000 91 91 5c 40 c1 fb 91 40 c1 eb 8f 40 82 a6 63 3f
       3.4463847 4.5619817 4.4975286 0.88925946
000010 73 13 cd 3e 42 e1 80 3e ce d0 c4 40 04 00 00 00
       0.400539 0.25171858 6.150489 6e-45
000020 65 4c 18 3f 04 00 00 00 1b ca 48 40 d2 86 be 3f
       0.5949157 6e-45 3.1373355 1.4884894
000030 6a 45 ee 3e ea 56 d7 3f 4b b9 66 40 94 ad b2 3e
       0.46537334 1.6823399 3.6050594 0.34898055

morph0.3.path1.2.running_var f4 [16]
000000 98 fd e8 40 75 e5 47 3f f4 b6 f1 40 db 5e f6 3f
       7.2809563 0.780845 7.553583 1.9247698
000010 1c ca bf 3f 67 75 82 3f 9c 23 9c 40 04 00 00 00
       1.4983554 1.0192078 4.879347 6e-45
000020 58 44 5a 40 04 00 00 00 56 30 15 41 9b 83 79 40
       3.4104214 6e-45 9.324301 3.8986576
000030 3c 94 15 40 36 4d ed 3f 7a 6a fa 3a 2c a4 b3 3a
       2.3371725 1.8539188 0.0019105219 0.0013705543

morph0.3.path1.3.weight f4 [16, 16, 1, 1]
000000 a0 d6 00 3f 94 ff 7e c0 7c ee 9f 3f a9 8a 7d bf
       0.5032749 -3.9843493 1.2494655 -0.99039704
000010 5b d9 a0 40 80 b8 ae bf 6c d2 cb 3d d9 fb 33 bf
       5.0265326 -1.3650055 0.09952244 -0.70306164
000020 b7 97 96 c0 29 9f 5f 40 d6 1d 84 bc a1 6e 09 bf
       -4.70602 3.4940894 -0.016127508 -0.5368443
000030 de 47 0d c1 09 86 a1 3f f2 1d 54 c0 3f bb e2 bf
       -8.830046 1.2619029 -3.3143277 -1.7713393
000040 bc 3d 42 be ba dd ee bf 5c f1 5b 3f 0c ea 97 3f
       -0.18968862 -1.8661416 0.8591516 1.18683
000050 d5 c7 58 bf 4a 1e 04 3e 4f aa ab bf 6e f6 d6 3f
       -0.8467992 0.1290218 -1.3411349 1.6793954
000060 ef 65 17 be 7f ae 46 40 29 4e b1 bf 69 79 ca c0
       -0.14784978 3.1044004 -1.3851978 -6.3273206
000070 37 9a 03 3e 99 1e 87 c0 10 67 48 c0 1b de 79 c0
       0.12851797 -4.222485 -3.1312904 -3.9041812
000080 52 bc 45 40 db cc b5 bf 41 26 dd 3a f5 76 d1 bf
       3.0896192 -1.4203142 0.0016872362 -1.6364428
000090 60 ae 3d c0 9e 15 9e 40 3f 7d c7 bf 1e b4 9c 3f
       -2.963768 4.940139 -1.5585097 1.2242467
0000a0 10 85 eb 3f 6c 7e 0f c0 9d 3e 9b be cf f9 7d 40
       1.8399982 -2.2420912 -0.30321208 3.968372
0000b0 41 35 de be f4 d6 e8 bf a5 79 b5 bf 68 9e 8e be
       -0.43400005 -1.8190598 -1.4177748 -0.2785523
0000c0 54 a6 42 c0 a4 79 1d be 6c 29 67 40 06 24 d7 3f
       -3.0414019 -0.15378433 3.6119032 1.6807868
0000d0 ff 05 5b 3e 99 c3 1c 3d 2e 99 e6 40 a7 a4 6f c0
       0.21389006 0.038272474 7.2061987 -3.7444246
0000e0 80 3d 0c bf af 21 52 bd f5 70 86 3f fb 55 80 be
       -0.5478134 -0.051301654 1.0503222 -0.25065598
0000f0 68 ac da be f0 b9 bd 3e 8c a9 90 bd 46 f9 94 3e
       -0.4270966 0.37055922 -0.070635885 0.2909643
000100 5d 1c f3 3f 77 56 e5 be 74 33 47 bf 7d d9 32 3f
       1.8993031 -0.4479253 -0.77812886 0.6986311
000110 cb 3d 20 40 bf 69 b3 bf c2 5e 5a 3d f1 0e f9 bf
       2.5037715 -1.4016646 0.053313024 -1.9457685
000120 5b a3 40 3f 4d d1 e0 bc 4f 23 2e 41 d8 0a 85 3f
       0.7524926 -0.027443552 10.88362 1.0393934
000130 f5 86 eb 3f 5e d0 d5 bd 46 c0 ea bf 58 a3 61 3f
       1.8400561 -0.104401335 -1.8339927 0.8813987
000140 67 f8 12 c0 98 17 c7 3f ba 4e 72 c0 98 a6 84 bf
       -2.2964113 1.5554075 -3.786055 -1.036334
000150 c3 0d c4 bf 9b 1e b7 3f 56 ba ac 40 ef 8d 67 c0
       -1.53167 1.4306215 5.397746 -3.618038
000160 22 ea 65 bf 19 b4 b0 3f c6 1a c8 3e ea 93 0a bf
       -0.89810383 1.3804961 0.39082927 -0.5413195
000170 a8 e2 0e bf 7b b8 af 3f b0 42 66 c0 e4 e0 46 3f
       -0.558146 1.3728174 -3.5978203 0.77686906
000180 4b 1a 57 3f 00 bc ca 3f b9 eb 31 3f 18 73 93 bf
       0.84024495 1.5838623 0.6950031 -1.1519499
000190 65 19 68 c0 ed 30 1b 40 a0 7c 31 be 0a a4 21 bf
       -3.62655 2.4248612 -0.17332697 -0.6314093
0001a0 82 e3 2a c0 fd 8c 68 40 7d 2b 25 40 8a c7 91 c0
       -2.670136 3.6336052 2.5807793 -4.555608
0001b0 05 6b 41 c0 f4 a2 9f 3f ed eb ea 3e 30 30 75 c0
       -3.022157 1.2471604 0.45883122 -3.8310661
0001c0 7f 79 98 3f ba 69 b1 3e fd 93 d5 40 f2 78 aa 40
       1.1912078 0.34650975 6.674315 5.327264
0001d0 0f 3f f9 bc 57 a4 d5 be fc bc 97 bf 51 bf 21 40
       -0.030425576 -0.41726944 -1.1854548 2.527302
0001e0 0e 5f 90 3e a9 7b 3e 40 c8 a1 9f be bd 8f d2 be
       0.2819752 2.9762976 -0.31178117 -0.4112529
0001f0 b7 93 2f 3f 5f 57 b0 3f 3d b3 35 bf 56 f3 05 c0
       0.6858477 1.3776664 -0.7097662 -2.092977
000200 15 f1 80 40 68 c1 06 40 44 5d 8f 40 e9 8e b4 3d
       4.029429 2.1055546 4.480135 0.088163204
000210 27 d9 85 3f f3 98 64 be b5 c4 84 c0 13 37 2e c0
       1.0456895 -0.2232397 -4.149012 -2.7221115
000220 72 7a 62 3e fd 14 85 3f 52 b5 33 bf b1 b2 8b 3f
       0.22117022 1.039703 -0.7019855 1.0913907
000230 ad 64 30 3e 36 2f 9b 3e 49 02 29 3e 14 3d 33 bf
       0.17225905 0.30309457 0.16504778 -0.7001507
000240 8b c3 a1 c0 b7 6e 77 40 ed b0 bc 3e 86 7c 0b bf
       -5.05512 3.8661325 0.36853734 -0.5448688
000250 c3 83 1c 40 5f 1d 72 bd aa 8d bb 3f 78 7d fc bf
       2.445542 -0.05911004 1.4652607 -1.972579
000260 74 50 62 bd bf ac a5 bf 6b 9f 31 bf f9 ea 09 c1
       -0.055252507 -1.2943343 -0.6938388 -8.619866
000270 3c 2f ee 3e 04 17 43 bf e7 9a 18 c0 4b 71 f6 3f
       0.46520412 -0.76206994 -2.3844545 1.9253324
000280 90 66 5b 3f c2 c0 f3 bf db 96 d2 be d8 e9 e4 3e
       0.8570337 -1.90432 -0.4113072 0.4470966
000290 62 19 80 40 11 fb 31 c0 12 63 83 3d f1 3c 55 bf
       4.0030985 -2.7809489 0.064153805 -0.83296114
0002a0 1d 00 a9 40 8f 27 a6 40 9d bf 15 be 3c ac ea 3f
       5.281264 5.192329 -0.14623876 1.8333812
0002b0 3a d4 ba 40 80 08 f5 3e 2e 01 e5 bf 3a 23 8e c0
       5.8384066 0.47858047 -1.7890985 -4.4418
0002c0 53 7d ed 40 0d f2 e9 3e 61 7a b7 3f 55 e7 06 40
       7.4215484 0.45692483 1.4334222 2.1078694
0002d0 14 c6 48 bf 3e 86 89 3e eb 5c bb 40 b0 16 36 3f
       -0.78427243 0.2686023 5.8550925 0.7112837
0002e0 1c 80 8d 3e 75 5f e8 3f c4 f9 bb 3e 92 a0 8f 3e
       0.27636802 1.8154131 0.36713994 0.28052193
0002f0 12 29 5a be 43 4e 1f 3f e9 ae 82 bf ae 92 48 bf
       -0.2130473 0.6222879 -1.0209628 -0.78348815
000300 1e c3 2b 3f de bb 11 3d 2a 60 e1 bf 45 7e 31 c1
       0.670946 0.035579555 -1.7607472 -11.0933275
000310 17 03 a3 bf 3b 07 21 3b 61 5c e8 3e c7 8c 3b 40
       -1.2735318 0.002457096 0.4538298 2.9304674
000320 0e 3b ff bc 45 16 37 bd 67 0e 79 40 7e 3c 38 bd
       -0.03115609 -0.044698972 3.891504 -0.044979565
000330 0a 7e 4d be 66 b6 22 c0 d0 ee b9 3f ae c7 2d bf
       -0.20067611 -2.5423827 1.4526005 -0.6788281
000340 67 d0 90 be d8 a1 7f 40 14 2e a4 3e 2d 2c 85 bf
       -0.28283998 3.9942532 0.32066405 -1.0404106
000350 5b 20 73 bd b0 ef 91 c0 e4 4e 2b bf 57 37 0c c0
       -0.05935703 -4.5605087 -0.6691725 -2.1908777
000360 a1 c3 2f 40 f6 c8 11 41 19 6b 15 40 a1 e4 93 c0
       2.7463152 9.111563 2.3346617 -4.621659
000370 bc 58 e2 3f 19 69 b6 3f 13 cb f6 bf 51 e3 a6 c0
       1.768333 1.4250823 -1.9280723 -5.2152486
000380 89 42 16 40 28 df 40 3f 12 39 aa c0 b5 25 a9 c0
       2.347811 0.7534051 -5.3194666 -5.285853
000390 53 ec 8d 3e f2 fe 1a be 16 7c 88 40 2a 0f 01 c0
       0.27719364 -0.15136316 4.265147 -2.0165505
0003a0 56 4f 39 be c5 dd eb bd 33 be bc be 48 2a 64 3f
       -0.1809667 -0.115169086 -0.3686386 0.89127016
0003b0 b1 b3 ec 3e 15 67 17 be 98 55 6b be 53 0e b2 3d
       0.46230844 -0.14785416 -0.2298187 0.086941384
0003c0 fe c8 6a 3f 4a b4 8d 3f 64 c2 cf 3f 99 cd 9b bf
       0.9171294 1.1070645 1.6231198 -1.2172118
0003d0 4f 46 3d 3e 14 a9 53 3f 28 ad 19 c0 01 ea cd bf
       0.18483852 0.8267987 -2.4011936 -1.6087037
0003e0 f3 9a cc bf f6 48 a1 3f f2 17 57 bf 80 ab f8 3f
       -1.5984787 1.2600391 -0.8402091 1.9427338
0003f0 7e 61 91 bf 5a 13 1d c1 3b a7 0c 3f 72 5d f6 bc
       -1.1357877 -9.8172245 0.54942673 -0.030073855

morph0.3.path1.3.bias f4 [16]
000000 67 f8 8f 40 08 43 9f be 45 24 7f c0 72 9a 12 41
       4.4990726 -0.31105828 -3.9865887 9.162706
000010 ac 7f 14 3f 4a 06 44 40 ae af a5 40 64 14 8e bf
       0.5800731 3.0628839 5.1776953 -1.1099973
000020 8e 4d 00 41 e1 58 d0 bf 62 17 16 40 bf 72 8e be
       8.018934 -1.6277124 2.3451772 -0.2782192
000030 42 83 cb be 34 01 98 40 e3 97 b9 40 be aa 9b 40
       -0.3974858 4.750147 5.799791 4.8645926

morph0.3.path1.5.weight f4 [16]
000000 48 6c 29 3f 2a 71 e7 3f 78 63 85 40 43 a2 37 40
       0.6618085 1.808141 4.168392 2.8692787
000010 de 34 22 40 a9 55 0d 40 98 88 74 40 82 c8 8d 40
       2.5344768 2.2083533 3.820837 4.430726
000020 3c 52 22 40 e3 88 2e 40 3d 85 19 3f 05 58 46 40
       2.5362692 2.727105 0.5996893 3.0991223
000030 fa 71 33 3f 6f b8 84 40 14 28 1a 40 cf 39 45 3f
       0.7009579 4.147514 2.4086962 0.77041334

morph0.3.path1.5.bias f4 [16]
000000 58 a5 30 3f 2b 96 3d 40 04 2d 0c 40 f5 b6 a5 bf
       0.69002295 2.9622905 2.1902475 -1.2946459
000010 f1 fa a3 bf 32 5b a3 3f a7 af e1 bf 2f d5 99 3f
       -1.2810956 1.2762206 -1.763173 1.2018183
000020 c1 eb 0e c0 1e 35 f1 3f a3 bb ed 3f 6f fc af bf
       -2.2331393 1.8844335 1.8572887 -1.3748912
000030 3d 24 f6 3c 01 70 a2 3f aa 04 1b c0 5a b0 4b 3e
       0.030046577 1.2690431 -2.4221597 0.19891492

morph0.3.path1.5.running_mean f4 [16]
000000 26 15 07 42 b6 37 0b 41 d2 e9 7b 40 fb 34 05 42
       33.770653 8.701101 3.9361463 33.30174
000010 f8 95 b7 41 76 a7 98 41 da 53 b7 41 ce f9 2b 41
       22.948227 19.081768 22.915943 10.748487
000020 8e 8d ca 41 ca 10 0c 41 b6 9f 59 41 16 82 12 42
       25.319118 8.754099 13.601492 36.627037
000030 dc f1 a8 41 0e 87 ec 41 18 18 fb 41 20 2a c9 41
       21.118095 29.565945 31.386765 25.145569

morph0.3.path1.5.running_var f4 [16]
000000 cb 11 1a 43 4d 60 c3 42 23 90 7c 43 18 83 83 44
       154.0695 97.68809 252.56303 1052.0967
000010 1f 32 9d 44 38 6c e5 43 e4 0d 2c 43 0e 25 a7 44
       1257.5663 458.84546 172.05426 1337.158
000020 38 95 22 44 f0 c8 1c 43 60 80 c5 43 96 ed a2 44
       650.33154 156.78491 395.00293 1303.4246
000030 dc 0c 89 43 5c 86 9d 43 c4 e6 0b 44 9a 05 8c 43
       274.10046 315.04968 559.6057 280.04376

morph0.3.path1.6.weight f4 [16, 1, 3, 3]
000000 9c eb 35 c0 0d c0 b9 bf 8d 71 86 bf 7f bf 80 bf
       -2.8425055 -1.4511734 -1.0503403 -1.005844
000010 3d 81 32 40 ef df 26 bf ad fd ed 3f a7 e9 53 40
       2.789138 -0.65185446 1.8593041 3.311136
000020 4e 72 f2 3f fc ff 49 3d 47 3f 01 40 4f 43 16 40
       1.8941133 0.04931639 2.0194871 2.3478582
000030 12 fe a1 3f 10 6e cd 40 2b d7 4e 40 a2 8b cc 3e
       1.2655661 6.4196854 3.2318828 0.3995028
000040 03 cf bb 3f ee 36 97 3f 57 37 8c 3d 12 9d f3 3e
       1.467255 1.1813638 0.06846493 0.47580773
000050 6f ab e1 3f 2b c3 f3 3f bf ab f9 40 cc d5 93 3d
       1.7630442 1.9043936 7.802215 0.07218513
000060 21 6c 41 3f f1 bf 4c c0 34 7f 62 3d ba bd 4d 3e
       0.75555617 -3.1992152 0.05529709 0.20091906
000070 3b 43 4e bf 0f 17 ae be 57 12 27 be 10 f2 81 c1
       -0.80571336 -0.34001967 -0.1631559 -16.243195
000080 e7 f3 b1 bf 1e c9 91 bd 47 93 6e bf be 1b 55 bf
       -1.3902558 -0.07118438 -0.9319348 -0.83245456
000090 f7 b8 ff be d1 c0 fc bc df 7f 92 be 51 1e af bf
       -0.49945804 -0.03085366 -0.28613183 -1.3681127
0000a0 aa 64 59 c1 15 79 46 bf bd d9 a2 bf ab b0 17 bf
       -13.587076 -0.77528507 -1.2722698 -0.5925395
0000b0 e6 ab 2f bf e0 cc e2 bf 61 6a ea 3f cd b3 82 3f
       -0.6862167 -1.7718773 1.8313714 1.0211121
0000c0 c9 05 13 c0 8a 91 a1 40 82 ad 29 c0 96 2f a5 3e
       -2.297228 5.049016 -2.651215 0.32262868
0000d0 9f 97 cc 3e af 24 c7 3f 06 16 94 3e 43 07 01 c0
       0.39959428 1.555807 0.28923053 -2.0160682
0000e0 1b 81 5d 3e 7f 07 3f c0 11 29 45 c1 4e 71 b0 bf
       0.21631281 -2.9848325 -12.322526 -1.3784578
0000f0 47 5c 41 bf 57 d1 e4 bf 4b 7b 16 bf da 17 41 3f
       -0.7553143 -1.7876385 -0.5878188 0.7542702
000100 bd 71 ee 3f b2 fb 0f 3f 4d 5c 07 c0 94 d4 40 41
       1.862846 0.5624343 -2.1150086 12.051899
000110 b6 16 36 3f eb 80 a4 3e b0 82 07 3f 75 47 38 3e
       0.71128404 0.32129607 0.5293379 0.17996009
000120 bb 5d 88 3c 80 2c d5 bd 56 1c 59 3f a8 13 0f bf
       0.016646257 -0.10408878 0.8480886 -0.5588937
000130 e9 cf 5f c1 bd f5 33 3f f2 2c 7b bf 74 b4 64 3d
       -13.988259 0.7029684 -0.98115456 0.055836156
000140 dd 6f 34 bf 42 be 75 bf 62 79 69 3f 4f bf be bf
       -0.7048319 -0.95993435 0.9120084 -1.4902133
000150 1f a5 54 bd 84 cd f7 40 f3 0b ce 3f 11 80 b7 3f
       -0.051915284 7.7438374 1.6097397 1.4335958
000160 70 b2 21 40 04 ca bb 3e 9e 31 91 3f 64 e5 1a c0
       2.526516 0.36677563 1.1343267 -2.420251
000170 33 82 b0 3e 8d 93 86 be 6b a7 0d 41 37 7e d6 bf
       0.34474334 -0.26284447 8.853374 -1.6757268
000180 88 89 39 3e 83 a3 5d bf 64 79 6d 3f fd 9b aa 3d
       0.1811887 -0.86577624 0.9276335 0.08330534
000190 83 58 7c bf d9 b1 29 bf a9 2c 08 bf 9f f1 7e c1
       -0.9857256 -0.66287 -0.53193146 -15.93399
0001a0 88 77 eb be 34 2b 24 be 7b 60 1a bf 65 58 4c bf
       -0.45989633 -0.16032106 -0.6030347 -0.7982238
0001b0 14 11 f8 3e e1 be 5a bf ff c1 cc be 07 8b 74 3f
       0.4845053 -0.8544751 -0.39991757 0.9552464
0001c0 13 de c9 3f 3f cf f4 c0 75 92 11 3f 93 07 c5 3f
       1.5770897 -7.6502986 0.568641 1.5392936
0001d0 14 98 01 40 b3 6a da 3e 21 46 2c bf 73 4e 61 3f
       2.024907 0.4265953 -0.6729451 0.8801033
0001e0 1a 09 0f 40 2c f5 56 41 38 e9 c1 be e8 eb ce 3e
       2.2349305 13.434856 -0.37873244 0.40414357
0001f0 79 f1 c5 3f 63 7d 11 bf f8 ac 19 bf ca b7 4d bd
       1.5464317 -0.5683195 -0.60029554 -0.050224103
000200 96 09 3d bf a5 02 6c 3e 27 f9 7d c1 9c c2 c7 bf
       -0.7384275 0.23047884 -15.873328 -1.5606265
000210 44 a8 1f bf 07 3a 22 c0 96 98 eb 3e 0a 13 e5 3c
       -0.6236613 -2.5347917 0.4601485 0.02796318
000220 13 59 16 c0 dd 05 f5 bf a3 08 f4 3e 96 c3 b8 40
       -2.3491867 -1.9142414 0.4766284 5.773875
000230 1b c0 11 c0 84 3f 9a 3f 80 12 83 3f 3f e1 67 bf
       -2.2773502 1.2050633 1.0240021 -0.90578073

morph0.3.path1.6.bias f4 [16]
000000 e0 a3 e7 40 93 97 8f 3f d1 9f c5 3d 17 90 64 40
       7.2387543 1.1218132 0.09649623 3.5712945
000010 91 67 91 40 d7 4d 7d c0 58 1a ad 3f 7a 2d b3 3f
       4.5438924 -3.957876 1.3523664 1.3998253
000020 e0 1a 23 bf 27 83 c5 3f 42 08 d1 40 c3 3b 72 40
       -0.63712883 1.543065 6.532258 3.7848976
000030 ee 8b b8 40 b0 9d cc 3d d3 96 34 40 37 6d 9f 40
       5.7670813 0.09991014 2.8217056 4.982082

morph0.3.path1.8.weight f4 [16]
000000 e8 a5 5e 3e 30 14 8a 3e 1e dc 80 3e fb 38 a8 3e
       0.21742976 0.26968527 0.25167936 0.32855973
000010 a6 8f c2 3e 1f a8 8d 3e 7d 44 9a 3e bb 74 d9 3e
       0.3800022 0.2766733 0.30130377 0.4247187
000020 2c 3b ac 3e 84 53 75 3e 96 c5 bc 3e 52 92 b8 3e
       0.33638895 0.2395764 0.36869496 0.36049134
000030 5a 6b 48 3e d7 ba 89 3e 92 4c c0 3e 3d 33 74 3e
       0.19572201 0.2690036 0.3755842 0.23847671

morph0.3.path1.8.bias f4 [16]
000000 ba b3 b4 bd f3 b9 ca bb 69 8b 22 3d 06 e9 eb bd
       -0.088233426 -0.0061867177 0.039683733 -0.11519055
000010 e4 e9 85 bd 11 96 02 3d b9 83 72 bd f1 55 e6 bd
       -0.06538752 0.031881396 -0.05920765 -0.11246861
000020 ec af 73 3d 5d 91 cf 3d e9 d8 55 be cc 56 f9 bd
       0.059493944 0.10135148 -0.20883526 -0.12174758
000030 f0 99 f5 3d 76 4d 87 bd 64 c5 4f 3e b1 94 54 bd
       0.11992252 -0.066065714 0.20290142 -0.051899616

morph0.3.path1.8.running_mean f4 [16]
000000 92 76 16 41 09 cc 5c 42 da c3 af 41 94 1b 19 42
       9.403948 55.199253 21.97063 38.27693
000010 ec 88 0d 42 c8 5e 91 40 ac bb 35 42 cd fb 9f 41
       35.383713 4.54282 45.433273 19.99795
000020 ed 12 16 42 a4 64 c2 41 c4 b2 90 41 16 c2 20 42
       37.518482 24.29914 18.087288 40.189537
000030 49 2c c8 40 14 ac 05 42 02 11 69 42 0e e7 b1 40
       6.255406 33.418045 58.26661 5.559455

morph0.3.path1.8.running_var f4 [16]
000000 c3 42 91 41 b5 f4 01 44 ac 3d cb 44 42 31 d9 43
       18.157598 519.82355 1625.9272 434.38483
000010 87 41 74 43 e1 0f 2f 43 7b 59 31 45 24 a1 67 45
       244.25597 175.06203 2837.5925 3706.0713
000020 c4 61 9f 43 0a b1 3d 44 4a 63 84 41 97 13 ce 43
       318.7638 758.76624 16.548481 412.15305
000030 b9 c8 8d 41 fd be 2c 45 49 72 3a 44 af cb 83 41
       17.72301 2763.9368 745.7857 16.474455

morph0.3.path1.9.weight f4 [16, 16, 1, 1]
000000 8a 7d e3 3d 99 58 a3 ba 96 71 23 be 47 88 ae 3d
       0.11107929 -0.0012462317 -0.15961298 0.085220866
000010 38 38 b0 3c ec ef 95 bd 64 c9 57 be 6b 8b 02 3e
       0.021511182 -0.07321152 -0.21072918 0.12748496
000020 90 56 e0 bd 20 f9 f1 bc 78 ae 2f 3e f7 1a 18 3e
       -0.109540105 -0.029537737 0.17156398 0.14854036
000030 10 28 24 be 55 bc a7 be 50 a1 4b bd 5c 2b ce 3d
       -0.16030908 -0.32760873 -0.049714386 0.10066864
000040 82 eb b9 be 3f 2b ba 3f 6a cf 14 3e e1 1f 15 bf
       -0.3631249 1.4544448 0.14532247 -0.5825177
000050 69 a0 85 bf f0 e8 97 3e 9f c9 17 3f da 1b 0c c0
       -1.0439578 0.29669905 0.59292024 -2.1892
000060 f9 29 c3 3e f9 99 e7 3e dd e1 ba 3f 56 d7 94 be
       0.3811796 0.4523466 1.4600178 -0.29070538
000070 68 46 11 40 89 ab 2e 40 08 23 ff 3f a0 b7 f5 bf
       2.2699223 2.7292197 1.9932566 -1.9196663
000080 1b 89 a6 bf b7 7b 00 c0 6e 64 6b be d3 75 86 3f
       -1.3010591 -2.007551 -0.2298753 1.0504707
000090 c3 66 75 40 79 d5 79 3f a3 9c 1f 40 69 f0 51 3f
       3.834397 0.9759136 2.4939353 0.8200746
0000a0 b6 56 8a bf fe a9 d3 bf ee d9 ca 3e 75 65 c6 bf
       -1.0807712 -1.6536252 0.39619392 -1.5499712
0000b0 69 38 73 bd ab dd bc bf 5f 3f 25 be 05 bb 80 3b
       -0.05937997 -1.4755148 -0.16137455 0.0039285445
0000c0 06 91 2c be 13 69 c1 3b 7d 95 ff be 05 13 bc 3e
       -0.16852197 0.0059024184 -0.49918738 0.3673326
0000d0 a8 1f 55 be 55 de 7a 3e d7 f4 66 3f ac 0b 6b be
       -0.20812857 0.24498875 0.90217346 -0.22953671
0000e0 0d 2e ef 3d 73 7c b8 bd 1e 53 a5 3f fd 02 15 bd
       0.11678705 -0.09008112 1.291599 -0.036379803
0000f0 24 5e 3f 3d 50 0f 53 3f dd 54 90 3d 6a 22 0c be
       0.04672064 0.8244524 0.070474364 -0.13685003
000100 10 84 bd bf 4b 03 d6 3f 8c 45 bb 3f 5e a7 28 bf
       -1.4805927 1.6719755 1.4630599 -0.6588038
000110 5b 04 bd bf 2d f1 37 40 1e 7b 89 3f c3 bb e1 3f
       -1.4766954 2.8740952 1.0740697 1.7635425
000120 f5 4a eb bf 9b 53 13 bf 29 4f 9f bd 0c 3d 19 bf
       -1.838225 -0.57549447 -0.077787705 -0.59858775
000130 37 c5 87 bf 4d 90 a4 3f 55 76 82 40 9c ed 9d 3e
       -1.060706 1.2856537 4.076945 0.30845344
000140 24 c3 37 3f 48 b8 63 bf 19 fe 1d 40 ce 8e 37 c0
       0.71782136 -0.88953066 2.468634 -2.868091
000150 0d bf a8 3e 21 d4 5e 3f 65 c1 ab be 77 ab 1d 3f
       0.3295826 0.87042433 -0.33545986 0.6158976
000160 6e d3 c4 bf 76 ec dc 3f 51 ed 92 3f 94 32 af 3f
       -1.5377023 1.7259662 1.1478673 1.368731
000170 c0 c7 52 bf c7 39 a0 bf 6a 1d 86 3f 59 89 97 3f
       -0.82336044 -1.2517632 1.0477726 1.183879
000180 a0 c7 cb 3e 2b ea 21 c0 f3 2b 46 3f 64 1f 78 3f
       0.3980074 -2.5299175 0.7741081 0.969229
000190 9b 8b 10 bf 5b 03 1e bf fe 66 51 3f 22 6e 06 bf
       -0.5646302 -0.6172387 0.8179778 -0.525118
0001a0 5e ac cf bf 49 85 33 c0 d4 18 09 be 14 3b 89 be
       -1.6224477 -2.80501 -0.13388377 -0.26802886
0001b0 93 e6 ae bf ef 5f 19 3d 69 92 de bf 62 6d 2e 40
       -1.3664116 0.037445005 -1.7388431 2.7254262
0001c0 e8 57 9e bf c9 a1 40 bf d0 29 67 3b 02 c4 0e 40
       -1.2370577 -0.75246865 0.0035272725 2.2307134
0001d0 1c a9 ff be 9e f6 94 3f 9b f3 1f bf a7 bc 7c 40
       -0.49933708 1.1637762 -0.6248109 3.9490144
0001e0 4d ed d9 3f 6c c9 9c bd 99 da e7 bd ae 4e 5b 40
       1.7025543 -0.07655606 -0.11320991 3.4266772
0001f0 93 7f dc 3f 44 b5 16 3f 0c cb 73 bf dc 1a 6b be
       1.7226433 0.5887034 -0.952317 -0.22959465
000200 ef ff 05 be 86 c5 08 bf a6 86 89 3f b6 cb 33 40
       -0.13085912 -0.53426397 1.0744216 2.8093085
000210 d8 e7 a8 3f f1 30 85 3e 19 92 b9 3d d3 cf c7 be
       1.3195753 0.26013902 0.09061069 -0.39025745
000220 db 4a a5 bf f3 57 39 3e e0 cf d3 be 82 77 4a 40
       -1.2913469 0.18099956 -0.41369534 3.1635442
000230 40 f8 7a 3e 89 47 ce 3e 67 dd 36 40 2f c1 87 3f
       0.24508762 0.40288952 2.8572633 1.060583
000240 b5 10 33 c0 ab ef 39 be 05 7e 2d 40 ab 6d 46 be
       -2.7978947 -0.18157832 2.7108166 -0.19377773
000250 0c 7a 37 bf 95 86 02 c0 3a 83 17 3f 6e 4f 1a c0
       -0.71670604 -2.0394642 0.5918461 -2.411098
000260 67 81 6e 40 43 3c c8 3f 4d 6a 07 40 a7 67 47 3f
       3.726648 1.564339 2.115863 0.77892536
000270 b2 7f 34 bf a4 cc 4f 3f 42 7e 9a be ce 7a a6 bf
       -0.7050735 0.8117163 -0.30174452 -1.3006227
000280 1a 4d 32 3d 90 c4 ab bd 0e 7b 6f 3e e8 56 2c 3d
       0.04353056 -0.08387101 0.23386785 0.042075068
000290 57 33 25 3c fd 99 7e 3e 04 7e 40 bd c4 68 88 3e
       0.010083041 0.2486343 -0.046995178 0.2664243
0002a0 83 5f fe 3c 41 6e 88 bc 3f 1c fe 3d df c8 98 3c
       0.031051403 -0.016654136 0.12407731 0.01865047
0002b0 c8 73 b8 3c e5 85 83 bd 23 f5 97 3d 87 77 75 bd
       0.022516146 -0.06422023 0.07419803 -0.059928443
0002c0 a0 26 2e 3f 43 bf 86 3e 05 74 28 bf ab 0d dd bd
       0.6802769 0.26317796 -0.6580203 -0.107936226
0002d0 bf f0 21 3f 2d 3a 55 bf ab 1f 13 3e c9 c5 4c bf
       0.63257974 -0.83291894 0.14367549 -0.79989296
0002e0 90 ec 16 bf 80 24 03 3f 02 9b 0a bf be 15 11 3e
       -0.58954716 0.5122757 -0.54142773 0.1416845
0002f0 50 05 6b 3f fa c0 7b 3e 4e b5 09 be d9 69 5d be
       0.9180498 0.24585333 -0.13448068 -0.21622409
000300 2a 85 34 bc 16 83 37 bd d0 2c f0 bc e8 3d bd 3d
       -0.011018077 -0.044802748 -0.029318243 0.09240323
000310 3b 52 9f 3d f5 6c cf 3d ea 66 3f be 52 ee 74 3b
       0.07779356 0.10128204 -0.18691602 0.0037373495
000320 e4 91 ef bb 23 c5 34 be 2c 9a 6a 3e 1b 93 64 3d
       -0.0073110927 -0.17653327 0.22910374 0.055804353
000330 01 4a 93 be 2e 0b 21 3e 62 b3 71 bd 21 39 05 be
       -0.28767398 0.15726921 -0.059008963 -0.13010074
000340 8f f2 0e 3e 54 e7 e9 bc 80 36 14 be 8c 3d f1 bc
       0.13959716 -0.028552689 -0.14473915 -0.029448293
000350 bb c2 0a 3d d3 d1 4c 3d 86 ca 08 3d 4e 54 4a be
       0.033877116 0.05000479 0.033396266 -0.19758722
000360 20 ef ef bc 10 31 0b bc d4 11 df bd 8a df a7 bc
       -0.029288828 -0.008495584 -0.10892072 -0.020492334
000370 fb 54 dd bd 99 a8 d0 bd eb 5c 4a bd dc 67 80 bc
       -0.10807224 -0.101884075 -0.04940502 -0.015674524
000380 7d d7 80 bf 1d 2a c7 bf e1 12 2d 3f 8e 49 16 40
       -1.0065762 -1.5559727 0.6760693 2.3482394
000390 69 1b 9c 3f a9 f3 95 bf 8a c7 54 40 c8 78 a6 3f
       1.2195865 -1.1714984 3.324679 1.300561
0003a0 54 2d 40 bf ec dd 4f 3d 80 5e 84 40 a5 ff b3 3e
       -0.75069165 0.05074875 4.1365356 0.3515598
0003b0 86 46 bd 3e 4f 7a 10 40 d9 ad 26 c0 9d 89 87 be
       0.36967868 2.2574651 -2.6043608 -0.26472178
0003c0 95 be eb bd 46 04 2b bf fb 62 3e 3e 42 3b 82 3e
       -0.1151096 -0.66803396 0.18592446 0.25435835
0003d0 fb 80 eb bd bf 93 5b bf 3b e8 3a 3e 6c 09 f4 bf
       -0.114992104 -0.8577232 0.18252651 -1.9065375
0003e0 3c 16 3d 3c d4 65 01 40 c7 9a 7a bf b6 15 0e 3e
       0.011540946 2.02184 -0.9789242 0.1387547
0003f0 fe 80 a4 3f 71 18 eb bd f5 05 0a 3e 09 27 11 bf
       1.2851865 -0.11479271 0.13478835 -0.5670019

morph0.3.path1.9.bias f4 [16]
000000 02 8f 89 3f df 89 fa 3e 6e 39 28 3f 8d e1 33 bf
       1.0746768 0.48933312 0.6571263 -0.7026604
000010 c2 e8 06 bf 67 1a 1a bf 09 0a ba be 37 c6 52 bf
       -0.5269891 -0.60196537 -0.3633578 -0.823337
000020 b3 6f 0e 3f 9b a3 34 3e f1 aa 4e bf d9 4d 59 3e
       0.5563919 0.17640536 -0.80729586 0.21221103
000030 cc 9c 32 3f 0e 68 af 3f a7 c0 c7 bf 79 7e 83 bf
       0.69770503 1.370363 -1.5605668 -1.0272971

morph0.3.path2.0.weight f4 [16, 16, 1, 1]
000000 84 e1 b1 bd bf 17 d4 3f 68 47 a3 bd 5f 50 3a 3f
       -0.08685592 1.6569747 -0.07972604 0.72778887
000010 f4 67 44 bf 2d e3 8e 3f 79 09 06 3e 82 0c 30 3e
       -0.7672112 1.1163079 0.13089551 0.17192271
000020 f2 2e eb 3f bf 29 b1 be 0a 9f c4 be 44 ac 61 40
       1.8373702 -0.34602162 -0.38402587 3.5261393
000030 53 85 86 3f 8b bb 12 3f 75 2a 5b 3e 03 83 02 3f
       1.0509437 0.5731742 0.21402915 0.5098116
000040 b5 3f 1f 3f b9 e4 c0 3f 42 c4 5f 40 84 5a 1e c0
       0.62206584 1.5069801 3.4963536 -2.4742746
000050 d3 03 3e 3e 8a e6 6a 3e ce a2 42 3e b7 41 22 bc
       0.18556146 0.22939506 0.19007418 -0.009903363
000060 27 94 e7 3c c2 98 8b 3d 2e 94 b0 3f 48 81 96 bf
       0.028268887 0.068162456 1.3795221 -1.1758204
000070 10 4a 8b 3e d5 cd 4e 40 d7 23 1b 3e d7 49 25 3d
       0.27204943 3.231313 0.1515039 0.040353622
000080 14 c0 2f 3f 80 78 7b 3f b2 34 04 3e 2d cf 8b bf
       0.6865246 0.98230743 0.12910727 -1.09226
000090 0e c2 93 be 71 9d ce be e5 a5 7d bf 6f 30 16 bd
       -0.2885899 -0.40354493 -0.9908126 -0.036667284
0000a0 6c b9 21 be c6 5a d6 3c 97 bf 80 c0 4e 8b 9c be
       -0.15793389 0.026166331 -4.0233874 -0.3057503
0000b0 c1 06 0e 3e 44 fa e6 3e 84 20 5d bd 56 e9 0b 3e
       0.13869764 0.45112813 -0.053986087 0.1366323
0000c0 5f eb 61 bd 97 79 0e 3f 00 ef f0 3e 94 83 74 bf
       -0.055156108 0.5565428 0.47057343 -0.9551327
0000d0 13 86 1d c0 ff 0d 2b 3f 40 03 82 3d 2e 81 a1 3d
       -2.4613082 0.6681823 0.06348276 0.07885967
0000e0 39 5a f6 3f 0c 50 0f be a1 14 d1 3e 38 1c 07 be
       1.9246284 -0.13995379 0.4083605 -0.13194358
0000f0 6d 61 e9 3f 77 a1 ac be f6 05 1c be 80 64 11 bf
       1.8232857 -0.33716938 -0.15236649 -0.56793976
000100 d6 a5 06 3f 36 2c 06 bf 57 f1 0c 40 e0 a8 33 40
       0.52596796 -0.5241121 2.2022302 2.8071823
000110 fe be 1c bf 7a 0f 3e bf d3 32 11 40 a6 b7 5e bb
       -0.6122893 -0.74242365 2.268727 -0.0033983975
000120 75 7f 79 3d 44 25 2a 3c 75 b6 b2 3f a3 d3 8c 3c
       0.060912568 0.010384861 1.3961931 0.01719076
000130 db 96 6e be 1d 57 06 c0 e1 2f c2 bc 0f ad 12 be
       -0.23299734 -2.099067 -0.023704471 -0.14323829
000140 0c 64 8c c0 e3 1c ae bf 8e 39 1d 40 bb 9d 0a c0
       -4.3872128 -1.3602566 2.4566379 -2.165877
000150 a6 11 8d be eb f6 a4 bf e4 54 02 c0 04 12 7b bd
       -0.27552527 -1.2887853 -2.0364313 -0.061296478
000160 21 cd b4 bd 72 e4 2e 3d ab 9e 5e bf 0e 62 1d 40
       -0.08828188 0.04269833 -0.8696086 2.4591098
000170 57 b6 19 3f c2 03 32 bf 12 90 07 bd 7d b5 4d 3e
       0.60043854 -0.69536984 -0.03309638 0.20088764
000180 30 b7 59 3e e4 f8 3a be f8 6c 5a 3f 2c 9a 55 c0
       0.21261287 -0.18259007 0.85322523 -3.337535
000190 e6 5c 62 bf a4 19 46 bf b8 3d 1a 3e 4d 90 15 bd
       -0.88423 -0.77382874 0.15062606 -0.03651457
0001a0 11 f8 a9 be e0 ce 02 3d 43 ba bd 3f 25 76 78 40
       -0.33197072 0.031935573 1.4822468 3.882211
0001b0 3c 19 0d bf bc 0a 22 3f d3 46 c2 bd 9f d3 cb be
       -0.5511663 0.6329763 -0.09486165 -0.39809892
0001c0 90 fc cc bf b5 c1 2f 3e 51 55 5d c0 31 63 48 c0
       -1.6014576 0.17163737 -3.4583323 -3.1310542
0001d0 b9 8e f8 be 1c a1 27 bd b1 ea 01 40 53 f7 00 bb
       -0.4854639 -0.04092513 2.0299494 -0.0019678667
0001e0 1c 36 c4 be 6c d2 cb 3c a3 77 25 3f 7b 34 22 40
       -0.38322532 0.02488061 0.64635676 2.5344532
0001f0 5d 7c 8d bd 0d b0 62 be c3 1e 17 38 fa 20 1b be
       -0.06908486 -0.2213747 3.6029855e-05 -0.15149298
000200 f3 1f bb bf 02 f9 48 3f b2 18 43 3f 09 2f 72 3e
       -1.4619125 0.78504956 0.7620956 0.23650755
000210 6f ff ae be 4e df f0 3e fc dd 90 40 c4 b1 52 3c
       -0.34179255 0.47045368 4.5270977 0.012859765
000220 c3 7e 74 be 82 de 32 3c 24 40 ad bf 58 50 74 bf
       -0.23876481 0.010917308 -1.3535199 -0.95435095
000230 42 ac e9 be 5d fc 1e 3f 22 21 bf bc 21 60 a1 bb
       -0.45639235 0.62103826 -0.023331229 -0.0049247895
000240 2a db 45 c0 23 e4 fd 3e 6d b7 49 3e ad 18 d7 3f
       -3.0915017 0.49588117 0.19698878 1.6804405
000250 4a 57 ee 3e 33 99 aa bf 5d b9 c2 bf be e2 8b bc
       0.4655097 -1.3328003 -1.5212818 -0.017075893
000260 72 17 d5 3e c3 55 76 3d 1e 41 e4 3d b1 21 7d bf
       0.4161945 0.060140382 0.111452326 -0.98879534
000270 ff 14 f6 be be 90 bb be df 30 dd bd 79 2d ca 3d
       -0.48062894 -0.36633867 -0.10800337 0.098719545
000280 57 22 0a be 63 c2 3e 40 9b b8 ab bd 88 9f 91 be
       -0.13489662 2.9806144 -0.0838482 -0.28442025
000290 92 50 3b c0 13 e1 a7 3e c6 2f 18 3d 34 74 a6 bd
       -2.9267926 0.32788906 0.037154935 -0.08127633
0002a0 22 15 1c bf 3d 93 a8 3e a1 11 01 3e 50 4a 45 bf
       -0.60969746 0.32924834 0.12604381 -0.77066517
0002b0 0a 38 c9 40 fd 68 ce 3e c1 62 26 be aa 5f a5 be
       6.2880907 0.40314475 -0.16248609 -0.32299548
0002c0 13 93 f0 3e 6b 6a 9c bf bf 57 c3 bc 4f 5c 67 be
       0.4698721 -1.2219976 -0.023845552 -0.22593807
0002d0 6e 4d 88 c0 31 65 36 c0 34 a3 a0 3d 30 d4 37 3d
       -4.259452 -2.8499262 0.078436285 0.044880092
0002e0 18 b2 3c 40 a0 53 19 3d 40 5f b0 be 5f 94 a2 be
       2.94837 0.037433267 -0.3444767 -0.31753823
0002f0 44 9b 57 bf 05 37 58 be 63 a7 ed 3d 9a 3b 1d 3e
       -0.8422129 -0.21114738 0.11604192 0.15354767
000300 2b f1 8c bc 38 3b c1 bf 54 9f d1 3c 21 e1 cd 3e
       -0.017204842 -1.5096197 0.025588669 0.40210822
000310 1a a6 f8 3f 6b 85 21 40 5e 97 71 3e 0f 12 41 be
       1.942569 2.5237682 0.23592898 -0.18854545
000320 28 f4 94 c0 05 d3 c4 3e d5 26 b7 be 96 5a 0a 40
       -4.654804 0.38442245 -0.35771814 2.161779
000330 c3 fb 0d bf ab f5 0f 3f e5 2d 61 3e 63 74 47 be
       -0.5546228 0.56234235 0.21990164 -0.19477992
000340 26 b1 90 3d 62 33 d4 3d 1f 61 0c bd ea bb a7 3e
       0.070650384 0.10361363 -0.03427231 0.32760555
000350 55 98 c7 3d b3 7a 04 c0 68 14 4f 3e fd 2a b9 bc
       0.09745852 -2.069989 0.20222628 -0.022603506
000360 02 90 c0 40 ea 30 b3 bc 6d 6d b7 bd ee fb 8e 3f
       6.017579 -0.02187391 -0.08956418 1.1170633
000370 3d c9 6f c0 df 63 c2 be 36 f6 a4 be 66 b5 91 3e
       -3.7466576 -0.3796682 -0.32219094 0.2845871
000380 c8 47 0e 3f f0 36 ad 3e 2d 67 40 c0 b4 4f f5 be
       0.5557828 0.33830976 -3.0062973 -0.4791237
000390 0d 0f d1 be c8 9c 66 bf ee 20 55 3f 06 a1 05 3c
       -0.40831795 -0.9008298 0.8325337 0.008156067
0003a0 2a f3 f1 3d cf 12 a2 bc 2d 6e fe bf 2e 79 06 bf
       0.11813958 -0.01978436 -1.9877373 -0.52528656
0003b0 9c 39 a3 bc d4 73 90 3e 00 04 a1 bc ee 58 29 bd
       -0.019924931 0.2821337 -0.019655228 -0.041344576
0003c0 08 a5 23 3f 89 f7 ca bf 79 ff d6 3f e0 67 92 bf
       0.6392369 -1.5856792 1.6796714 -1.143795
0003d0 77 18 86 bd 7e b2 01 bf ad 48 99 3f 23 89 01 bd
       -0.06547635 -0.5066298 1.1975304 -0.031624924
0003e0 9e af 35 3e b2 c5 f6 bc fb a7 6c ba 4c f4 3e 3f
       0.17742774 -0.030123565 -0.00090277166 0.7459152
0003f0 d5 45 24 3f 9a 23 91 c0 c9 84 c7 3c f4 49 4d bd
       0.64169055 -4.535596 0.02435531 -0.050119355

morph0.3.path2.0.bias f4 [16]
000000 cb 11 4e 3f ff 12 23 3f a0 f6 2c 3f 9e 20 5d bf
       0.804959 0.6370086 0.6756382 -0.86377895
000010 e5 d4 d6 be a2 6b 36 bf fd 51 18 bf 29 74 4c bf
       -0.419593 -0.71257985 -0.59500104 -0.79864746
000020 8e 24 f0 3e 14 2b 97 3c d2 5f 64 bf 05 0d b6 3d
       0.4690289 0.018453158 -0.8920871 0.08889202
000030 5d 75 54 3f dd 96 af 3f 54 f9 c1 bf 1a 26 a8 bf
       0.8299158 1.3717915 -1.5154214 -1.3136628

morph0.4.path1.0.weight f4 [16, 1, 3, 3]
000000 33 2d 16 3f 87 fc ac be 8f 98 f7 be 80 b7 a9 40
       0.5866272 -0.33786413 -0.4835858 5.30365
000010 75 87 64 bd 42 f6 a5 c0 5e 3b 12 3f 81 a2 7f 3e
       -0.055793244 -5.186311 0.5712184 0.24964334
000020 76 05 2c bf be 4e c0 bf 8f c9 8c be c4 b5 2f be
       -0.6719583 -1.502403 -0.27497527 -0.17159182
000030 6c 31 71 3f 0c e7 43 41 01 b3 00 40 25 f1 f5 be
       0.94216037 12.243908 2.0109255 -0.4803554
000040 a5 f9 6e 3f 63 49 f7 bf 7d a0 c3 3f a6 ec 8b 40
       0.9334968 -1.9319271 1.5283352 4.3726377
000050 4a 59 3f 3e 75 1c 10 bd 44 28 53 3e 84 28 92 bd
       0.18686405 -0.03518339 0.20620829 -0.07136634
000060 38 33 84 be 7d 96 bf c0 72 2d 2f bf c5 3d c4 3f
       -0.25820327 -5.98712 -0.6842872 1.533135
000070 c8 70 84 be 2e b9 ad 3f 93 20 22 40 c1 d6 ef c0
       -0.25867295 1.3572137 2.5332382 -7.494965
000080 3c 8e 6b be ce 68 ab 3f e4 78 b7 be 14 41 56 3f
       -0.23003477 1.3391359 -0.3583442 0.8369305
000090 96 11 18 3f 92 17 26 c0 5d 2d 0c be 6f 35 79 bf
       0.59401834 -2.5951886 -0.1368918 -0.9734716
0000a0 04 76 79 c1 fa 99 85 be 32 bb d1 3f 34 d4 39 bd
       -15.591312 -0.26094037 1.6385252 -0.04536839
0000b0 e2 44 24 3e e7 9d 39 bf 6d c3 b8 3e 1c 6f 26 3f
       0.16041902 -0.72506565 0.36086598 0.6501329
0000c0 13 7d b8 3f 53 a4 20 c1 35 e6 b7 3f 50 2b 8f 3f
       1.441317 -10.040118 1.4367129 1.1185093
0000d0 b0 50 d5 bf 70 5a 9d 3f cc b7 de bf 7a 0e 1b c0
       -1.6665249 1.2293224 -1.739984 -2.4227586
0000e0 16 08 62 be 9b dc c8 bf 3a cc bd 40 b2 a6 71 3e
       -0.22073397 -1.5692323 5.93118 0.23598745
0000f0 d8 6f 33 bf 1b b1 b9 3d dd 48 7f 3f 38 c8 46 be
       -0.70092535 0.09066983 0.99720556 -0.19412315
000100 f3 9a 4a bf 39 f0 8e bb 7b 0c 4a c0 27 91 ff 40
       -0.79142684 -0.004362133 -3.1570117 7.986469
000110 1b 09 2f bf 0a 42 89 3d 9f 24 4c 3e 48 35 bb be
       -0.6837327 0.06702049 0.19935845 -0.36564088
000120 2c 0c 04 3f e5 13 97 3f 3c e0 29 3e 44 d5 63 be
       0.5158107 1.1802946 0.16589445 -0.22249323
000130 f1 98 35 c1 c0 5a 79 3d 55 e8 a1 3e ba 10 a1 3f
       -11.349839 0.06087756 0.31622568 1.258323
000140 1c 9a 2e 3f 53 96 ac be eb ce b2 be 50 a2 85 3e
       0.682039 -0.33708438 -0.3492349 0.26100397
000150 14 eb 16 40 9d 1a 06 c0 ca 66 71 3f 4a 65 24 40
       2.358098 -2.0953743 0.9429747 2.5686822
000160 fb 5a b5 c0 a9 9a 48 40 5f 14 22 bf f3 c5 e8 3e
       -5.667356 3.1344397 -0.63312334 0.45463523
000170 e2 42 96 3e 3d 3d a3 c0 77 29 47 3e 42 d8 9c 40
       0.29347903 -5.1012254 0.19449411 4.9013987
000180 a8 eb 3f bf 3d aa 06 be 5e 49 43 3f bd 0d df bf
       -0.7496896 -0.13150878 0.76283824 -1.7426068
000190 25 ff 39 c0 b7 3b 46 bf 8a e9 08 40 25 60 ae 40
       -2.9061978 -0.7743487 2.139254 5.4492364
0001a0 63 65 87 40 7b d7 cf be 84 73 83 3f dc f7 b4 bf
       4.2311263 -0.40594086 1.0269628 -1.4138141
0001b0 30 16 42 bf 3b e5 dd 3e 84 2f c3 3e 90 b7 9f c0
       -0.75815105 0.4333895 0.3812219 -4.9911575
0001c0 2c 8a 1d 3e 9f 42 9f 40 f0 0a 06 bf 81 f0 ac be
       0.1538474 4.9768825 -0.5236044 -0.3377724
0001d0 0e 49 2d 3f f5 d5 30 bf b5 3d 5f be 92 eb 60 3f
       0.676896 -0.6907647 -0.21800883 0.8785945
0001e0 40 5c a4 c0 15 10 2d 3c 3e 87 a4 40 7c 6a 94 bf
       -5.136261 0.010562916 5.141509 -1.1594996
0001f0 df 8b b4 3e 6a f5 54 3f 03 bc 01 40 90 e7 97 bf
       0.35262963 0.8318697 2.0271003 -1.1867542
000200 52 77 12 3e 71 3e 4a c0 a0 89 fd c0 4b f8 9b be
       0.1430333 -3.1600611 -7.92305 -0.3046287
000210 0a 92 47 3e 8e 70 0d 40 fa 50 a1 3e d2 57 a0 3f
       0.19489303 2.2099948 0.31507093 1.2526801
000220 68 3d f0 bf a6 e8 b0 be d4 16 3a c0 77 5c 0e c1
       -1.876874 -0.34552497 -2.9076433 -8.897574
000230 a8 eb 49 3f 3a 4c 76 be bc 69 0d c0 b1 85 b9 3d
       0.7887521 -0.24052516 -2.2095785 0.09058703

morph0.4.path1.0.bias f4 [16]
000000 ec d6 4c be 27 2f cf 40 17 cf 33 40 ac 66 46 40
       -0.20003861 6.474506 2.8095148 3.1000166
000010 65 44 78 40 12 c5 6e c0 cd 43 c1 40 d3 e7 6b 40
       3.8791745 -3.7307782 6.0395265 3.6860244
000020 01 dd cf 3f fd 62 bc 3f c3 b8 87 bb b9 3a d8 bf
       1.623932 1.4717709 -0.0041418984 -1.6892921
000030 c0 5b d2 3d 7e 8f f1 3c c5 c1 21 41 e7 40 7c bf
       0.10271406 0.029487368 10.109807 -0.98536533

morph0.4.path1.2.weight f4 [16]
000000 af 8a 36 40 04 f7 32 40 27 8f e5 3f fb 2f 02 40
       2.8522146 2.7963266 1.7934312 2.0341785
000010 f1 84 24 40 3d b5 a2 3f c4 55 26 40 e6 64 3f 40
       2.570614 1.271156 2.5989847 2.9905334
000020 1b 73 46 40 21 74 c0 3f 3c 63 80 40 e5 76 94 3f
       3.1007755 1.503544 4.0121136 1.1598784
000030 1c cc 59 40 83 62 62 40 97 32 ed 3f 94 bf e6 3f
       3.4030828 3.5372627 1.8531064 1.8027215

morph0.4.path1.2.bias f4 [16]
000000 a3 27 22 3e ad 92 f2 3f f2 14 c1 3f 04 d4 99 3f
       0.15835433 1.8951012 1.5084517 1.2017827
000010 01 07 b6 bf 7b 69 d3 be f7 c1 2a bf e7 69 a8 be
       -1.4220887 -0.41291413 -0.66702217 -0.32893297
000020 4f e0 e4 3f 5c ec 2d bf 63 4b 12 bf e9 15 8a 3f
       1.7880954 -0.6793878 -0.5714628 1.0787936
000030 cf 5f 0f 3f 0c e9 36 40 a8 41 2b bf ed ce 62 c0
       0.5600557 2.857974 -0.6689706 -3.5438797

morph0.4.path1.2.running_mean f4 [16]
000000 d7 38 6b 40 eb 14 7a 42 0b 9b 2a 41 14 42 af 40
       3.6753442 62.520428 10.662852 5.476816
000010 a3 11 68 42 48 2e bf 40 76 88 0c 41 bc 11 04 41
       58.017223 5.9743996 8.783316 8.25433
000020 b7 61 69 41 11 2d be 40 62 8a 77 40 d1 78 82 40
       14.586356 5.9430013 3.8678212 4.077248
000030 74 e7 68 40 1f 29 52 40 68 72 53 42 43 e7 68 41
       3.6391268 3.2837598 52.861725 14.55646

morph0.4.path1.2.running_var f4 [16]
000000 47 e7 d6 42 9c 67 c4 44 21 dd ed 43 3a ba 05 42
       107.45171 1571.2378 475.72757 33.43186
000010 35 ae f8 44 9a e1 0c 43 6f d3 06 43 72 88 a0 43
       1989.444 140.88126 134.82591 321.06598
000020 76 e1 43 44 d1 0e 13 43 d0 53 0f 43 2a 25 7d 42
       783.5228 147.05788 143.3274 63.286293
000030 12 aa ce 42 b4 1c c5 42 4f d9 39 44 42 73 44 44
       103.33217 98.55606 743.39545 785.8009
