mmhmm-camera-development/teleport/assets/models/segnet_u256__21_10_2021_hybrid_160_88_fix_nhwc.onnx (onnx, 845301 bytes, 361 tensors)

internal.Conv_417.weight f4 [16, 3, 3, 3]
00000000: a1ba a13e 1272 763f 226b 5bbf c799 c8bf
00000010: 4219 11c0 f6dc 63c0 1d71 413e d4a0 6940
00000020: 9659 2a40 7dd1 f93e b3a6 8c3f a3f8 19bf
00000030: ae23 e1bf 456a 0fc0 6a47 6cc0 4358 513e
00000040: 8c7d 8840 4ce6 4040 6e77 083f 77e8 603f
00000050: b717 9dbf 6488 efbf ba9c f9bf 0ff2 85c0
00000060: b991 e03a b295 8940 904c 2b40 d38d f9be
00000070: f527 13c0 697a b0be cd1d 89bf 61ba a3c0
00000080: 3d52 30c0 70e6 3bbf 9cf0 81c0 e514 03c0
00000090: dea9 0bbc 3634 a2bf 35fb 44be 99d1 36bf
000000a0: 85d0 57c0 ab29 06c0 f3a1 b5be 8dfd 04c0
000000b0: 3154 83bf ef4d 9c3c 4417 2740 3978 133f
000000c0: 7fa8 783f cfd6 a540 732e 2e40 2911 ca3d
000000d0: ab3c 8040 6bcd 0e40 159f 2d3f 6a15 c7be
000000e0: e84e bdbf cb6b 8740 8fd0 e43f 0a28 3ac0
000000f0: 9bf2 663f 465e 14bd 1d67 03c0 b990 963f
00000100: 42f5 01bf 1f47 d3bf a9e6 9640 41b5 af3f
00000110: 22b1 6dc0 26f1 803f 188e d8be 75db 0cc0
00000120: 1f57 ea3f cf85 0fbf dfca dfbf b789 9940
00000130: 93b7 a43f dda4 79c0 6cb6 443f 7352 edbe
00000140: 8fb3 eabf e0b7 ffbd 9940 ad3d 2978 773f
00000150: 3846 05bf 1018 413d 494c 3fc0 37cf d43e
00000160: 09ce a8be 9965 a4c0 55fc d8be 8ebf 1b3f
00000170: 1ae6 5a3f 0cee 203d c994 6f3f dad7 37c0
00000180: 31ec 893e 23d8 473f 0225 afc0 6aef 89bf
00000190: ba78 fe3e 1c3e b63f adfe 1bbf 924e 6d3f
000001a0: 2c3c 9ac0 d8ef 8d3f 4626 a93f 92c2 e3c0
000001b0: 88ef 083f 272c e73f cbdd aa3f 16b6 723f
000001c0: 43f6 3240 7dba 1240 356b 913e d2ef e53f
000001d0: c0e7 da3f bc48 143f 326a a03f 9088 a93f
000001e0: 9d2e aa3f 2089 1340 c5d5 1140 609a 853f
000001f0: ca5f 0a40 1500 0e40 df2b 7bbf 062d 2dc0
00000200: e716 2bc0 9b4d 04c0 88da 95c0 1df8 8bc0
00000210: 92e0 88bf 172d 69c0 b5b2 46c0 9aab b8bf
00000220: 5a6c 42c0 0009 4ec0 26ea 24c0 df3f 8ec0
00000230: 46df 83c0 aeb9 17c0 a640 49c0 ea9c 2ec0
00000240: 9a0f 0a40 06df 2140 135a 6e40 1878 3440
00000250: ec8e 0640 3804 3c40 ff5d 4640 86a2 0840
00000260: 2070 2440 88dd 93bf 46ab 5c3f bd20 41bf
00000270: 6eca dfbd f849 2440 c1dd 9b3f 2593 52bf
00000280: 9a28 703f 2011 953e 8e65 643f 5975 81bf
00000290: a1e1 b83f 07d1 d03f 6070 abc0 5764 a63f
000002a0: 122f fc3f b146 fcbf a85b 4b3f 127f 473f
000002b0: 7378 97bf f2c4 943f a006 0d40 7d9c a7c0
000002c0: 9ac2 d33f f80c fb3f 2d44 f5bf a189 333f
000002d0: 792b 7b3f 9d4c babf b10f cd3f 64fe 1240
000002e0: 9447 dec0 41ce ed3f 9bb0 2f40 bbe2 1ac0
000002f0: f898 ad3f 9ddb 05b8 9a3b 6e3d bf69 dcbd
00000300: 8056 82bb 9953 1ebe 4263 32be 374e e23d
00000310: de60 f7bc dfc8 81bd 7f00 ecbd 0141 6fbd
00000320: 9261 8a3d 0b9f bebc f40e c33e c37e e9bc
00000330: 6013 debd 39ca 02bd 6adc 17be 8520 35be
00000340: fb7f a43d 600d 4bbe 2c7a 59be c85e bcbd
00000350: 8b49 e83d 9f65 393e 9bac 2a3e 5edc 0c3c
00000360: db73 39bf 51da ffbf 37b4 9bbf 5651 13c0
00000370: 7f7a a6c0 b25f 75c0 b966 bebf c692 6fc0
00000380: 47fd 1cc0 eb28 863f 89ad dd3f e9cd a13f
00000390: 13e3 f53f 7191 7640 5b44 4940 3c8e c83f
000003a0: 4ddc 2f40 f0d8 2740 3ddd a6be c7e5 753e
000003b0: a4be 1ebe 70a0 ee3e b2c7 c63f 375f 433f
000003c0: c384 ac3d 0cb0 943f bee9 b03c 9358 e9bd
000003d0: edfe 86bd a685 18be cd91 c3bd 10bf 0c3e
000003e0: 3d0f 223c 3539 7abd 64b2 ad3d 7213 63bd
000003f0: d17f 863d 3240 93bd 8226 733d 3a30 203c
0.315877 0.9626781 -0.85710347 -1.5671929 -2.2671666 -3.5603614 0.18890806 3.6504412
2.661718 0.4879264 1.0988373 -0.60145015 -1.7589014 -2.2408612 -3.6918588 0.20443825
4.2653255 3.0140562 0.53307235 0.87854713 -1.2272862 -1.8713498 -1.9500954 -4.185798
0.0017133272 4.2995234 2.676548 -0.48741016 -2.2993138 -0.34468392 -1.071222 -5.1165013
-2.7550194 -0.73398495 -4.0606213 -2.0481503 -0.008524386 -1.2672184 -0.19236453 -0.7141357
-3.372102 -2.0962932 -0.3547512 -2.0779755 -1.0260068 0.01908013 2.610795 0.5760532
0.97132105 5.1824718 2.721585 0.09866554 4.0074058 2.2312877 0.67820865 -0.38883525
-1.4789705 4.2319083 1.7876147 -2.9086938 0.90213937 -0.03622272 -2.0531685 1.1762916
-0.5076486 -1.650608 4.7156568 1.3727189 -3.7139363 1.0073593 -0.4229591 -2.2008946
1.8307837 -0.5606355 -1.7483786 4.798061 1.2868522 -3.9006875 0.76840854 -0.46351966
-1.8336047 -0.12486243 0.08459587 0.96667725 -0.5206027 0.04714209 -2.989031 0.41564342
-0.32969692 -5.137402 -0.42380014 0.60839164 0.8550736 0.03928952 0.93586403 -2.8725495
0.26938012 0.78064173 -5.4732676 -1.0776188 0.49701482 1.4237704 -0.6093548 0.92698014
-4.819845 1.108882 1.3214805 -7.1175013 0.53490496 1.8060349 1.3348936 0.9480909
2.7962806 2.2926323 0.28402105 1.7963812 1.7101974 0.57923484 1.2532408 1.32448
1.3295475 2.3052444 2.2786725 1.0437737 2.1620965 2.218755 -0.98113817 -2.705873
-2.6732728 -2.0672367 -4.682926 -4.3740373 -1.0693533 -3.643377 -3.1046574 -1.4427369
-3.0378633 -3.2192993 -2.5767913 -4.445297 -4.121005 -2.370708 -3.1445708 -2.7283273
2.1572022 2.5292373 3.7242477 2.81983 2.1024733 2.9377575 3.099487 2.1349196
2.5693436 -1.1551981 0.8619884 -0.7544058 -0.10927282 2.5670147 1.2177049 -0.82255775
0.93811953 0.29114628 0.8921746 -1.0113937 1.4443856 1.631379 -5.3574677 1.2999371
1.9701865 -1.9709073 0.7943673 0.7792827 -1.1833633 1.1622603 2.2035294 -5.2378526
1.6543763 1.9613333 -1.9161431 0.7013188 0.9811321 -1.455463 1.6020414 2.2967768
-6.9462376 1.8578569 2.7451541 -2.4200885 1.3562307 -3.1914202e-05 0.05816231 -0.10762357
-0.0039775968 -0.15461577 -0.17420676 0.110500745 -0.030197557 -0.06337141 -0.11523532 -0.058411602
0.06756891 -0.023269197 0.38097346 -0.028502828 -0.10843539 -0.031931136 -0.14830175 -0.17688186
0.08032223 -0.19829321 -0.21238011 -0.091977656 0.11342152 0.18105172 0.16667406 0.0085974615
-0.72442406 -1.99885 -1.2164372 -2.3018394 -5.202453 -3.8339658 -1.4875098 -3.7433333
-2.4529588 1.0481237 1.7318584 1.2640964 1.9209923 3.852627 3.144797 1.5668406
2.747821 2.6226158 -0.32590666 0.24013434 -0.15502411 0.4660678 1.5529692 0.7631716
0.0842376 1.1616225 0.021595832 -0.11393847 -0.06591592 -0.14894733 -0.09549294 0.1374476
0.009891328 -0.061089713 0.08481291 -0.055438466 0.06567348 -0.07189979 0.059362896 0.009777123

internal.Conv_417.bias f4 [16]
00000000: 6ebc be40 2d4e 3cc0 1fee db40 44f2 2c41
00000010: 5360 6340 8f8e 75bf 7c71 b140 46c2 d4bf
00000020: bdca 1541 7881 1fbf bc69 d940 2fb0 9541
00000030: 8f16 af40 b5ba 2dc0 0402 6dc0 70b5 3dbf
5.9605017 -2.9422715 6.8728175 10.809147 3.5527542 -0.9592065 5.545103 -1.6621788
9.361997 -0.6230693 6.794157 18.711027 5.4715037 -2.7145207 -3.703248 -0.74104977

internal.BatchNormalization_419.bnu.weight f4 [16]
00000000: 54f5 db3e 7f59 9b3e 9a1a 003f df05 853f
00000010: bc70 1b3f 26ae 013f 52b1 b33e 23f2 003d
00000020: 4d83 723f 7650 763e cf9a d93e 9c3e 8d3f
00000030: db3d 3c3f 3c82 3d3f f813 01bd e239 cd3e
0.42960608 0.30341718 0.5004059 1.0392417 0.60718894 0.50656354 0.35096222 0.03148092
0.947316 0.24054131 0.42500922 1.1034732 0.73531884 0.74026847 -0.031513184 0.40083224

internal.BatchNormalization_419.bnu.bias f4 [16]
00000000: 6bef 033e c481 b13e 1bbc 603d 0872 8cbf
00000010: 1331 063f 677d b3be e2d8 e2bd 6631 283c
00000020: 770c 5f3b 9fce 40bc c91e 423e 560f 09bf
00000030: 82cb 943e fd6e 1cbf 702a f2bc 0608 44bd
0.128843 0.34669316 0.05486689 -1.09723 0.5241863 -0.35056612 -0.11076523 0.010265684
0.003403453 -0.011768012 0.18957056 -0.53539026 0.29061514 -0.61106855 -0.029561251 -0.047859214

internal.BatchNormalization_419.bnu.running_mean f4 [16]
00000000: ea2f bf40 e19d 6a3f 7805 dc40 e169 3941
00000010: a2e6 4640 05d5 323f fa22 b240 0400 0000
00000020: 22d7 1a41 0400 0000 f9ad da40 786a 9f41
00000030: 11b2 bf40 66df 8740 0400 0000 0400 0000
5.974599 0.91647154 6.8756676 11.588349 3.1078267 0.6985629 5.5667696 6e-45
9.677523 6e-45 6.833737 19.926987 5.9904866 4.2460203 6e-45 6e-45

internal.BatchNormalization_419.bnu.running_var f4 [16]
00000000: 5cc8 a23f a567 2f40 ed6c 6240 1b15 1642
00000010: 72f9 ad40 f95f 3a40 f6ab 9b3f 0400 0000
00000020: f0a2 aa40 0400 0000 fbfd 5740 9142 bf42
00000030: 6946 a640 2512 0642 0400 0000 0400 0000
1.2717395 2.740701 3.5378983 37.52061 5.4367 2.9121077 1.2161853 6e-45
5.33239 6e-45 3.3748767 95.63001 5.196095 33.51772 6e-45 6e-45

internal.Conv_420.weight f4 [16, 1, 3, 3]
00000000: 121f b43e 90fc 1dc0 8221 f1bd 33ae 2dbe
00000010: 15d5 0441 94be a4be ebc4 94be c274 abbf
00000020: ee9a 71be 2f6f 85bf 2a28 91c0 aee7 b1bf
00000030: cd92 313f 259b 3cbf 9827 3d3f bfdd 923e
00000040: 271d 7940 f9d8 1040 58b5 c1bd f5ec 08bf
00000050: 97fc 5b3e 6cbc 41bf 6252 f740 29e0 02c0
00000060: 0ed9 843e 706c 9bbf e934 773d fa55 923e
00000070: 7622 9a3f 25c7 cebc 81e9 b4c0 f733 8240
00000080: bb71 023e 83e1 50be bb4f 433e 0350 8ebd
00000090: 03d6 95bf 35bb 9bc0 7545 76bf c95f 3fbe
000000a0: 4b4f eebf 7c6a a53f 9a8f 3c3f cd86 9c40
000000b0: 5ce1 0540 10c0 b0bb 8ab7 61c0 1c48 8cbf
000000c0: 9fb1 4abf b301 35c0 a5b0 c63e 38c7 463f
000000d0: 0f6a b540 8d4a e03f 05f1 e2bd 4c1f 413f
000000e0: 10c7 b0bb a628 8e3e d8a5 fdc0 3769 e03f
000000f0: 0e26 3f3d 42c0 4f3f 4bb1 1b3e 0dcf bcbf
00000100: 4b85 2ac0 b9ff c5bf f717 84be 9e3f 8abf
00000110: d194 22be 63c6 f93f 7154 e83f a43b 573f
00000120: 0b27 473f c521 a840 0843 8c3f 9c56 413e
00000130: 9b89 573f 1fc2 aabf 6206 503d c6ee a3c0
00000140: aac2 dabf 150e e7bf 1cb1 9ac0 0f98 4ac0
00000150: 6c73 ff3f 7b35 a9be 1d7e 843f eef8 4dbf
00000160: f3b1 f2bf ac79 89bf 7c29 81bc 5045 75bf
00000170: 919f d53d 2237 a3bf 484f 3241 eaef 99bf
00000180: d679 63be 6675 85bf 1391 f5be 05ef 993d
00000190: 2820 9a40 80b3 5a3f 0cb5 6e3d b19c 1740
000001a0: 7fb2 f9bf 19ca 983e 45b8 71c0 14ac 30c0
000001b0: a51b 24bf dc5b b2c0 3ff1 b9bf b808 11be
000001c0: 0220 a3be 8379 bb3f 55d9 953e 2ba4 9140
000001d0: a181 d53f ed08 e53f 4088 07c0 c268 5abe
000001e0: 0ec8 2b40 80a6 b2c0 eb97 6abf 59e3 2440
000001f0: d3ac 423f 65ee 023f 1f35 91bf c39e dfbe
00000200: be51 ffbe d77c 25c0 00d9 e6bf dc26 ea3e
00000210: 89ce 353f aeac a440 f20c 5540 b419 1340
00000220: d34a 8540 b87e 0240 58de cebf 1693 99bf
00000230: 2645 aebf fc0c 963f 0047 af3f 0262 503f
0.35179955 -2.4685402 -0.11773969 -0.16960983 8.302022 -0.3217665 -0.29056486 -1.3395007
-0.23594257 -1.0424556 -4.536153 -1.3898828 0.69364625 -0.7367423 0.7388854 0.28684804
3.8924043 2.263243 -0.09458417 -0.5348657 0.21483074 -0.75678134 7.7288065 -2.0449317
0.2594685 -1.2142467 0.060353193 0.2858122 1.2041767 -0.025241444 -5.653504 4.0688434
0.12738697 -0.20398526 0.19073384 -0.06948855 -1.1705936 -4.8666024 -0.96199733 -0.18688883
-1.8617948 1.2923121 0.7365662 4.891455 2.0918798 -0.0053939894 -3.5268273 -1.0959506
-0.7917728 -2.8282287 0.38806644 0.77647734 5.6691966 1.7522751 -0.11081127 0.7543838
-0.005394824 0.27765387 -7.9264946 1.7532109 0.04666715 0.8115274 0.1520435 -1.4750687
-2.6643856 -1.5468665 -0.25799534 -1.0800664 -0.15877081 1.9513668 1.815077 0.8407538
0.7779395 5.2541223 1.0957956 0.18880695 0.84194344 -1.3340491 0.050787337 -5.122897
-1.7090657 -1.8051172 -4.83412 -3.165531 1.9957099 -0.33048615 1.0350987 -0.8045796
-1.8960556 -1.0740256 -0.015766852 -0.9580889 0.104308255 -1.27512 11.144356 -1.2026341
-0.22214445 -1.0426452 -0.47962245 0.075162925 4.8164253 0.85430145 0.05827813 2.3689387
-1.9507598 0.29841688 -3.776872 -2.7605028 -0.6410468 -5.5737133 -1.4526747 -0.14163482
-0.31860358 1.4646457 0.29267374 4.55129 1.6680185 1.7893349 -2.117691 -0.21329024
2.6840854 -5.5828247 -0.9163806 2.5763762 0.7604496 0.5114501 -1.1344336 -0.43675813
-0.49867052 -2.5857446 -1.8034973 0.45732772 0.7101827 5.146079 3.328915 2.2984438
4.165384 2.0389843 -1.6161604 -1.1998012 -1.3614852 1.1722713 1.3693542 0.8139955

internal.Conv_420.bias f4 [16]
00000000: 21b6 2540 da90 9540 9805 7f40 2820 f43e
00000010: 0a79 1d3d 17f3 343d 5770 ad40 37f2 87bf
00000020: db09 8cbc 3509 59bf a694 9d3f 33af 833f
00000030: 020d 41bc e444 953f 85c2 6d40 4369 1f3f
2.5892413 4.673932 3.9847164 0.47680783 0.03844551 0.04417714 5.4199634 -1.0620793
-0.017094543 -0.84779674 1.2310989 1.0287842 -0.011782886 1.1661649 3.7149975 0.6226999

internal.BatchNormalization_422.bnu.weight f4 [16]
00000000: d542 5340 247d 613f 80e7 7440 0aca 7540
00000010: 4a1f 963f 7983 9cbf 5987 8b40 eb85 823d
00000020: 5331 e23f 0896 b53f 78d4 5540 9b43 8f40
00000030: f726 fc3f 6726 0240 9cb2 923f cb7b 1640
3.300954 0.88081574 3.8266296 3.8404565 1.1728299 -1.2227622 4.360272 0.06373199
1.7671303 1.4186411 3.341093 4.4770026 1.9699391 2.033594 1.1460757 2.3513057

internal.BatchNormalization_422.bnu.bias f4 [16]
00000000: ec37 2940 050a 0e3f 8718 983f 3276 63bf
00000010: ce78 ce3f a09b 88be 048a 1b40 2efb d9bf
00000020: 77f4 06bf 4f7f b63f cca6 803f 06b2 f73d
00000030: 8685 36bf 2e04 58bf 1d6b 13bd e041 7fbe
2.6440382 0.5548404 1.1882485 -0.88852227 1.6130617 -0.26681232 2.4302988 -1.7029779
-0.52716774 1.4257601 1.0050902 0.12094502 -0.7129749 -0.8438138 -0.035990823 -0.24927473

internal.BatchNormalization_422.bnu.running_mean f4 [16]
00000000: 3b30 5a40 c2e5 9740 26fb 8d40 c3fb 683f
00000010: 4631 d63e 5f26 8d3e d43b c040 0400 0000
00000020: 9bb3 183f 0400 0000 5edd 3840 0809 c23f
00000030: bbb1 ed3e 4c45 df3f ede7 6740 1994 853e
3.4091938 4.7467966 4.436908 0.9100916 0.41834468 0.27568337 6.007303 6e-45
0.59649056 6e-45 2.8885112 1.5159006 0.4642466 1.7443023 3.6235306 0.26089552

internal.BatchNormalization_422.bnu.running_var f4 [16]
00000000: 2ddb 0441 779e 6f3f 06c3 0a41 c13a 1640
00000010: 1581 e03f aab9 9d3f a740 ac40 0400 0000
00000020: 5b58 6240 0400 0000 42cf 2c41 19ff 9240
00000030: 2861 1540 67c1 1440 e4a3 9b3a 0a0e 323b
8.30351 0.93601173 8.672613 2.347336 1.7539393 1.2322285 5.382892 6e-45
3.5366428 6e-45 10.8006 4.59364 2.334055 2.3243043 0.0011874405 0.0027169012

internal.Conv_423.weight f4 [16, 16, 1, 1]
00000000: dd05 f93e a134 7ec0 3610 913f d9c4 89bf
00000010: a131 a240 07cb a9bf 06c4 983d ddab 17bf
00000020: 1144 91c0 749e 5940 1e9a f7bd 48b8 23bf
00000030: 518c 12c1 30d3 b03f d2c7 52c0 8673 f5bf
00000040: 8753 44be 42b4 edbf 7e8f 563f ded0 9c3f
00000050: c46b 41bf 2eca 7ebd 2073 b3bf b444 e03f
00000060: 3472 95bd ebde 4340 c50b bebf df17 cfc0
00000070: 7c8a 4d3d c91d 84c0 304c 3cc0 4b2c 76c0
00000080: b763 5140 19f1 cebf 20b1 883c e06f ccbf
00000090: b6da 3ec0 9b66 a440 155a c8bf 7abb 813f
000000a0: c0c3 f63f b26e 02c0 8bb7 e5be 865f 7440
000000b0: 09fc e5be ce92 f8bf 31a1 c1bf 3cd9 3cbe
000000c0: 36ce 4cc0 505d 7ebe 9f19 6940 a675 d43f
000000d0: 60c3 403e ac53 6db9 9e46 e740 e512 65c0
000000e0: 768c 0ebf c793 74be 69da 923f 89ee 8cbe
000000f0: 6210 bebe c0da f13e 641c 1d3d d2b2 a33e
00000100: a9e0 ed3f 71aa aabe 1557 36bf eabe 3f3f
00000110: 455c 2240 5a19 c7bf d624 b63c 74d2 efbf
00000120: 98d2 533f a6b6 e4bd c618 2f41 2d7e 863f
00000130: d0a6 f53f 1445 febd 151d e7bf 081b 393f
00000140: 00c2 14c0 69a9 ac3f f75b 76c0 7514 86bf
00000150: a040 e4bf 8fd3 cc3f 53a3 ad40 c345 5ac0
00000160: 9da7 77bf be8a 943f 7491 d23e 0806 10bf
00000170: f1e1 0fbf d5ba a53f b288 74c0 9720 1d3f
00000180: 072c 223f 3760 b83f 3ffb 283f 9763 93bf
00000190: 97ac 5fc0 c99f 2340 f990 23be ed2f 0abf
000001a0: 10ba 20c0 26cb 6340 ecc2 2b40 658d 9ac0
000001b0: 058f 42c0 1509 9c3f bb16 bf3e e833 77c0
000001c0: 95da ab3f fc03 3e3e a704 d940 f402 a740
000001d0: 77c1 bbbc e9f7 babe 0b94 91bf 71d8 2040
000001e0: 5c1e 533e b481 4140 f095 b8be ca07 aabe
000001f0: 3ced 313f f3f7 b23f 88be 27bf 8fcc 19c0
00000200: ee12 8140 1d20 0240 d646 8f40 9a98 2c3e
00000210: a5fd 6c3f 0a4e 76be 415c 8bc0 540c 1fc0
00000220: 639c 543e 38e6 4a3f e83d 4dbf 1b5d 8c3f
00000230: 252b 6f3e 8929 7b3e 2193 6e3e 16ec 1abf
00000240: f3a9 9fc0 aa00 7d40 1f4a 953e fadd edbe
00000250: 3a2a 2040 4474 87bd bde0 bc3f 8116 00c0
00000260: 81f7 3ebe 40a4 a4bf 7a3b 13bf f63e 0dc1
00000270: 932e a33e 12f3 35bf 16eb 22c0 5e6e f13f
00000280: 74a1 713f b7c2 fcbf 9d0f b8be 764e c83e
00000290: 6150 8340 1c84 26c0 1c07 523d 5157 58bf
000002a0: d131 af40 9e63 a740 5d3a 2ebe 0e50 e83f
000002b0: af90 ba40 10a2 f53e 12e3 ddbf 3625 8ac0
000002c0: 896f f140 8900 f43e f466 bd3f b27d 0840
000002d0: a821 70bf de4f 833e a094 b840 7073 523f
000002e0: d094 4e3e 2f11 dc3f ceff a83e 05e1 683e
000002f0: ec7a 62be 6f6e 1f3f 90a8 7fbf b09a 63bf
00000300: 50ee fc3e b2e3 eabd 1559 f5bf 4c57 34c1
00000310: 2d3e b1bf 49a2 0e3c 8d4f e63e bfa1 4f40
00000320: 41b8 983d 1cc7 afbe 9dd6 6f40 6640 09bd
00000330: c2a6 15be 7e2a 1cc0 4c41 bf3f 436d 04bf
00000340: 5a30 76be 310a 7740 47b8 d13e ae31 7ebf
00000350: 31b4 42bd e26b 90c0 9e60 2ebf 1a2f 12c0
00000360: 4c36 3440 cf00 1441 a041 1940 b33e 9fc0
00000370: e4f6 da3f 42a1 bd3f e386 fabf 34b4 9cc0
00000380: 1e11 1740 cad5 3a3f 7536 acc0 af61 aec0
00000390: bda6 ad3e c998 643c 0049 8440 02c2 fdbf
000003a0: 173f c1bd b5ef 25be 4394 f8be db6d 6d3f
000003b0: 9dbc ee3e 66a5 a3bd 3f1a 77be e73d 263e
000003c0: b17d 453f 9e0b 993f 4c73 c73f cbe2 9cbf
000003d0: 9e42 863c 207f 853f 97b8 15c0 f605 b4bf
000003e0: 8b4d c7bf 7f1f 873f 1f04 5fbf fabf f33f
000003f0: 0da3 90bf 9682 21c1 b904 e03e 285b cc39
0.48637286 -3.9719622 1.1333072 -1.0763198 5.068558 -1.3265084 0.074592635 -0.5924662
-4.539559 3.4002962 -0.120899424 -0.63953066 -9.159257 1.3814449 -3.293446 -1.917588
-0.19172488 -1.8570635 0.838127 1.2251241 -0.7555506 -0.062204532 -1.4019508 1.7520967
-0.07297173 3.0604808 -1.4847342 -6.471664 0.050180897 -4.128636 -2.94215 -3.8464534
3.271711 -1.6167327 0.016686022 -1.5971642 -2.982099 5.137525 -1.5652491 1.0135338
1.9278488 -2.0380063 -0.44866595 3.8183303 -0.4491885 -1.9419801 -1.5127317 -0.18442243
-3.200086 -0.24840283 3.6421888 1.6598403 0.1882453 -0.00022633252 7.2273703 -3.5792782
-0.55683076 -0.23884498 1.1472903 -0.27525738 -0.37121874 0.47237206 0.038357154 0.31972367
1.8584186 -0.3333316 -0.71226627 0.74900687 2.5368817 -1.5554612 0.022234362 -1.87361
0.82743216 -0.1116765 10.943548 1.0507256 1.9191532 -0.12415519 -1.805575 0.7230687
-2.3243408 1.34892 -3.849363 -1.0474993 -1.7832222 1.6002063 5.426187 -3.410508
-0.9674013 1.1604841 0.41126597 -0.562592 -0.56204134 1.2947642 -3.8208432 0.61377853
0.6334843 1.4404362 0.6600837 -1.1514767 -3.494909 2.5566275 -0.15973271 -0.5397938
-2.5113564 3.5592742 2.683772 -4.82976 -3.0399792 1.2190272 0.3732203 -3.862543
1.3426081 0.18556207 6.781818 5.2191105 -0.0229194 -0.36517265 -1.1373304 2.5132105
0.2061705 3.0235415 -0.36051893 -0.33209068 0.69502616 1.3981918 -0.655251 -2.4031103
4.0335608 2.03321 4.477397 0.16855088 0.9257453 -0.24053207 -4.3550115 -2.4851274
0.20762782 0.79257536 -0.80172586 1.0965914 0.23356302 0.24527563 0.23298313 -0.6051649
-4.9894958 3.9531655 0.29158112 -0.46458417 2.5025773 -0.06613973 1.4756085 -2.0013735
-0.18649103 -1.2862625 -0.5751263 -8.827871 0.3187147 -0.7107402 -2.5455985 1.8861806
0.9438698 -1.9746922 -0.35949412 0.3912236 4.103562 -2.6018133 0.05127631 -0.84508234
5.474831 5.2309103 -0.17014451 1.8149431 5.8301616 0.47975206 -1.7334921 -4.3170424
7.544865 0.47656658 1.4797044 2.1326718 -0.93801355 0.2564687 5.7681427 0.82207394
0.20173955 1.7192744 0.33007663 0.22742088 -0.22117203 0.62277883 -0.9986658 -0.8890791
0.49400568 -0.11469211 -1.9167811 -11.271313 -1.38471 0.008705684 0.44982567 3.2442472
0.07457019 -0.34331596 3.747474 -0.03350868 -0.14614394 -2.4400935 1.4941802 -0.5172922
-0.24041882 3.859997 0.40960905 -0.99294555 -0.047535125 -4.5131693 -0.68116176 -2.2841249
2.815814 9.250197 2.3946304 -4.9764037 1.7106595 1.4814837 -1.9572414 -4.8969975
2.3604198 0.72982466 -5.3816476 -5.4494243 0.33916274 0.013952442 4.133911 -1.9824831
-0.094358616 -0.16204722 -0.48550615 0.9274575 0.46628276 -0.079905316 -0.24131106 0.16234551
0.77144915 1.195667 1.5582061 -1.2256712 0.016389187 1.042942 -2.3393915 -1.4064319
-1.5570539 1.0556487 -0.87115663 1.9042962 -1.1299759 -10.094381 0.43753603 0.0003897783

internal.Conv_423.bias f4 [16]
00000000: bf2f 8d40 3c2c c0be 3bc2 72c0 2b92 1041
00000010: 1de5 ff3e 26a5 3640 eda5 a340 992c 8bbf
00000020: ff10 fa40 6685 cfbf 767e 1740 6192 c5be
00000030: d82d 32bf 2182 9b40 7d3f b940 fbe2 9540
4.4120784 -0.37533748 -3.793105 9.035686 0.49979487 2.8538299 5.1140046 -1.0872985
7.8145747 -1.6212585 2.3670936 -0.3858824 -0.696012 4.859635 5.789 4.6839576

internal.BatchNormalization_425.bnu.weight f4 [16]
00000000: 4b9a 243f 3c2f e03f 9fab 8540 99a8 4940
00000010: 82db 2d40 5ee1 0640 b538 8440 f4eb 8d40
00000020: a314 2c40 c27e 3140 2332 313f f52d 5940
00000030: 2cce 4b3f 9100 8a40 1894 2040 2e76 653f
0.6429793 1.7514415 4.1772 3.1509154 2.7165227 2.1075053 4.1319222 4.435053
2.6887596 2.7733617 0.6921713 3.39343 0.7961147 4.312569 2.509039 0.8963345

internal.BatchNormalization_425.bnu.bias f4 [16]
00000000: 9595 373f 5ff7 4240 aa26 0e40 2e95 85bf
00000010: 5649 90bf 34fb a33f 20b2 bebf aea0 9d3f
00000020: 7811 07c0 30f1 ee3f ebeb e23f 8359 8ebf
00000030: 0cc8 c23c a1b0 913f a980 16c0 ac9a 4d3e
0.7171262 3.0463483 2.2211099 -1.0436151 -1.127238 1.2811036 -1.489811 1.231466
-2.1104412 1.8667355 1.7728246 -1.1121067 0.02377703 1.1382028 -2.3516028 0.20078534

internal.BatchNormalization_425.bnu.running_mean f4 [16]
00000000: 0453 f941 1b3b 0041 0676 8c40 7149 fa41
00000010: 806e aa41 f93e 8b41 7d5e a641 6438 3341
00000020: 0616 b641 df5c 1841 e4ae 5b41 520b 0c42
00000030: 7b24 9041 85ae dd41 656b f241 1087 b341
31.165535 8.01443 4.389407 31.28586 21.303955 17.405748 20.796137 11.201267
22.760754 9.522674 13.730198 35.011055 18.017813 27.710215 30.302439 22.440948

internal.BatchNormalization_425.bnu.running_var f4 [16]
00000000: 3574 1243 84b3 bb42 640b 9643 ba27 8844
00000010: 5192 ab44 12bc db43 b7cf 2e43 98c3 b544
00000020: 3119 2d44 b8e0 1943 5f51 dd43 3aa1 ad44
00000030: f46d 7343 8057 a143 d49b 0744 e6aa 8543
146.45393 93.85062 300.089 1089.2415 1372.5724 439.4693 174.81139 1454.1123
692.3936 153.8778 442.6357 1389.0383 243.4295 322.6836 542.4348 267.33514

internal.Conv_426.weight f4 [16, 1, 3, 3]
00000000: f061 37c0 0100 c7bf ad79 88bf af14 86bf
00000010: e894 2b40 2c01 2bbf fc39 f43f 8a2d 5040
00000020: 10a2 0140 4c26 33be cc57 0740 9d0f 2140
00000030: 9a11 a03f 8ea9 cd40 87d3 4c40 ffc5 033f
00000040: 339f ac3f c25f 8b3f 15ba 883d c5de d83e
00000050: e2c4 e13f 3db3 f53f c2c8 fb40 9d6e 513e
00000060: 9715 463f cd2e 4cc0 66de 3b3e 1970 5a3e
00000070: c740 4ebf 86b2 9abe 681b 5ebe 053d 83c1
00000080: 3a62 bbbf 926b 6fbd b12a 56bf 6bdc 42bf
00000090: 248e 08bf 577c 35bd 3049 97be f682 b0bf
000000a0: 37fa 5bc1 cde5 41bf 2be3 98bf 7877 11bf
000000b0: e54c 1fbf 13ea e5bf f872 f23f c449 833f
000000c0: c182 18c0 f520 a240 5a26 23c0 c43f a53e
000000d0: 51a7 bf3e a6b3 c83f 241d 803e 9c82 05c0
000000e0: 3a84 443e 6777 41c0 1165 48c1 f7d0 a7bf
000000f0: e12e 3abf 9bd9 cabf 90c0 e5be d870 3b3f
00000100: 5f51 e43f 2ef8 f13e 9d79 04c0 ec3a 4441
00000110: c038 393f b18f a13e 9565 0a3f 4c20 c33d
00000120: a7b1 bb3b 7ce4 febd 0ad8 4e3f 663b ffbe
00000130: 8680 62c1 d8fd 183f 58c5 71bf b20c 123d
00000140: 2b5c 3dbf 2564 78bf 6a70 4f3f 0bc8 cdbf
00000150: 719b 0abe 4221 f940 723b cb3f d0ee b53f
00000160: 2950 2340 2390 8f3e b1c8 903f 5cde 21c0
00000170: d125 9d3e 8419 a7be ef4e 0c41 e17d dcbf
00000180: 93f8 393e 492e 51bf 8f1e 7e3f 4810 c33a
00000190: f49d 73bf cec2 1abf f819 2fbf 04d1 80c1
000001a0: 4234 dfbe 6e0b 88be b236 07bf 6574 40bf
000001b0: 2710 013f 8020 63bf 889c a9be 5405 863f
000001c0: 0713 d53f fd0f f7c0 4530 f43e 3fb6 c03f
000001d0: fd62 0240 d246 b23e c83a 2cbf 90c3 7b3f
000001e0: a7cc 0c40 9ef2 5641 54b4 07bf 0ff3 1c3f
000001f0: 2cfb ce3f 109c 05bf bf16 12bf c015 ba3d
00000200: 02e7 46bf 091f a73e 5408 80c1 57ff c9bf
00000210: bc3a 0cbf c1d2 20c0 f1af ef3e 02a0 bf3d
00000220: 9b14 1cc0 0b4c 02c0 6eb4 eb3e 6611 ba40
00000230: a525 12c0 8e60 883f f8c9 733f a979 6fbf
-2.8653526 -1.5546876 -1.0662133 -1.0475062 2.6809635 -0.66798663 1.9080195 3.2527795
2.0255165 -0.17495078 2.1147337 2.516578 1.2505372 6.4269476 3.2004106 0.51473993
1.3486084 1.0888598 0.06676117 0.4235746 1.7638209 1.9195324 7.8682566 0.20452352
0.77376693 -3.1903565 0.18346557 0.21331824 -0.8056759 -0.30214328 -0.21690142 -16.404795
-1.4639351 -0.058452196 -0.8365889 -0.7611758 -0.5334189 -0.044308033 -0.29548025 -1.3789966
-13.748588 -0.75741273 -1.1944326 -0.5682292 -0.62226707 -1.7962059 1.8941336 1.0256886
-2.3829806 5.066523 -2.5492158 0.32275212 0.3743234 1.5679824 0.25022233 -2.0860968
0.19191065 -3.0229127 -12.524674 -1.3110646 -0.7272778 -1.5847658 -0.44873476 0.7321906
1.7837332 0.4725966 -2.0699227 12.264385 0.7235222 0.3155494 0.5406125 0.095276445
0.005727965 -0.12445924 0.807984 -0.49850005 -14.156378 0.59762335 -0.9444175 0.03565664
-0.7396876 -0.9702781 0.81030905 -1.6076673 -0.13535859 7.78531 1.5877516 1.4213505
2.5517676 0.28039655 1.1311246 -2.5291967 0.30692914 -0.32636654 8.769271 -1.7225915
0.1816123 -0.8171125 0.9926538 0.0014882172 -0.9516289 -0.604535 -0.68399 -16.102058
-0.43594557 -0.2657122 -0.52817833 -0.75177604 0.5041527 -0.88721466 -0.33127236 1.0470376
1.6646432 -7.7207017 0.47693077 1.5055617 2.0372918 0.34819657 -0.67277193 0.9834528
2.199991 13.434233 -0.53009534 0.6130838 1.6170402 -0.5219126 -0.5706596 0.0908618
-0.7769624 0.32640865 -16.004066 -1.5781049 -0.5477712 -2.5128634 0.4681392 0.09356691
-2.4387577 -2.0358913 0.46036094 5.814624 -2.2835476 1.0654466 0.95230055 -0.93545014

internal.Conv_426.bias f4 [16]
00000000: 0e83 e940 e581 903f 6ea1 373e c140 5440
00000010: 9f65 8c40 a947 80c0 b033 883f 7b08 b63f
00000020: f86b 44bf 3942 c03f 2990 d640 7f91 6140
00000030: 31b9 b640 689b f8bc 2770 2f40 f551 9c40
7.297248 1.1289641 0.17932674 3.3164523 4.387405 -4.0087476 1.0640774 1.4221338
-0.7672725 1.502021 6.7050977 3.5245054 5.7101064 -0.030347541 2.7412202 4.8850045

internal.BatchNormalization_428.bnu.weight f4 [16]
00000000: 173c 5b3e 9b6f 8e3e d3bb 8c3e fdfa b73e
00000010: 2380 c83e 4722 903e e504 a73e dc48 e33e
00000020: 342c b03e b57f 843e 068d bb3e 5fb4 cc3e
00000030: 8127 673e ab27 913e f1b4 d03e a753 703e
0.21409641 0.27819523 0.27487049 0.35933676 0.3916026 0.28151152 0.32620922 0.44391525
0.34408724 0.25878683 0.3663103 0.39981362 0.22573663 0.28350577 0.40763047 0.23469411

internal.BatchNormalization_428.bnu.bias f4 [16]
00000000: 7651 9abd fe62 1d3c 0e8d 2f3d 9099 1ebe
00000010: c7f4 b5bd 9108 873d 3fbb 56bd f961 b4bd
00000020: 8c2f f33c eecd f73d 0ef3 50be 7c34 12be
00000030: b237 d83d 2cae 93bd 5b7c 553e 07c4 51bd
-0.07535069 0.009606121 0.04285913 -0.15488267 -0.08884578 0.06593431 -0.052424666 -0.08807749
0.029685758 0.12099825 -0.20405218 -0.14277834 0.10557498 -0.07210955 0.20848219 -0.051212337

internal.BatchNormalization_428.bnu.running_mean f4 [16]
00000000: 6030 1641 5ec3 6142 0fb6 b741 9605 0c42
00000010: 850a 0642 0c63 8840 5b16 2842 c33f a341
00000020: a324 1442 bfe5 bd41 f87e 8a41 f417 1442
00000030: bdd4 cc40 8733 0042 8176 6342 bae5 b040
9.38681 56.44079 22.963896 35.005455 33.510273 4.2620907 42.02183 20.406134
37.035778 23.73718 17.311996 37.02339 6.400969 32.05032 56.865726 5.528043

internal.BatchNormalization_428.bnu.running_var f4 [16]
00000000: 748a 8c41 b373 f243 bf3e d244 2f5f cd43
00000010: 45b0 7843 1f48 1f43 ffb7 2d45 b314 6a45
00000020: ec3d 9a43 91ba 3944 d675 a941 1a19 c343
00000030: 8eb1 a741 dd35 3f45 a2d1 4344 1495 a541
17.567604 484.9039 1681.9608 410.74362 248.68855 159.28172 2779.4998 3745.2937
308.48376 742.9151 21.182537 390.1961 20.961697 3059.3665 783.2755 20.697792

internal.Conv_429.weight f4 [16, 16, 1, 1]
00000000: 20c6 d63d 677b 163d 3f58 74be 44db ac3d
00000010: 59f4 4f3c 98f6 b0bd 8c66 26be f7e0 843d
00000020: b690 a2bd 1a02 a6bd 88ef 1b3e c3f2 e93d
00000030: 089d 4dbe 56d8 b6be 65a8 e1bc 2ee5 003e
00000040: f608 a8be c524 b53f 8f20 bb3d 019d 0cbf
00000050: dd2d 89bf 8b96 9a3e 92d1 0b3f 40a2 0fc0
00000060: 9c5f cd3e a3ca 0e3f 65e3 af3f 2938 76be
00000070: b646 0c40 4f4a 2e40 1a7c fe3f 96fb fcbf
00000080: fd4a a2bf 1ed5 00c0 db82 85be 0891 833f
00000090: 2f0c 7740 03e4 7f3f 6925 1e40 8a4e 443f
000000a0: 0184 88bf 9373 dbbf 1d29 d53e 5112 c1bf
000000b0: 4fb1 9bbd a597 bcbf 2edb 20be a0bf 1c3c
000000c0: 8634 7cbe 9c24 d33c 8abe 07bf e23b cc3e
000000d0: 9e5e 15be b17c 4e3e 3386 553f fa68 5cbe
000000e0: cf6f 353e 2dc5 47be 35ff aa3f 14a3 a0bc
000000f0: 0683 ae3c 0fe2 4e3f 6cd6 21bc 696b 56be
00000100: 6a17 c0bf a445 dd3f c0db b83f ef84 12bf
00000110: 8d3d c5bf 8d11 3940 e3e7 873f 1c71 da3f
00000120: 09de efbf 58fe 10bf c58d 95bd 086e 20bf
00000130: aa72 8dbf c65c a73f 9045 8540 637d 6e3e
00000140: 9bdf 433f f355 71bf d200 1940 3ebd 38c0
00000150: bb4e 923e ae53 5d3f 5dfd 99be 6b01 153f
00000160: 2393 c3bf 17f5 d23f d3bd 9d3f 5e50 bd3f
00000170: f243 6bbf f5c2 a9bf d274 883f 55ad 9c3f
00000180: 763e f13e 6dfc 1ec0 90bb 263f 830b 7c3f
00000190: 242c 2fbf 0bbe 15bf 5279 4e3f f633 10bf
000001a0: 2481 d2bf 6f78 35c0 806b 4bbe cdba 70be
000001b0: a000 b5bf c8d4 9b3d 02ef d5bf 1614 2b40
000001c0: f46a a4bf 8e75 45bf 1c3f ccbc 257f 1340
000001d0: b5e0 e3be 13c5 933f eb03 37bf 66d2 8040
000001e0: 049e d73f ab2a 153c b295 18be ef67 5f40
000001f0: f36a e93f 287c 1e3f da08 87bf 81c9 17be
00000200: 0568 f4bd 3972 03bf 16fd 983f 43b8 3740
00000210: 5b3d a53f e3bd de3e 09c8 203e ada9 8dbe
00000220: a2a4 aabf 6ed2 0a3e 920a f2be d15f 4b40
00000230: 62ab b83e f3a4 9b3e e5a3 3840 421e 913f
00000240: ac51 33c0 550a 94be d315 3440 2efd 87be
00000250: 413d 47bf e7ed 05c0 5408 053f a058 14c0
00000260: 1b50 6e40 4d92 d33f fb7f 0240 cba4 493f
00000270: dabc 46bf 68c2 443f 41cd afbe c038 a5bf
00000280: 92f5 9d3d 5ddb 8dbd 4ba9 843e b411 963c
00000290: 69f1 7fbc 7fdd 9a3e ae9e 6fbb 090a 9c3e
000002a0: 6708 2c3d d545 dd3c b54f 273e 964e db3c
000002b0: b317 82bc 9e20 69bd d9c9 d23d 80f6 8abd
000002c0: bab2 263f 5410 763e 8f1b 33bf 30f8 05be
000002d0: 9b9c 183f 89ef 6abf 5618 263e 255a 5ebf
000002e0: c537 16bf dafa ea3e 6766 1ebf 821e 313e
000002f0: 657a 603f 30b7 a63e 8d25 e0bd ae72 b4be
00000300: a1b5 46bd 165d 9dbd 816b adbd a9de c93d
00000310: 6158 8f3d 24b7 823d f6ff 28be 6bdf 89bd
00000320: 22b5 163c 6430 26be bf38 1f3e 7b4a a83c
00000330: fa99 acbe a1ea 173e 30c0 88bd fe65 b1bd
00000340: 487d 723d c4be 98bd 6caa 19be 7bb3 e4bc
00000350: 1c6f c43c 1137 0e3d aff7 df3b 58d4 60be
00000360: 5365 b9bc b9b9 0f3c 6354 f9bd 4047 44bc
00000370: 57ab b3bd 07e1 10be 4f91 4fbd 27ca 1fbc
00000380: 4bdd 7cbf a86f d0bf 7ca5 203f 86b0 1640
00000390: 402a 973f b6cc 8cbf 6755 5c40 4df6 a83f
000003a0: 6fa6 54bf 9cd6 073e bf77 8440 042a 953e
000003b0: 4476 bb3e 4e9e 1340 004c 25c0 030b 28be
000003c0: 72bd 33be e56c 1bbf 29e0 1a3e 00dc a83e
000003d0: f5bd 05bd 705e 49bf 7436 2f3e 2bed fdbf
000003e0: 44cc 1f3b 8136 fe3f 66ce 8dbf 3214 193e
000003f0: 650f 9b3f c579 41be 6236 1d3e 55be 07bf
0.10487008 0.03673878 -0.23861788 0.08440259 0.012692534 -0.08640784 -0.16250056 0.06488221
-0.07937758 -0.081058696 0.15228093 0.11423256 -0.20079434 -0.35711926 -0.027546117 0.12587425
-0.32819337 1.4151846 0.091370694 -0.5492707 -1.0717121 0.3019298 0.54616654 -2.244278
0.40112007 0.5577795 1.374127 -0.24044861 2.1918159 2.7232854 1.9881623 -1.9764278
-1.2679135 -2.0130076 -0.26076397 1.0278635 3.8601186 0.99957293 2.4710333 0.7668234
-1.0665284 -1.7144645 0.4163293 -1.5083715 -0.07602178 -1.4733778 -0.1570861 0.009567171
-0.24629411 0.025774293 -0.53025115 0.39889437 -0.14586875 0.20164753 0.83407897 -0.2152442
0.17718433 -0.1950881 1.3359133 -0.019609012 0.021302711 0.8081369 -0.009877782 -0.20939411
-1.5007145 1.7286878 1.4442062 -0.5723409 -1.5409409 2.8916962 1.0617641 1.7065768
-1.8739635 -0.566381 -0.07302431 -0.62667894 -1.1050618 1.3075187 4.1647415 0.23290019
0.7651307 -0.94271773 2.390675 -2.8865504 0.28575692 0.8645581 -0.30076113 0.5820529
-1.5279278 1.6481045 1.2323555 1.4790151 -0.9190055 -1.3262621 1.0660651 1.2240397
0.47117966 -2.4841568 0.6512995 0.98455065 -0.6842673 -0.5849311 0.8065387 -0.56329286
-1.644566 -2.8354757 -0.19865227 -0.23508759 -1.4140816 0.07608944 -1.6713564 2.673101
-1.284514 -0.771325 -0.024932437 2.3046353 -0.44507375 1.1544517 -0.71490353 4.0256834
1.6845098 0.009104411 -0.14900854 3.4907186 1.8235763 0.619082 -1.0549576 -0.14822961
-0.11933903 -0.51346165 1.1952236 2.8706214 1.2909349 0.43504247 0.15701307 -0.27668515
-1.3331492 0.13556835 -0.4727369 3.1777232 0.36068255 0.30399284 2.8850033 1.1337359
-2.8018599 -0.28914133 2.813832 -0.26560348 -0.7782784 -2.0926454 0.5196583 -2.3179092
3.7236392 1.6529022 2.0390613 0.7876708 -0.77631915 0.7685914 -0.34336284 -1.2907944
0.077128544 -0.06926606 0.2591041 0.018318988 -0.0156215215 0.30247113 -0.0036563086 0.30476406
0.0420002 0.027010838 0.16339 0.026770871 -0.015880441 -0.05691587 0.10292406 -0.067852974
0.65116465 0.24029666 -0.69963926 -0.13082957 0.5961396 -0.9177175 0.16220221 -0.868563
-0.5867885 0.4589451 -0.61875004 0.17296794 0.8768676 0.32561636 -0.10944662 -0.35243744
-0.04851306 -0.0768377 -0.0846777 0.09856922 0.06999279 0.063825876 -0.16503891 -0.06732067
0.009198459 -0.16229397 0.1554899 0.020543328 -0.33711225 0.14835598 -0.06677282 -0.086620316
0.05920151 -0.07458261 -0.15006417 -0.027917614 0.023978762 0.034720484 0.006834946 -0.21956003
-0.022631323 0.008772307 -0.121742986 -0.011979878 -0.08772915 -0.14148341 -0.050675686 -0.009752787
-0.98775166 -1.6284075 0.6275251 2.3545241 1.1809769 -1.0999973 3.4427125 1.3200165
-0.8306646 0.1326546 4.1396174 0.29133618 0.36613667 2.3065372 -2.5827637 -0.1641045
-0.17552736 -0.60713035 0.15124573 0.32980347 -0.03265186 -0.78659725 0.17110616 -1.9838003
0.0024383226 1.9860383 -1.1078613 0.1494911 1.2114073 -0.18894108 0.15352777 -0.530248

internal.Conv_429.bias f4 [16]
00000000: 7ccf 8d3f 2773 f63e 6798 263f 61e0 31bf
00000010: bb36 00bf bb83 11bf 41b9 c0be b9c4 54bf
00000020: 89f3 063f 4951 0c3e 14c4 55bf 136e 573e
00000030: 9e49 393f 4bde 9f3f 4371 c7bf aeab 7ebf
1.1078944 0.4813473 0.650763 -0.69483 -0.5008351 -0.5684163 -0.37641338 -0.83112675
0.52715355 0.13702883 -0.83502316 0.21038084 0.72377956 1.2489713 -1.558144 -0.9948071

internal.Conv_430.weight f4 [16, 16, 1, 1]
00000000: 0771 78bd 3d46 ce3f 3418 00be a951 393f
00000010: 758d 54bf f4eb 853f c14c 3f3e 9d21 3c3e
00000020: 0552 ee3f 92cf bebe ab81 e1be cdb7 6140
00000030: 5444 843f 4803 0c3f 56c9 483e 3d67 fb3e
00000040: 5d7e 263f 78fc bf3f ad2c 6140 483b 1fc0
00000050: b721 e53d d099 133e 1b89 303e 4c18 3e3c
00000060: 01cf c43d e0e9 a53d 9f35 a73f b2c4 98bf
00000070: 7941 923e e96e 5340 7b72 323e c57e 3f3d
00000080: 8402 2b3f 97a8 783f f6ac fd3d 1d89 89bf
00000090: e45a 90be 8686 ccbe 8498 7ebf 9a7a 86bc
000000a0: 9cf4 13be e726 a43c c328 81c0 2fe4 93be
000000b0: b843 1a3e 13a6 e93e 9b09 32bd c926 233e
000000c0: a508 e2bd 9810 143f 0313 083f 2cfc 86bf
000000d0: 628e 1dc0 c756 f73e 23ce fa3d e622 b73d
000000e0: 3aa5 ec3f aa59 ccbd 477f ee3e e15d 22be
000000f0: 3cd9 e53f 402c acbe 041a 2dbe 29a7 16bf
00000100: adeb 093f 6278 0abf 9691 0f40 10b0 3140
00000110: 9847 15bf 6d3d 35bf d10d 0c40 7e4f eb3c
00000120: 09a3 373d 63c7 b23c 00be b33f 53c8 dabc
00000130: ebbc 5fbe c97e 06c0 8247 48bd 6c8e 36be
00000140: 2919 8cc0 4b40 b8bf c4b9 1d40 3353 0cc0
00000150: b8a9 9cbe c4d8 a5bf c61d 03c0 747e bbbd
00000160: 4bd9 00be f17e bd3d 0565 74bf 055b 1e40
00000170: 77cf 243f 9bbd 41bf 9ad9 86bd 2afa 2a3e
00000180: cc69 db3d e988 a1be 7466 603f e3c1 56c0
00000190: ea83 6dbf 010f 23bf 931f 4e3d bd3f fdbc
000001a0: 3f49 a2be ac07 a3bc 1642 c13f a50f 7840
000001b0: d4e4 11bf bfea 263f fed6 99bd 3695 c5be
000001c0: e91f d5bf 53b0 023e ca52 5ac0 0763 48c0
000001d0: 05d6 f9be 4151 9dbd 0f70 fd3f 0a99 3a3c
000001e0: 95da d7be 6f3f 7d3c 6996 113f 1b03 2140
000001f0: 8a69 8dbd 0fd6 78be 7cb9 7e3b 876f 14be
00000200: 746e bbbf dcea 443f 20bf 313f 4df9 593e
00000210: c5b3 adbe 2207 e73e 5742 9040 8721 bcbb
00000220: b40e 80be 0625 c63c 9799 b3bf 2691 78bf
00000230: 6b97 efbe 664b 143f 06ae 72ba 1d61 d73c
00000240: 5d81 49c0 2f4d 0c3f efa8 623e 432e d53f
00000250: ce02 113f 1862 aebf 17b4 c1bf b4fb ab3c
00000260: f3cf e73e 0843 5c3d 2ca4 113e dc1f 80bf
00000270: 0cf4 cdbe 0bee d8be 2711 8abd 11d6 193e
00000280: 2978 e0bd b739 4140 b164 a0bd 2537 89be
00000290: 93ac 44c0 fc81 a63e cee1 313d afdc fcbd
000002a0: fb9a 27bf c07c a73e 169e ca3d d585 49bf
000002b0: bd93 c840 891d d23e 4d10 14be a647 9dbe
000002c0: d391 003f c2fd a6bf 20cd aaba bcc6 6cbe
000002d0: 1b57 87c0 cc92 33c0 fe57 2a3d 02b0 7b3c
000002e0: 54d2 4040 2050 dd3c a514 b8be 38f7 b1be
000002f0: 383e 63bf 3d77 60be b0a7 043e 1789 2a3e
00000300: 6782 edbb c856 bcbf 150e 493d beb9 ec3e
00000310: b369 0040 3729 3340 e95d 8d3e 1bf8 3bbe
00000320: c275 92c0 fd60 bf3e bce5 b5be c614 0d40
00000330: bffa fabe 3e11 173f 2467 5b3e 8380 57be
00000340: 5b0c 893d 3257 353d 1287 2cbd 48ca b53e
00000350: a536 493e b388 0ec0 c3a3 523e 66c0 e03d
00000360: b71e c240 b3ec 07be b98a 98bd 0287 8c3f
00000370: 40b1 70c0 eae1 febe c1dc 2cbe 9264 dc3e
00000380: 2033 ef3e 77a8 a03e 2112 3fc0 2c5a fcbe
00000390: ad14 ccbe e2d0 5bbf f618 553f 7709 233d
000003a0: 2116 233e f897 abba 7e20 f8bf 2360 0dbf
000003b0: 9521 98bb 7a19 8e3e f9ce 01bd 576b 60bd
000003c0: c8f5 223f 1fc3 c7bf 614b d93f a3f2 92bf
000003d0: db13 b4bd 88dd 09bf 5af4 9b3f 32ba 8cbb
000003e0: 9400 353e 32e4 413c 0875 72bd f51e 423f
000003f0: f37d 293f 50bb 8fc0 9c7d 3fbc ae23 a0bd
-0.060654666 1.6115185 -0.12509233 0.7239023 -0.83028346 1.0462632 0.18681623 0.18372197
1.861878 -0.3726774 -0.4404424 3.5268433 1.0333352 0.54692507 0.19608054 0.49102202
0.65036565 1.4998922 3.5183518 -2.4879932 0.11188071 0.14414144 0.17239802 0.0116024725
0.09609795 0.08101249 1.3063239 -1.1935027 0.28565577 3.3036444 0.17426483 0.046751756
0.66800714 0.9713225 0.12386505 -1.0744969 -0.28194344 -0.39946383 -0.9945147 -0.016415883
-0.1444878 0.020038081 -4.036226 -0.28885028 0.15064895 0.45634517 -0.04346619 0.15932764
-0.11036805 0.5783782 0.5315401 -1.0545707 -2.4618154 0.48308393 0.12246349 0.08942203
1.8487923 -0.099780396 0.4658148 -0.15856124 1.795692 -0.3362751 -0.16904455 -0.58848816
0.5387524 -0.5408994 2.2432609 2.776371 -0.5831237 -0.70796853 2.1883433 0.028724428
0.044833217 0.02182359 1.4042358 -0.02670685 -0.2184941 -2.1014884 -0.04889632 -0.17827767
-4.3780713 -1.4394621 2.4644632 -2.192578 -0.30598235 -1.2956777 -2.0486922 -0.091549784
-0.1258289 0.09252728 -0.95466644 2.4743054 0.64379066 -0.7567994 -0.06584473 0.16696993
0.107135385 -0.31549767 0.8765633 -3.355584 -0.9277941 -0.6369477 0.05032308 -0.030914182
-0.31696507 -0.01990112 1.5098293 3.8759549 -0.5698979 0.65201944 -0.0751171 -0.385904
-1.6650363 0.12762575 -3.411303 -3.1310441 -0.48796096 -0.076815136 1.9799823 0.011389026
-0.42158952 0.015457018 0.5687013 2.5158145 -0.069048956 -0.24300407 0.0038867882 -0.1449567
-1.4643083 0.76920867 0.6943226 0.21286507 -0.33926216 0.4512263 4.508098 -0.0057413015
-0.25011218 0.024187576 -1.4031247 -0.9709648 -0.4679521 0.5792755 -0.0009257499 0.026291424
-3.1485207 0.5480527 0.22134756 1.6654743 0.56644905 -1.3623686 -1.5133084 0.020994045
0.4527584 0.053774863 0.14222783 -1.0009723 -0.40225255 -0.42369112 -0.06741553 0.15023066
-0.10960419 3.0191476 -0.07831705 -0.26799884 -3.073033 0.32521045 0.043428235 -0.123467796
-0.65470856 0.32712364 0.09893434 -0.78719836 6.2680345 0.4103816 -0.14459343 -0.30718726
0.5022251 -1.3046191 -0.0013031103 -0.23122686 -4.229383 -2.8058348 0.041587822 0.015361788
3.0128374 0.027015746 -0.3595325 -0.34758925 -0.88766813 -0.21920486 0.12954593 0.16653858
-0.007248211 -1.4713984 0.049085695 0.4623546 2.0064514 2.7993906 0.2761071 -0.18356363
-4.5768747 0.37378684 -0.35526836 2.204393 -0.4901943 0.59010684 0.21426064 -0.21045117
0.0669181 0.04427261 -0.042121 0.3550589 0.19649751 -2.2270935 0.20570283 0.10974197
6.0662494 -0.13273887 -0.07448334 1.0978701 -3.7608185 -0.49781734 -0.16881086 0.4304548
0.46718693 0.31378528 -2.9854815 -0.49287546 -0.39859524 -0.85865605 0.8324121 0.03980395
0.1592641 -0.0013091555 -1.9384916 -0.5522482 -0.004642675 0.27753812 -0.031691525 -0.054789867
0.6365628 -1.5606421 1.6976129 -1.1480297 -0.0879285 -0.53853655 1.2183945 -0.004294657
0.17676002 0.011834191 -0.05919364 0.75828487 0.6620781 -4.4916153 -0.011687662 -0.07819305

internal.Conv_430.bias f4 [16]
00000000: 9111 563f 0c4b 213f d057 2b3f 8064 5bbf
00000010: 2907 c9be 3bfc 2dbf d315 1cbf c163 4ebf
00000020: 05d6 e03e 917b b3bc 068a 6bbf 09d0 b03d
00000030: 7b48 5b3f 1a0d a03f f0a9 c1bf 583b a4bf
0.83620554 0.6300514 0.66930866 -0.85700226 -0.39263275 -0.67963 -0.609708 -0.8062096
0.43913284 -0.021909507 -0.9200748 0.086334296 0.8565747 1.2503998 -1.5129986 -1.283061

internal.Conv_432.weight f4 [16, 1, 3, 3]
00000000: 170c 183f 60e7 b5be 75b7 00bf 75c2 aa40
00000010: 6449 3fbd 2591 a6c0 7776 193f df92 7b3e
00000020: ccf6 32bf f1be b3bf 2dd5 6ebe 694d 62bd
00000030: d873 693f 8ba9 4641 690e 0140 a452 05bf
00000040: 2bbe 7a3f 15f1 f6bf 4eb8 ca3f 77ee 8c40
00000050: a78e 843e bfac 5abc 4515 9b3e d3f1 d0bc
00000060: 4357 88be 786f c0c0 2a63 28bf 26e5 c83f
00000070: 218a 71be 526c ad3f 9be3 2340 da02 f1c0
00000080: 6acf 93be 87e8 b13f fc9f b8be 0770 4f3f
00000090: 2759 1d3f 948a 23c0 7ff2 d8bd 7118 69bf
000000a0: 95be 7ac1 3be7 9dbe c786 e13f e881 cebc
000000b0: 385e 2e3e aa1f 53bf 2456 af3e 50c4 183f
000000c0: cfce b43f a69c 20c1 9c9e c63f 5950 893f
000000d0: d22a dabf fb07 aa3f dd34 dcbf c151 1ec0
000000e0: c5a2 5cbe f1be cebf a6ee be40 e2da 823e
000000f0: 238b 41bf 71e6 b03c d8e0 7a3f 3e4b 3ebe
00000100: a73c 5cbf 04d4 89bc 82be 4cc0 178d 0041
00000110: b1a4 21bf 6f80 003d 8e00 f63d fda3 d0be
00000120: 7137 1c3f 2877 9f3f 8bae 563e 2ee4 a9be
00000130: 3b67 34c1 ac6b f03b 8891 b33e a4f8 a93f
00000140: c0e5 363f 367d e3be b523 c4be 7c32 ab3e
00000150: a4b1 1940 c0d6 07c0 1443 623f 173c 2140
00000160: d05d b7c0 af60 4840 19bf 23bf 1364 ed3e
00000170: c447 a43e e866 a4c0 3d5c 3f3e a073 9d40
00000180: 49c6 40bf b6a5 01be deb0 433f f26b d7bf
00000190: ec27 32c0 6b43 2ebf bcf0 1340 1f4f b340
000001a0: 6025 8a40 bcdb 94be a12b 943f 8613 adbf
000001b0: a923 41bf 02ae de3e 036c ca3e e95c a0c0
000001c0: cfd2 0e3e 075e a040 1420 0dbf 64d8 bebe
000001d0: b0ed 2b3f e7e1 37bf d021 67be 374e 653f
000001e0: 9602 a5c0 8248 c63c 1378 a540 56a6 95bf
000001f0: 912c bb3e c6d6 5a3f c2fb 0540 4f4c 94bf
00000200: f3be 403e 9b69 53c0 f3e3 f9c0 6a98 91be
00000210: b408 7a3d 32ae 1440 bce0 8c3e b3a7 983f
00000220: 7d6b f3bf 9a8d 8abe c0fe 40c0 d464 0ec1
00000230: a8c5 383f 143b 78be 0ab9 11c0 d9ed 3d3e
0.5939345 -0.35528088 -0.50279933 5.3362374 -0.04670085 -5.205218 0.5994639 0.24567746
-0.6990783 -1.4042646 -0.23323508 -0.055249605 0.9119239 12.416392 2.0165045 -0.52079225
0.97946423 -1.9292322 1.5837495 4.4041095 0.25890085 -0.01334685 0.30289665 -0.025505936
-0.26629075 -6.013607 -0.6577631 1.569493 -0.23587848 1.3548682 2.560767 -7.531598
-0.28869182 1.3899087 -0.36059558 0.81030315 0.6146416 -2.5553331 -0.105931275 -0.9105292
-15.671529 -0.30840477 1.7619256 -0.025208429 0.17028129 -0.8247019 0.34245408 0.5967455
1.4125613 -10.038244 1.5517154 1.0727645 -1.7044318 1.3283685 -1.7203633 -2.4737399
-0.21546467 -1.6152021 5.966632 0.2555762 -0.7560293 0.021594258 0.97999334 -0.1858339
-0.8603005 -0.01682473 -3.1991277 8.034446 -0.63141924 0.031372484 0.120118245 -0.40750113
0.61022097 1.2458239 0.2096502 -0.331819 -11.275203 0.0073370542 0.3507197 1.3279004
0.7144432 -0.44431466 -0.38308492 0.33436954 2.4014673 -2.1224823 0.88383603 2.5192926
-5.7302017 3.130901 -0.63963467 0.46365413 0.32086003 -5.137562 0.1868753 4.9203644
-0.7530256 -0.1266087 0.7644175 -1.6829817 -2.7836866 -0.6807162 2.3115683 5.6034083
4.3170624 -0.29073894 1.1575814 -1.3521583 -0.7544504 0.43492132 0.3953553 -5.0113416
0.13947605 5.011478 -0.5512707 -0.37274468 0.6715956 -0.71829075 -0.22571492 0.8957247
-5.1565657 0.024204496 5.1709075 -1.1691387 0.3655744 0.8548397 2.093491 -1.1585788
0.18822841 -3.3033206 -7.809076 -0.28436595 0.061043456 2.323132 0.2751521 1.1926178
-1.9017178 -0.27061158 -3.0155487 -8.899616 0.721766 -0.24241287 -2.276919 0.18547763

internal.Conv_432.bias f4 [16]
00000000: d1d7 5ebe c64c d240 97a9 3240 711c 3c40
00000010: 8007 7040 539e 6fc0 ab6a bc40 3f85 6740
00000020: 5627 dd3f 9d69 ae3f 3e8c 2fbb d4da ccbf
00000030: 77db ef3d dc5d 893c 0272 1f41 8f52 87bf
-0.21762015 6.5718718 2.791601 2.939236 3.7504578 -3.7440383 5.888021 3.6175077
1.7277629 1.3625981 -0.0026786472 -1.6004281 0.117117815 0.016768388 9.965334 -1.057207

internal.BatchNormalization_434.bnu.weight f4 [16]
00000000: 80fa 3e40 e375 3040 a9a1 ec3f 568c f83f
00000010: 06bb 2040 3eec b03f 1a0f 3040 5d67 4040
00000020: 7f8b 4c40 0381 bc3f 6ca6 8040 0ea3 9d3f
00000030: 2704 5a40 df07 5f40 895f f63f 4f08 e13f
2.9840393 2.7571952 1.8486835 1.9417827 2.511415 1.3822095 2.7509217 3.0063088
3.1960142 1.4726871 4.020315 1.2315385 3.4065034 3.4848554 1.9247905 1.758066

internal.BatchNormalization_434.bnu.bias f4 [16]
00000000: d516 783e 2580 0040 7b70 c73f 7fd4 8d3f
00000010: 53d0 b1bf b3fe 0abf bca8 16bf 2bcb 9abe
00000020: 4807 e63f a322 2ebf ecd1 e5be 3484 653f
00000030: 9b71 2c3f eb43 3440 9799 27bf 6224 68c0
0.2422746 2.0078213 1.5581201 1.1080474 -1.38917 -0.5429489 -0.5885122 -0.3023313
1.7970972 -0.680216 -0.4488672 0.8965485 0.6736085 2.8166454 -0.65468735 -3.6272206

internal.BatchNormalization_434.bnu.running_mean f4 [16]
00000000: 5351 7f40 54f3 7242 48b1 3441 90e8 aa40
00000010: 7c32 4d42 bd4b bc40 fed8 0b41 d042 0541
00000020: 5a2d 6e41 fb9f bc40 1e3a 7b40 a522 8b40
00000030: 5954 7140 b822 4f40 2860 5342 5f0c 6a41
3.9893386 60.737625 11.293282 5.340889 51.2993 5.8842454 8.740477 8.328812
14.886072 5.894529 3.9254222 4.347979 3.7707732 3.236494 52.843903 14.62802

internal.BatchNormalization_434.bnu.running_var f4 [16]
00000000: fff9 fa42 f54a d344 3392 fd43 fe89 0d42
00000010: 1837 d544 acd5 2043 dfb9 1043 37b5 b343
00000020: aa50 5244 38cc 1443 090b 1743 82e9 9c42
00000030: 2603 d542 fe1d c842 140e 4444 f7d6 4844
125.48827 1690.3424 507.14218 35.384758 1705.7217 160.83466 144.72606 359.41574
841.2604 148.79773 151.0431 78.45607 106.50615 100.05858 784.22 803.3588

internal.Conv_435.weight f4 [16, 16, 1, 1]
00000000: dbbc 9fbd 8377 58c0 910c 8a3d a3be 8b3e
00000010: cddc 9e40 90ca 02bf ef07 73c0 55ba bbbf
00000020: 8fbf 823e 2cb5 00c0 04bf 99be 1842 a73e
00000030: 9e60 27bf 5aea b13d f6e3 eac0 aa0d 72bc
00000040: 3c9f 8840 840e adbf 721a 1d3d 6a98 4abf
00000050: 86d6 3cbf 640e 9fbe 296a c1be 5b0e 9e3e
00000060: d40c 64be 8283 ea3d f9fa 9140 ee26 3fbe
00000070: 54ce 5940 fd61 7040 67ba ad3f 7a24 7ebf
00000080: 427d 9bbf 0052 9b3f 2a0a 2240 81cc 78be
00000090: 06d4 8c40 9a32 e4bf 6c6d c9c0 bc38 61c0
000000a0: c90a 18c0 677e 75c0 2839 8dbf bc73 d2bf
000000b0: 4395 a4bf 8fb6 90bf 6a9b 083f f3da 4abe
000000c0: 15ae bebf ecc6 f83d 5037 83bf b023 61c0
000000d0: 6128 81bd 46d4 bebf ca31 613c b38c abbe
000000e0: cbea f0bd 915c 333f 1f31 45c0 5f35 f23f
000000f0: 6a22 b6c0 50ec 0041 809e 993e 22f9 6a3f
00000100: 076c 9abf 03ef a73f 412e d33d d502 10c0
00000110: 2672 36bf c620 69bf 4b57 00bb 2ebc 533e
00000120: 4a6b 643e 16aa 393f 6576 b5bf a22b ce3c
00000130: 7885 cac0 f1ae 8340 f4b7 e5bf 8d40 dd3d
00000140: 3979 243f 353e 143e 5fcf e3be dce8 5240
00000150: 469e b63d 93cb b03f e9b8 b43e fe3f f13d
00000160: 4c36 8c3e a958 23bf 96d6 87c1 e04d c13d
00000170: a8ab 973e 0b67 333f d92b e9bc a23f 64bf
00000180: 96d6 ef3e 6bff 58c0 45a0 fe3f 1d3e 983f
00000190: a5ea 07c0 869d 9b40 0df5 4d40 a9cf 163e
000001a0: 01bd 2340 f0a6 c1bf 2f2b 2f3f 7ec3 c440
000001b0: 40fc 893f 46f2 0f40 33b5 843f 2bb6 40be
000001c0: b234 97c0 00a5 a83e 7c40 913f 759f da3f
000001d0: 8e35 59bf b847 6d3f 6860 d63f 1334 ce3f
000001e0: a180 f33f 744d 1a40 66e8 8cc0 56b4 e13f
000001f0: 51f6 b2c0 afe0 a9c0 544b 4abf 54a5 03bf
00000200: 6224 d7be 1ac3 843f 4e3f 11c0 59a3 f53e
00000210: 9ec4 f13f b662 f43f 69b9 88bf e752 be40
00000220: eb81 f340 6385 edbe 4ab7 d5be f8c7 a1be
00000230: 4d91 b7be 9615 f3be 672a 91bd cb48 a93d
00000240: 44d5 453f a725 0bbf d4e8 09c0 1be2 4840
00000250: 0886 203f 62a2 94bf 93c1 17c1 be2f 2d40
00000260: 0fd7 be3f fc0a 0840 1ee2 3b3f 42b6 d43f
00000270: f685 5d3f ef53 8cbe 2557 24c0 cecc 6dbe
00000280: ba34 bf3e 079d a940 a27b b240 22e6 50c0
00000290: 7365 1e40 98f4 4240 6023 4dc0 23b0 c3be
000002a0: e64b 0240 137a e1bf 7e84 ad3c a16d 7e3f
000002b0: 0b94 a23f b6df 243f 80db b9bf 8dd2 23c0
000002c0: f57f 3bbf 5b1d e7bf 8451 d5c0 077e ab3e
000002d0: 02ee 03bf e884 e93f 45b7 9b3c e688 26bf
000002e0: e6a0 c3bf 0883 323e 8557 2fbe e961 10bf
000002f0: 8967 6abe 9917 a1be 4f27 0240 9f7b 3641
00000300: 0ffb 16be bc78 3c3f 6723 2cbf 8435 f240
00000310: 413b 43c0 368e 823c 33d9 e9bd c173 803f
00000320: 85dd 8cbd 3414 5f3f e5c7 16c0 206b 013f
00000330: be8c 29bf 7fb7 d4bf 19ae cfbb 0348 59c0
00000340: dde9 0ac0 5c4a eb3f fc4c 513f 95fd 673f
00000350: 9525 7cc0 3e1f 82bf 390e e63f 93ad cbc0
00000360: bdf9 9fc0 efb8 9cc0 60fc d5bd f839 943e
00000370: 7674 523e 242f 353e d283 5a40 4454 57be
00000380: f817 ab40 65b9 ae3f 7076 0dbf 9e6e 0fbf
00000390: eb55 113c a8df ba3d 288c 7b3e 5170 7d3e
000003a0: 075d 473e 53c7 383f 131c 8240 b8d7 e2be
000003b0: 8b44 8d40 5f0f a240 9b3e 58bf 0377 0840
000003c0: b023 5d3f 1915 bc40 8d19 efbf d810 94bf
000003d0: f1e8 0040 b5e6 6cbe 3d79 3abf 5310 25bf
000003e0: f21b d6bf 0b73 0d3f 0446 373f 04f7 39bf
000003f0: 6138 f13e 0b41 593f 4133 3fc0 6e70 b240
-0.07799693 -3.3822944 0.06740678 0.27293882 4.964453 -0.51090336 -3.7973592 -1.4666239
0.25536773 -2.0110579 -0.30028546 0.32667613 -0.653818 0.08687277 -7.3403273 -0.014773766
4.269438 -1.3520055 0.0383553 -0.79138815 -0.73764837 -0.31065667 -0.37776306 0.30870327
-0.22270519 0.114508644 4.5618863 -0.18667194 3.4032183 3.7559807 1.357251 -0.9927441
-1.2147601 1.21344 2.5318704 -0.24296762 4.400882 -1.7827942 -6.294607 -3.5190878
-2.3756583 -3.83584 -1.1033068 -1.6441569 -1.2858051 -1.1305712 0.53362143 -0.19810085
-1.4896876 0.12147316 -1.0251255 -3.5178032 -0.0630653 -1.4908531 0.013744781 -0.33505782
-0.11763533 0.7006312 -3.081123 1.8922538 -5.691701 8.0576935 0.30003738 0.91786397
-1.2064217 1.3119816 0.103115566 -2.2501729 -0.71267927 -0.91065633 -0.001958328 0.20677254
0.22306553 0.72525156 -1.4176756 0.02516729 -6.3287926 4.115105 -1.7946763 0.10803328
0.6424747 0.14476855 -0.4449415 3.2954626 0.08916907 1.3812126 0.35297325 0.11779784
0.27385175 -0.6380716 -16.979778 0.094386816 0.2962315 0.70079106 -0.028463291 -0.89159596
0.46843404 -3.3905895 1.989266 1.1893955 -2.1236966 4.862979 3.2180817 0.14727654
2.558411 -1.512907 0.6842527 6.148864 1.0780106 2.2491622 1.0367798 -0.18819492
-4.7251825 0.32938385 1.1347804 1.7079912 -0.8484734 0.9268756 1.6748171 1.6109642
1.902363 2.4109774 -4.403369 1.7633159 -5.592568 -5.308677 -0.7902119 -0.51424146
-0.42019945 1.037204 -2.2694888 0.47976187 1.8888128 1.9092624 -1.0681583 5.94762
7.609609 -0.46390828 -0.417414 -0.31597877 -0.35853043 -0.47477406 -0.07088166 0.08265837
0.7727854 -0.5435433 -2.1548357 3.1388004 0.62704515 -1.1612055 -9.484759 2.706039
1.4909381 2.1256704 0.733919 1.6618121 0.86532533 -0.27407786 -2.5678189 -0.23222658
0.37344915 5.3004184 5.577592 -3.2640462 2.474942 3.0461788 -3.205284 -0.3822032
2.0358825 -1.7615379 0.021181341 0.9938603 1.2701429 0.64403856 -1.4520111 -2.559726
-0.7324212 -1.8055834 -6.6662006 0.3349459 -0.51535046 1.8243685 0.019008288 -0.6505264
-1.5283477 0.17432797 -0.1712323 -0.563994 -0.22891058 -0.31463316 2.0336492 11.405181
-0.14744209 0.73621726 -0.6724152 7.5690327 -3.0504916 0.015936952 -0.114183806 1.0035325
-0.06878189 0.871402 -2.3559506 0.50554085 -0.6623038 -1.6618499 -0.0063378927 -3.3950202
-2.170524 1.8382068 0.81758094 0.9062131 -3.9397938 -1.0165784 1.797309 -6.3649383
-4.9992356 -4.897575 -0.10448527 0.28950477 0.20552239 0.17693764 3.4142957 -0.21028239
5.346676 1.3650328 -0.55258846 -0.56028163 0.008870582 0.0912469 0.24565184 0.24749877
0.19469081 0.72179145 4.065927 -0.44305205 4.414617 5.0643764 -0.8447053 2.132264
0.8638258 5.8775754 -1.8679672 -1.156764 2.0142176 -0.23134883 -0.72841245 -0.64478034
-1.6727278 0.55253667 0.7159121 -0.7264254 0.47113326 0.8486487 -2.9875033 5.5762243
