mmhmm-camera-development/teleport/assets/models/Tune_SegnetSlimBCEWLDice160x96V6a_wd3e-3_alldata_2023_09_20_nhwc_fix.onnx (onnx, 554606 bytes, 164 tensors)

_base_model.merge3.0.weight f4 [16, 1, 4, 4]
000000 0e 35 6f bd c7 cc 06 bf 74 07 54 bf 58 5a e0 be
       -0.058400206 -0.52656215 -0.8282387 -0.43818927
000010 02 d5 79 3d 20 c7 79 be 14 10 6c bf 7c ca 2c bf
       0.060994156 -0.24392366 -0.92212033 -0.67496467
000020 0c a2 02 3f 5e f3 5c 3f 91 0c 44 3e eb 13 83 bd
       0.51028514 0.8630885 0.19145419 -0.064002834
000030 c6 eb ca 3e 68 b9 0c 3f e1 0e 80 3e 2a 9f 2b 3e
       0.39633006 0.5497041 0.25011352 0.16759935
000040 6a de ce bd c7 1a 8e be 8b 41 fa be ec 46 a6 3e
       -0.10101016 -0.27754804 -0.4887813 0.32475984
000050 a1 7d 58 be 2a 51 03 bf e3 7b 8a bf 6a 03 92 3f
       -0.21141674 -0.5129572 -1.0819057 1.1407292
000060 3a f1 67 be 13 af f7 be 32 90 0f bf 3a 05 3d 3f
       -0.22650614 -0.4837576 -0.560794 0.738361
000070 74 cb f7 bd ca c5 55 be 3f 39 b8 ba 9f 2b 3c 3d
       -0.120993525 -0.20876232 -0.0014055147 0.045940038
000080 f0 3d ca 3e 23 4c 50 3e 6d 67 32 bf bc 65 b6 be
       0.3950038 0.20341544 -0.69689065 -0.35624492
000090 c3 f1 04 3f 5b 0a 85 3f a7 05 8b bf 29 d3 10 bf
       0.519314 1.0393785 -1.08611 -0.56572205
0000a0 c4 75 fe 3e f6 3b 88 3f f7 c7 b7 be 2e be dc be
       0.49699223 1.0643299 -0.3589475 -0.43113846
0000b0 a0 e4 b3 3e bb 2e e8 3e c6 11 c2 3d ef c5 30 be
       0.35135365 0.45348153 0.09476046 -0.17263006
0000c0 19 94 cf be 25 e6 d5 be f9 6e 0f 3f cb 84 af 3e
       -0.40542677 -0.4177715 0.56028706 0.34281
0000d0 3f 0b 04 bf 77 78 4f bf ac 53 a6 3f 5e 3c 1c 3f
       -0.5157966 -0.8104319 1.2994285 0.61029613
0000e0 74 d6 dc be 8b fe c0 be 17 43 54 3f 96 e6 0d 3f
       -0.43132365 -0.376942 0.8291487 0.5542997
0000f0 c2 de 91 be 8d ae fb bc 1c 98 39 3e 47 32 8d 3e
       -0.28490263 -0.03072288 0.18124431 0.2757742
000100 e5 97 88 be 97 da 17 be 3e 5f 42 3e 64 ec dc 3d
       -0.26678386 -0.14829479 0.18981645 0.107872754
000110 c5 20 06 bf 25 53 45 bf bb 34 0b bf bb 9c 4e be
       -0.5239375 -0.77079993 -0.54377335 -0.20176975
000120 01 fd bb be 7c 37 0d bf e8 c6 0c bf 76 3f aa be
       -0.36716464 -0.5516279 -0.54991007 -0.33251542
000130 0d 76 46 be 3b f0 86 be d4 73 59 be eb 22 12 be
       -0.1938097 -0.26355156 -0.21235591 -0.14271133
000140 83 71 ad bb 37 b1 ca bb 23 81 14 be 91 a4 fb bd
       -0.0052930727 -0.0061856764 -0.14502387 -0.12287248
000150 9f c7 83 bc d2 8f f0 bc 7a 12 a8 be 72 19 bd be
       -0.016086398 -0.029365454 -0.32826596 -0.36933476
000160 79 aa 4b bd a3 96 08 bf 2d b3 6d bf fe 8d 0b bf
       -0.049723122 -0.53354853 -0.92851526 -0.5451354
000170 71 45 70 bd 23 b8 c2 be d1 b6 30 bf 5f 2c f0 be
       -0.058659974 -0.3803111 -0.69028956 -0.46908852
000180 95 4a 33 be 64 41 55 be 95 62 48 3b 0f 18 42 3c
       -0.1750892 -0.20825726 0.0030576338 0.011846556
000190 bd ec d6 be 07 e8 eb be c5 23 1d bd f7 c5 b6 3c
       -0.41977492 -0.4607546 -0.03836419 0.022311194
0001a0 5d cf ce be 4c 5f 0b bf dc 8e 73 be 99 d0 d8 bd
       -0.4039258 -0.54442286 -0.23784965 -0.10586662
0001b0 04 3f 32 be 0e 21 8e be 6d fb 05 be d6 18 5f bd
       -0.17406851 -0.27759594 -0.13084193 -0.054467045
0001c0 af 3f 38 be c2 09 02 bf 6c dc e5 be f4 62 05 be
       -0.17993043 -0.5079614 -0.4489473 -0.13026029
0001d0 41 7a 07 bf 94 d7 6e bf c9 59 47 bf c8 47 cc be
       -0.5292092 -0.93297696 -0.77871376 -0.39898515
0001e0 72 2b 02 bf bd f0 76 bf 27 cd 5f bf 15 60 d4 be
       -0.5084754 -0.9646109 -0.8742241 -0.41479555
0001f0 a2 fb 32 be 90 b0 03 bf fe 7e ed be db 72 c4 bd
       -0.17478803 -0.5144129 -0.4638595 -0.095922194
000200 c8 e9 ac bd d3 88 51 bf 3f fa 9b be fb f1 40 be
       -0.08443028 -0.818494 -0.3046436 -0.18842308
000210 1b 21 33 3f 2d 5b 9c bf 75 11 ad be fa 1b 88 be
       0.6997239 -1.2215325 -0.3380238 -0.26583844
000220 60 13 48 3f 6e 08 ad be 0c 95 4f be af b9 2c be
       0.78154564 -0.33795494 -0.202717 -0.16867708
000230 0c 42 29 3e d4 b3 3b 3e b6 f5 b1 bc 01 1e 35 bd
       0.16529101 0.18330318 -0.02172361 -0.044218067
000240 03 7c 71 bf ae cc af bf f7 fb 9f bf ba 8f 51 bf
       -0.9432985 -1.3734338 -1.2498769 -0.81859934
000250 fd fe 04 bf c0 87 4c bf fe 82 38 bf b5 d6 f2 be
       -0.5195158 -0.7989464 -0.7207488 -0.47429433
000260 94 09 14 bf 30 2e 41 bf 03 03 10 bf 36 c8 d5 be
       -0.57827115 -0.754611 -0.56254596 -0.4175431
000270 92 53 5b bf 26 f7 a8 bf 9a 89 76 bf e6 45 1a bf
       -0.85674393 -1.3200424 -0.96303713 -0.60262907
000280 58 33 a4 3e 96 ad 8e 3f e0 56 3d 3f ce 86 80 3c
       0.32070422 1.1146724 0.73960686 0.01568928
000290 5f 94 27 3f e3 6f 8c 3f af 5c 87 3e fc 29 fc bd
       0.6546077 1.0971645 0.264379 -0.123126954
0002a0 03 6d 17 3e ef ab fe be a3 a1 7f bf d8 f9 b0 be
       0.14787678 -0.4974055 -0.99856013 -0.34565616
0002b0 65 5e b0 be be d0 36 bf 8b d6 2b bf 2b e2 8e be
       -0.34447017 -0.71412265 -0.6712424 -0.27906927
0002c0 36 ad ee be af fe 96 bf 56 cd 36 bf a6 03 b7 bd
       -0.46616524 -1.1796473 -0.7140707 -0.08936243
0002d0 d2 f0 17 bf e9 35 d8 be b3 b3 84 3e 3c 3b 91 3e
       -0.5935184 -0.4222863 0.2591835 0.28365505
0002e0 03 a9 fb 3c 61 ac 4c 3f a5 c0 88 3f a3 a3 be 3e
       0.03072024 0.7995053 1.068379 0.3723422
0002f0 ed 45 b1 3e ef ad 15 3f 8e 9c a2 3e f5 3d b0 3d
       0.34623662 0.58468527 0.31760067 0.08605567
000300 36 e5 eb bd ca 60 a4 be 53 75 95 be d6 db 8e bd
       -0.11518328 -0.32105094 -0.29191074 -0.06975524
000310 9d 07 37 be 2a e2 b6 be 43 f0 a3 be 1d 7d 42 be
       -0.17873998 -0.35719424 -0.32019243 -0.1899304
000320 f5 e5 9e be ef 3b cc be 2a 1d bf be 92 12 8f be
       -0.31034818 -0.39889476 -0.37326938 -0.27943856
000330 4b fc 86 be b1 41 b4 be 52 83 9a be 94 3a 0a be
       -0.2636436 -0.3520637 -0.30178314 -0.13498908
000340 0e 6b 26 3f 79 90 11 3f b9 eb f8 bd 37 2d 11 be
       0.650071 0.5686107 -0.121543355 -0.14177404
000350 28 fc 0c 3f d1 0c 85 be b3 9d 37 bf 72 d5 d4 be
       0.5507226 -0.2598634 -0.71725005 -0.41569096
000360 57 44 68 3d bb 62 59 bf 91 ba 1c bf 85 48 8f be
       0.0567058 -0.84916276 -0.6122218 -0.27985016
000370 fb 55 87 bd 64 6d f1 be f8 e9 af be 56 84 02 be
       -0.06608196 -0.4715377 -0.34358191 -0.12745795
000380 9a ec f7 be 84 2d af be 31 fb 15 be 01 c9 bd bd
       -0.484227 -0.34214413 -0.14646603 -0.09266854
000390 1d 3c c8 be 9d 94 48 bf a1 4b 83 bf 9b 03 36 bf
       -0.39108363 -0.78351766 -1.0257455 -0.7109925
0003a0 83 6d 6d 3e 96 eb 93 3e b9 81 99 be 9f c7 c0 be
       0.23186307 0.28890675 -0.29981783 -0.376523
0003b0 1d a6 cb 3e 5e 36 71 3f b4 c6 70 3f 3c dd 8d 3e
       0.39775172 0.9422358 0.94053197 0.2770785
0003c0 80 4a 2d 3e 2f bb f5 3e 12 8d da 3e ac be e2 3d
       0.1692295 0.47994372 0.42685753 0.11071524
0003d0 74 59 fd 3e d4 b5 7b 3f c5 76 6e 3f 06 70 e4 3e
       0.4948231 0.9832432 0.9314998 0.44616717
0003e0 bd ff 05 3f ac c8 88 3f c2 6e 86 3f 85 1c 02 3f
       0.5234335 1.068624 1.0502551 0.5082477
0003f0 67 c8 4c 3e 7a b0 12 3f 3c c8 0b 3f 39 74 29 3e
       0.19998322 0.5730053 0.5460241 0.16548242

onnx::Conv_657 f4 [16, 3, 3, 3]
000000 4e bc b4 bc 58 39 b8 3f ef 04 e8 3e 48 0b ac 3d
       -0.022062447 1.43925 0.45316264 0.08400589
000010 8c 25 1a 3f 4f 28 f3 bf 49 1c 71 3d 87 4f af 3f
       0.6021354 -1.8996676 0.058864865 1.3696145
000020 1b 3d 30 bf 12 77 76 bd 8f 9b 3d 40 24 32 11 3e
       -0.6884324 -0.060172148 2.9626195 0.14179283
000030 e3 cd 6c bf f4 dc 36 3d 6c aa 7f c0 50 51 3b 3e
       -0.9250166 0.04464431 -3.9947767 0.18292737
000040 b4 be 01 40 d6 81 fb be a0 db 65 3c 75 c8 66 40
       2.0272646 -0.49122494 0.014029413 3.605985
000050 76 0b fd bd ff c6 06 bf 02 da ae 3f f4 72 a0 c0
       -0.123557016 -0.52647394 1.3660281 -5.0140324
000060 c0 c9 30 bf fc 49 3e 40 e5 eb 22 bf e4 40 ef be
       -0.69057846 2.9732656 -0.63641196 -0.46729195
000070 68 0e c5 be d2 28 31 3d 84 60 32 3f dd 40 16 3f
       -0.38487554 0.04325182 0.6967852 0.58692724
000080 61 3f dd 3e dd 4a 8f 3e 81 d5 2a 3f 31 05 47 3d
       0.43212417 0.27986804 0.6673203 0.048588935
000090 20 c7 5b be 61 2d 56 bf bf 4f 13 be 44 e1 90 3e
       -0.21462679 -0.8366299 -0.1438589 0.28296864
0000a0 33 c0 3e be a4 b2 90 3e 90 38 88 3e f8 18 bb 3e
       -0.18628006 0.28261292 0.26605654 0.36542487
0000b0 0b 2e 8e bd cb 2b 49 be 88 d1 54 bf 5c 12 5d be
       -0.06942376 -0.19645612 -0.8313222 -0.21589035
0000c0 8b 66 2f 3f f0 89 bf 3e 26 06 90 3f b7 6a a9 3e
       0.68515843 0.37409925 1.1251876 0.3308923
0000d0 55 9a 4d 3f 09 8a d3 3e b6 23 9b bd 9a a2 68 3e
       0.80313617 0.4131625 -0.07575171 0.22718278
0000e0 54 df 03 3f ca ea c9 bb 19 a9 a1 3e f1 df 28 3f
       0.51512647 -0.0061620222 0.31574324 0.6596671
0000f0 73 15 30 3d b4 3c 0e bf 44 fc de be bd e9 99 bc
       0.042989206 -0.55561376 -0.43551838 -0.018788213
000100 a6 ec f6 3e 71 94 59 3f 9b 2a c9 bd 48 95 56 bd
       0.48227423 0.8499213 -0.098225795 -0.05238846
000110 19 6a 56 3f d5 47 38 3e c3 e8 91 bf 94 7a 39 bf
       0.8375564 0.17996152 -1.1399158 -0.72452664
000120 0f f2 b4 bd 8e 70 6a 3f 62 38 95 3f 05 bf 6b 3e
       -0.088352315 0.91577995 1.1657832 0.23022087
000130 af 3f 84 3e 2b 18 9f 3f 35 b3 a0 3e ca 9f c5 bf
       0.25829837 1.242925 0.31386724 -1.5439389
000140 13 ec 84 bf 7e 40 67 3e 9e 6e 4e 3e a8 84 98 bb
       -1.0384544 0.22583196 0.20159385 -0.0046544857
000150 af b7 65 bf a0 c9 b6 bf 51 02 fb bc 3b fd 93 bf
       -0.89733404 -1.4280281 -0.030640753 -1.1561655
000160 ee 1b aa bf 65 52 19 3e 96 a2 08 3e f8 6a 06 3e
       -1.3289773 0.14972837 0.13343272 0.13126743
000170 48 69 56 3e 93 cb 0d 3e 1c 61 32 be c8 39 9b 3e
       0.20938599 0.13847189 -0.17419857 0.3031752
000180 0c bd 9d 3c 79 02 de be 04 cd 82 3e 9f c9 66 be
       0.019255184 -0.4336126 0.2554704 -0.2253785
000190 27 c7 51 bd 5e db 06 be 4e 20 90 3e 8a e9 9b 3e
       -0.051215317 -0.1316962 0.28149647 0.30451614
0001a0 ec 2b 5f bd 76 5f 0b bc a6 3f a6 be c2 b0 a5 be
       -0.054485247 -0.008506646 -0.32470435 -0.32361418
0001b0 c1 b5 cc 3e 91 a3 37 3e 19 e1 82 3b 53 35 9b 3f
       0.39982417 0.1793349 0.003994119 1.2125648
0001c0 13 92 07 c0 ea 4a 4d be f5 b5 66 3f f9 f6 99 be
       -2.1182907 -0.20048109 0.90121394 -0.30071238
0001d0 b9 9a 4f 3e 81 8c 29 3f 81 02 8a 3e 2f f8 ce 3e
       0.20273866 0.66230017 0.26955035 0.40423724
0001e0 9e 32 98 3f 3f 77 6f c0 d3 8a 09 bf 77 45 2e 3f
       1.1890447 -3.7416532 -0.53727454 0.68074745
0001f0 6b 7d 1c 3d d1 26 12 3f c5 8d 72 3f 55 66 97 3e
       0.038205545 0.5709048 0.94747573 0.2957026
000200 d3 38 28 3f ac 58 f3 3f 61 20 9c c0 e8 ae a5 3d
       0.65711707 1.9011436 -4.8789525 0.08090001
000210 37 5f 5d 3f 29 09 07 bf 70 ea 5f 3f 37 ff 8c be
       0.8647341 -0.5274835 0.874671 -0.27538463
000220 03 ca 1e bf 44 0d b5 be c6 90 12 bf 6d 82 e1 bf
       -0.62026995 -0.35361683 -0.57252157 -1.7617928
000230 9e 79 93 bf 92 3a 1d 3d 6a a9 66 bf 0b 1d 3e bf
       -1.152149 0.038385935 -0.90102255 -0.74263066
000240 4e 60 98 3e 1d 58 36 3f 62 6b 1f 3f a4 1a 3a 3f
       0.29760975 0.712282 0.6227323 0.726969
000250 8c 7d de 3f da fd b5 3f 4a 88 ba 3e cd 2e 9e 3f
       1.7382064 1.4218094 0.36432105 1.2358032
000260 88 00 7a 3f 51 7e ca bd 7c 8c 98 bd 4c 4c 1b be
       0.9765706 -0.09887374 -0.0744867 -0.15165824
000270 c8 84 6c bc a1 17 30 bd 07 1b 00 be 67 67 8f be
       -0.014435954 -0.042991284 -0.1251031 -0.28008577
000280 f1 e5 55 be 56 3b ba be 0c af 2f 3d 22 a4 ff bd
       -0.20888497 -0.36373395 0.042891547 -0.12482478
000290 ec 30 9c 3d 80 35 76 3a 86 a8 99 3d 6e ea 62 bd
       0.076265186 0.00093921274 0.075028464 -0.05539935
0002a0 6c 5a eb bf 0f 4e 8d bf 86 6e c0 3e ad f7 74 bd
       -1.838697 -1.1039447 0.37584323 -0.059806515
0002b0 4c bf 8c 3c 74 69 a9 3d 5f fe 82 3e ba 50 f5 3d
       0.017181061 0.08272067 0.25584695 0.11978288
0002c0 27 d3 9c 3c 33 4f a5 3f c0 92 5f 3f 14 a0 0b be
       0.019143654 1.2914795 0.873333 -0.13635284
0002d0 24 8d 8a bb da 7a 1b 3e 57 2a 23 be 25 e6 95 be
       -0.004228251 0.15183583 -0.1593412 -0.2927715
0002e0 b7 5f 38 be e3 59 2a 3b 11 6f f2 3e b4 15 03 3e
       -0.18005262 0.0025993518 0.47350362 0.12801248
0002f0 22 b4 63 be 55 66 5c 3e ed f7 0a 3e f4 bb 39 3e
       -0.22236684 0.21523412 0.13571139 0.18138105
000300 d6 15 8c 3e 3d 9d c7 3e 94 94 dd 3e a1 87 00 3e
       0.2736041 0.3898715 0.4327742 0.12551738
000310 94 6b 01 3e 93 63 8c 3d 26 32 6e 3e f6 20 c2 bd
       0.12638694 0.0685493 0.23261318 -0.09478943
000320 f3 e0 b2 bc c1 5f d7 bd ca 80 e2 be b2 23 5c be
       -0.02183578 -0.105163105 -0.44238883 -0.21497992
000330 88 90 3f 3d d2 75 c7 bd f6 0b b4 bc 21 4b 18 3c
       0.046768695 -0.09739269 -0.02197836 0.009295256
000340 de 83 7c be 54 94 91 be 8a 0e 3e bf eb 5b 86 bf
       -0.24659678 -0.28433478 -0.74240935 -1.0496801
000350 5c 8f 59 bf 16 2a a1 be 53 fc c0 be 2a 2c cd be
       -0.84984374 -0.31477422 -0.37692508 -0.40072757
000360 77 8d 34 40 cc 5d 30 40 c9 4c 12 3f 5c 8b 2b 40
       2.8211343 2.755725 0.57148415 2.6803808
000370 72 e1 16 3f 85 2c 65 c0 85 69 85 3f 40 52 09 c0
       0.5893775 -3.5808423 1.0422827 -2.1456451
000380 da b1 96 c0 83 1d 96 be 1c 5b 11 3e 8f 0d 10 bc
       -4.7092104 -0.2931939 0.14194912 -0.008792295
000390 2b fd be 3e 70 89 f9 3d 2e 3a 9a be 08 c6 7d 3c
       0.37302527 0.12184417 -0.30122513 0.015489109
0003a0 48 38 b6 be 73 b6 a8 3d 7c 4f ff bf 1a 14 40 c0
       -0.35589814 0.082379244 -1.9946132 -3.001227
0003b0 fe c0 34 be d0 63 42 c0 8f ba 38 bf a7 f1 69 40
       -0.17651746 -3.037342 -0.72159666 3.6553743
0003c0 d1 ef a3 bf 09 51 11 40 f7 84 83 40 64 52 16 bf
       -1.2807561 2.270571 4.109981 -0.5871947
0003d0 fa 4c d0 be 27 a7 86 3d a7 e7 4e bf 25 2f 3d bf
       -0.40683728 0.065748505 -0.80822223 -0.7390006
0003e0 f2 64 90 3f c2 e6 72 be 9e 0f 0b 3f 9f da 8e 3f
       1.1280806 -0.2372084 0.54320705 1.1160468
0003f0 e8 89 67 bf 49 12 5e bf bd 5e da be bd cb 30 bf
       -0.90444803 -0.8674665 -0.42650405 -0.6906088

onnx::Conv_658 f4 [16]
000000 3a 63 2b 40 47 11 20 40 2f 09 0e 40 c3 ae e3 bf
       2.6779313 2.5010545 2.2193105 -1.7787708
000010 95 03 f3 3e fc 4a 0d 40 d8 a5 f8 3e 14 f5 59 bf
       0.4746367 2.2077017 0.4856403 -0.85139585
000020 90 ae 07 bd 4b 32 7b 3e 21 93 d6 3f b1 82 3f 3f
       -0.03312546 0.24530904 1.676365 0.74808794
000030 d2 54 60 40 6d fa ae bf 3c 93 74 3f ae 8d 02 bf
       3.505177 -1.3670174 0.9553716 -0.50997436

onnx::Conv_660 f4 [16, 1, 3, 3]
000000 80 4c 2d 3c 0f 98 9c bb e7 3a 91 3c 4a 3c 9c 3f
       0.010577321 -0.004778869 0.017728282 1.2205899
000010 ed 4f 9e bf fd 90 ae bd 04 54 04 be 65 67 f6 3d
       -1.2368141 -0.08523748 -0.12922674 0.1203144
000020 b8 5a 9c 3c 45 aa 1a 3e b0 d9 1c be 2a 67 fd bd
       0.019086227 0.15104015 -0.15317416 -0.123731926
000030 38 6e 90 3e 1e 42 93 be d4 de ca be 7d 78 01 be
       0.2820909 -0.2876138 -0.3962313 -0.12643619
000040 62 9d 84 3d 9b 2c 47 bd c2 31 0f bf 18 e2 8f 3d
       0.06475331 -0.048626523 -0.559353 0.07025546
000050 1b 4c 49 bd f7 d1 83 be cb a7 9e be 17 81 12 bd
       -0.049144845 -0.25746128 -0.3098739 -0.03576764
000060 d2 ae cd 3d b9 b4 e5 3d 6e 9a bc 3d 33 7f 31 c0
       0.1004311 0.11216111 0.092091426 -2.7733886
000070 5f 57 9e 3f 22 b4 8b 3f f2 9e 33 c0 b2 4b c3 3f
       1.2370414 1.0914347 -2.8065763 1.5257475
000080 9e b3 d6 3f 19 89 a6 be 33 d3 e4 bd d6 cd 8d 3e
       1.6773565 -0.32526472 -0.111730956 0.27696103
000090 9f 83 88 39 bf fa 9d 3e 68 af 44 3d 3a 0a fa 3e
       0.00026038007 0.30855367 0.048018843 0.48835927
0000a0 ee 05 87 3f 08 48 0b c0 4f 6d 82 bd 32 95 2f 3e
       1.0548685 -2.1762714 -0.06368505 0.17146757
0000b0 fd 6c 3b be 2f 58 4a be 0e 81 2d bf f1 ce 30 bf
       -0.18303294 -0.19760202 -0.67775047 -0.6906577
0000c0 04 ed 86 bf 3c 96 30 40 eb 7e 8f 3f 87 9b 02 bf
       -1.0541081 2.7591696 1.1210607 -0.51018566
0000d0 19 3c 04 3f 66 f5 0d 3d 7f 76 11 3d c7 fe 1f 41
       0.516542 0.03465786 0.035513397 9.9997015
0000e0 61 4e dc be 4a ea 19 bf a3 ee b5 c0 53 f3 78 bf
       -0.43028548 -0.6012312 -5.6853805 -0.97246283
0000f0 d3 d9 01 3e 8a 12 0b 3e 32 39 2d bf e5 2e 0f 3e
       0.1268075 0.13581291 -0.676654 0.13982733
000100 44 73 14 3e cb 0a 1d 3f 4c 17 1e 3f d6 96 ba bf
       0.14497095 0.61344594 0.617543 -1.4577281
000110 9a 2d 7a bf 06 bb 10 3e b5 c3 0c bf 95 e2 aa bd
       -0.9772583 0.14133844 -0.54986125 -0.08343998
000120 a3 43 0b 3f b8 b0 08 bf 7d 9f f7 be a2 1e 41 bf
       0.5440008 -0.5339465 -0.48363867 -0.75437367
000130 cd 65 4c 40 e5 cf c3 bf 2c 2f 8f be 13 56 eb be
       3.1937134 -1.5297819 -0.27965677 -0.45964107
000140 df fd 63 3d 38 76 86 3d cd 1c 0c 3e 49 25 ce 3b
       0.055662032 0.06565517 0.13682862 0.006291066
000150 f0 f3 11 c0 f9 9f 82 be 8e 34 f1 3d 28 ac 0f bf
       -2.2805138 -0.25512674 0.11777602 -0.56122065
000160 96 bc 89 3e 6e 09 8f 3d e9 db bf 3c 19 4d 8e 3d
       0.26901692 0.069842204 0.023420291 0.06948299
000170 b0 58 0a be ba 4b f6 3d ae 63 35 c0 dc d6 d9 3e
       -0.13510394 0.120261624 -2.834209 0.42546737
000180 91 47 10 3c e6 5b 70 bb 01 41 3c bd f5 e0 b8 3d
       0.008806125 -0.003667587 -0.04596043 0.09027282
000190 9b dc 81 3d a9 c6 1a bd 09 be 85 3d 03 92 63 c0
       0.06340905 -0.037787113 0.06530387 -3.5557868
0001a0 ad d6 95 3d 8e 43 93 3c 78 9a 3c 3e 6f 18 0d be
       0.07316337 0.017976549 0.184183 -0.13778852
0001b0 3a f7 0a be c8 7c d7 be 07 76 02 bd 87 90 53 c0
       -0.13570872 -0.42087388 -0.03185084 -3.3056962
0001c0 e2 62 72 40 b4 0e a7 bc a0 8e 58 be a3 19 3f 3f
       3.7872853 -0.020392753 -0.21148157 0.74648494
0001d0 e5 34 30 be c4 0d d8 be 93 12 a8 bd bd 39 b7 be
       -0.17207678 -0.42198002 -0.08206668 -0.35786238
0001e0 d7 6d 98 bf b3 fe 1e 40 78 95 a7 3f 74 09 5c bf
       -1.190852 2.4842956 1.3092489 -0.85951924
0001f0 39 6c 29 3f 43 3e 16 be 9e d3 13 bb 14 90 51 3e
       0.6618076 -0.14672188 -0.0022556554 0.20465118
000200 41 11 8e 3a b1 bc b3 3d 04 2e e2 bf 39 eb 2f 38
       0.0010838882 0.087762244 -1.7670293 4.194232e-05
000210 8a e6 67 bb 5a 4d 3e 3d b8 d4 d5 3b 17 4c 12 be
       -0.0035385215 0.046460487 0.006525602 -0.14286838
000220 6c 97 66 be c9 97 ff bc b8 34 a3 be 0a 0d ea 3f
       -0.225187 -0.031200306 -0.3187616 1.8285229
000230 af 02 4b 3e d7 7b 9e bd ac ab 94 3e 09 0b 2e be
       0.19825242 -0.07738464 0.29037225 -0.16996397

onnx::Conv_661 f4 [16]
000000 39 70 14 3f 84 df 6c 40 46 0f 15 40 cc 03 83 3f
       0.5798374 3.7011423 2.3290572 1.0235534
000010 ca 7f 9f 3e 6c 89 20 c0 00 5b 69 3c 13 4b 79 40
       0.31152183 -2.5083876 0.0142428875 3.8952072
000020 a8 aa df bc 54 33 a8 3f b9 29 a1 40 1f 6e 46 40
       -0.027303055 1.3140664 5.036343 3.1004713
000030 af 12 61 bf 00 54 2e 3c ba e0 19 40 06 ac aa 3f
       -0.87919134 0.010640144 2.4043412 1.3333747

onnx::Conv_663 f4 [16, 16, 1, 1]
000000 9b 02 b2 3c df 30 f9 3d 5f d5 1b 3e 64 2e 99 3e
       0.021729758 0.121675245 0.15218113 0.29918206
000010 76 f5 8a bd 3a 7d ca bc 7e 28 99 bd 6b 15 0e bd
       -0.06785099 -0.024717916 -0.074784264 -0.034688395
000020 d1 47 c5 bd f1 7d 49 3e 81 69 2a be 15 48 f7 bf
       -0.096328385 0.19676949 -0.16641809 -1.9318873
000030 bb 70 8c be 91 9a 4f 3d e7 ff 22 be 92 7c c4 3d
       -0.27429757 0.050684515 -0.15917931 0.095940724
000040 d7 4e 13 be ad ac fb be fa 33 7f bd bc 74 18 bd
       -0.14385544 -0.4915518 -0.062305428 -0.0372207
000050 72 12 a8 bc 1c 11 ef bb bc 69 f9 bc 05 5b 6c 3c
       -0.020516608 -0.007295741 -0.030445926 0.014425998
000060 5a 9a 9f bd 65 79 0f be 87 78 0b 3e 51 58 03 3d
       -0.07793112 -0.14011152 0.13620196 0.032066647
000070 74 51 09 be c6 61 fe bd 03 5a 9e be 66 e7 54 3e
       -0.13409978 -0.124209926 -0.30928048 0.20791396
000080 b7 00 a2 3d c6 f5 10 be 0a 9c 07 bf 15 5e 9c 3c
       0.079102926 -0.14156255 -0.5297247 0.01908783
000090 c4 d5 8d be 09 ba 3f bb 4e b6 da bd a0 de 49 3d
       -0.27702153 -0.0029255173 -0.10679303 0.049284577
0000a0 ea 33 b6 3e 39 c6 fb 3e b7 ea 13 3e 61 18 0b 3d
       0.35586482 0.4917467 0.14445005 0.033958796
0000b0 c2 c9 60 3e fd ce 33 bd 34 94 07 be d0 94 16 3d
       0.21951964 -0.04389857 -0.13240129 0.036763012
0000c0 2b 72 9d bf 70 4a e4 3d 75 8d c3 be 88 2e d3 3c
       -1.2300466 0.1114701 -0.3819386 0.025779024
0000d0 33 e5 40 3f 50 9b 40 3d 3e 45 4e bd 83 0f a8 be
       0.7534973 0.047023118 -0.050359003 -0.32824335
0000e0 9c 29 dc 3e 77 27 e7 be 8f 68 82 bf ab ea d1 be
       0.43000495 -0.45147297 -1.0188159 -0.4099935
0000f0 c7 8c ed 3d 1b 4a 7e 3e 60 56 9f 3d 20 e0 42 bd
       0.11599117 0.24832956 0.077801466 -0.047577024
000100 fd 70 81 3f 6b 59 e6 3b da 79 97 be ea e5 9d bf
       1.0112606 0.0070297024 -0.29585153 -1.2335789
000110 fc 9b c2 3b 82 63 10 3e f9 40 33 bf a6 fd 0d bf
       0.005939005 0.14100459 -0.70021015 -0.5546516
000120 e2 c1 ae bd 51 7b eb bf f3 52 99 bf cd f6 26 bf
       -0.08533074 -1.8397008 -1.1978439 -0.6522034
000130 8c 38 6e 3f d6 d5 2e 3f 84 2a 8b 3f ec 11 48 3e
       0.93055034 0.6829504 1.087235 0.19538087
000140 b7 be d1 bf 04 2a 1a 3c c1 81 bf 3d 5e 00 d0 be
       -1.6386327 0.009409431 0.093509205 -0.4062528
000150 3a 8b aa bc eb 26 56 bc 26 82 b8 bd 68 b6 82 3e
       -0.020818342 -0.013070802 -0.09009199 0.2552979
000160 e1 34 8f bd 1d 7c d6 3e 06 9f 89 be ce 40 92 bd
       -0.06992508 0.41891566 -0.26879138 -0.07141267
000170 70 cb dd 3a b8 ff 66 3d 2b f8 2e 3d 41 78 6c 3e
       0.0016921591 0.056396216 0.04271714 0.23092748
000180 43 c5 25 3d 92 32 13 3e 91 e0 a6 bd 5f a9 db 3e
       0.040471327 0.1437476 -0.081483014 0.42902657
000190 f2 3a 9b bc 4e 69 1d 3f 1b 23 b8 bd 2a 68 bc be
       -0.018949006 0.6148881 -0.08991071 -0.3679822
0001a0 59 5c 26 3c 51 55 8f 3d f1 e2 e7 bc 9e b3 0a bd
       0.010153853 0.06998695 -0.028306456 -0.033862703
0001b0 59 c1 62 3e 36 57 23 3f 2f ee 08 bc 9b 45 27 3e
       0.22144069 0.6380495 -0.008357569 0.16335146
0001c0 65 ad 55 bd ca 05 08 be 7a 3a 53 bc 1b cf 01 bf
       -0.052167315 -0.13283458 -0.01289236 -0.5070664
0001d0 8d a5 cd bd ed 6c 99 bf ec 3f 0d 40 50 af d2 be
       -0.10041342 -1.1986367 2.2070265 -0.41149378
0001e0 39 a1 4a be 0b 89 ba 3d bf 61 e6 bd be 07 37 3e
       -0.19788064 0.0910817 -0.11249112 0.17874047
0001f0 87 02 23 3e 3b e3 eb be ce a0 b9 3c 70 86 17 bf
       0.15918933 -0.460718 0.022659685 -0.5918951
000200 d1 b3 32 be ee 4e a8 be 4e fa 05 3f 7c f1 39 3d
       -0.17451407 -0.3287272 0.5233506 0.045396313
000210 0f 03 90 be 95 57 bc 3d 37 c0 83 3d 4f 12 0b 3f
       -0.28127334 0.091963924 0.064331464 0.5432481
000220 5b 3c 37 bd a7 7a 0c be 00 6a 92 be de 6d 69 bf
       -0.044735294 -0.13718663 -0.28596497 -0.9118327
000230 b6 44 0a 3f f1 61 5b 3e b3 7f e8 bf d5 c9 80 3e
       0.54011095 0.2142408 -1.8163971 0.25153986
000240 f6 4f 18 bc 74 a9 a0 3c 5f 7d 33 bc f3 e6 b6 3a
       -0.009296408 0.019612052 -0.010955184 0.0013954326
000250 af c6 20 bd d7 50 38 3f b8 4d 88 3e ea 49 a9 3e
       -0.03925198 0.7199835 0.26621795 0.33064204
000260 a3 74 a4 3e 97 1b 40 bc 3f ed 38 3c d0 4f 25 3c
       0.32120237 -0.011725328 0.011287033 0.01008983
000270 29 77 a4 be 19 3e 6b 3d 42 56 00 bc 4c 1f 62 be
       -0.32122162 0.057432268 -0.007833065 -0.22082251
000280 ad 3d 3d bd 68 2e ee 3c 30 d4 25 3e 4c 23 48 3d
       -0.046201397 0.029074863 0.16194224 0.048861787
000290 86 81 34 bd 73 bc 1c 3e 4e 46 71 3f ae 6b e2 3d
       -0.044068836 0.15306263 0.942479 0.110556945
0002a0 bc 89 9e bc 6e 2b 85 3d 91 9e 46 bc 70 1c 7c bc
       -0.019352786 0.06502424 -0.012122766 -0.015387639
0002b0 c5 28 22 bf a8 86 22 be 2b c1 b0 bc cd 9f af 3c
       -0.6334346 -0.1587168 -0.021576485 0.021438504
0002c0 5c f8 31 be 42 88 69 3f 8a 95 52 bf db 0f ed 3e
       -0.17379898 0.9122354 -0.8225943 0.4630116
0002d0 56 97 8d bd 89 64 7f be a6 f6 e0 3b f3 36 c5 be
       -0.06913631 -0.24940695 0.0068653403 -0.38518485
0002e0 13 8f ab bf 81 05 54 3f 31 4c 42 be 52 06 0d 3f
       -1.3403038 0.828209 -0.18974377 0.5508777
0002f0 34 b4 6d bf 51 da 5d bc a3 20 49 bf 2c 6d b8 be
       -0.92853093 -0.01354082 -0.78565425 -0.36020792
000300 de a6 53 be b4 81 01 bf a7 4f a3 be 9f 7a 84 3d
       -0.20669124 -0.50588536 -0.31896707 0.064687006
000310 09 12 fe bd e1 ad ef 3d a8 79 3c be d7 4f 47 3e
       -0.12405784 0.11703087 -0.18405783 0.1946405
000320 9b 8f a2 be b6 a7 0f be cd 56 53 be f4 ac 3b bd
       -0.31750187 -0.1402882 -0.2063858 -0.045819238
000330 1e 0b ba be 59 96 1a be ab 3d 08 bd bf f0 39 3e
       -0.36336607 -0.15096416 -0.033261936 0.18158244
000340 a1 90 a7 bc d8 6a 69 3d 70 83 23 be 18 85 08 bd
       -0.020454707 0.05698666 -0.15968108 -0.033330053
000350 7c 1b d6 bf 0d 02 09 3d 80 44 16 bd 61 3a 0b be
       -1.6727138 0.03344922 -0.03668642 -0.13596489
000360 08 c8 2f be 46 cf 8f bd 4b ed 05 3d e2 c6 3d be
       -0.1716615 -0.07021956 0.032697003 -0.18532899
000370 d8 0b 18 be a1 c4 20 3e c7 d4 66 be 2e 00 a8 3e
       -0.14848268 0.15700008 -0.22542106 0.32812637
000380 5f c2 49 be fe d0 8f 3d c7 c4 c1 bd 2f 53 19 3e
       -0.19703053 0.07022284 -0.094613604 0.14973138
000390 75 14 42 be d8 f4 5e bc c3 8f 42 bd 4a e7 88 be
       -0.18953116 -0.01360818 -0.047500383 -0.2673896
0003a0 e6 24 13 3d 1a 26 89 3e 72 7d be bf f9 50 a0 bd
       0.03592386 0.26786882 -1.4882033 -0.07827944
0003b0 7b a7 9a bd 7a c7 b5 3d 7a 5e 37 be 05 64 92 3e
       -0.075514756 0.08875938 -0.17907134 0.28591934
0003c0 a8 21 89 3e 96 66 af 3e 33 a0 9c be c8 1a 95 3e
       0.2678349 0.34257954 -0.30590972 0.29121995
0003d0 08 ba d9 3d a9 5f 0d 3d b1 32 74 bd 64 71 4c bd
       0.10631186 0.034515057 -0.059618656 -0.049912825
0003e0 e6 54 02 be 9b 50 f5 3e 03 bc 3d bf 2f 6a 78 be
       -0.12727699 0.4791306 -0.7411501 -0.24259256
0003f0 5f d6 11 be 6e 0c 1b 3e 2f 11 05 3f 2e 40 a4 3d
       -0.14241932 0.1514146 0.51979345 0.08020054

onnx::Conv_664 f4 [16]
000000 0e ef e1 3f ae 68 2b 40 0d e3 9c 3f 74 3e 49 40
       1.7651079 2.6782641 1.225679 3.1444368
000010 b3 c7 b0 40 6f 58 1a 3f 72 29 12 3f a8 c9 a5 3f
       5.5243773 0.6029119 0.5709449 1.2952166
000020 ac 1f c4 3f fe 16 3f bf 52 6a 6b bf cd 4c 86 3f
       1.5322165 -0.7464446 -0.91959107 1.0492188
000030 aa 8b 1d 40 d0 70 6d 3f 7f 27 39 40 08 23 cd bd
       2.4616494 0.92750263 2.8930357 -0.10016447

onnx::Conv_666 f4 [16, 1, 3, 3]
000000 a6 9b de 3d c1 fc 0c 3e 53 78 0e be 83 80 71 3d
       0.10869531 0.13768293 -0.13913088 0.05896045
000010 1f b8 5d 3f 07 15 a4 3d 9d 6f ab bd 3d 4e 76 3c
       0.8660907 0.08011823 -0.08370898 0.015033302
000020 87 f1 93 3d 4b 62 a5 bd 54 92 7a 3e 5f 46 14 3d
       0.07223802 -0.080753885 0.24469882 0.036199924
000030 89 44 1f 3b 31 17 51 3f 1a 31 ab 3f 6c 3a 17 bc
       0.0024302325 0.8167601 1.337436 -0.009230237
000040 62 cc 1d be db 24 10 bc b0 7e ad bd b5 ea d7 be
       -0.15409997 -0.0087978495 -0.08471429 -0.42171255
000050 8a cf 82 be 0e 6b 2b 3d 21 44 b0 be cb 28 1d bf
       -0.25548965 0.041850142 -0.34426978 -0.6139037
000060 56 34 5d bd 1f fb 4a 3d d9 02 41 be 3e 26 41 bb
       -0.05400499 0.049555894 -0.18848743 -0.0029472257
000070 03 71 a8 3d 65 53 4e 3c 6c 30 43 bc ef 43 0b 3f
       0.0822468 0.012593125 -0.0119134 0.54400533
000080 38 21 cb bc d2 4b 8a 3d 40 17 ec 3d 03 c2 07 3d
       -0.024796113 0.06752743 0.11527872 0.03314401
000090 46 db 72 3d d3 bb 75 3c 1c 20 ac 3b 82 2b 48 3c
       0.059291147 0.014998394 0.005252851 0.012217404
0000a0 62 1a 03 bd 83 15 98 be 86 56 1e 3c 0c b9 ad 3d
       -0.032007582 -0.29703912 0.0096641835 0.084825605
0000b0 62 b2 a8 bd 23 03 a7 3b 2e 99 48 3d 2f 0b cd 3d
       -0.08237149 0.0050968095 0.04897421 0.10011899
0000c0 5d 9b d2 be 3f b2 41 bf 3c 5b 28 3f f3 a5 ea bd
       -0.41134158 -0.75662607 0.6576421 -0.114574336
0000d0 33 42 f0 bd 06 63 66 3e 80 81 64 3e 58 1a 29 bd
       -0.117313765 0.22498712 0.22315025 -0.04128489
0000e0 4d 02 98 3e 1c 56 4a bf 14 4a 9c bf 21 4f f1 3e
       0.29689255 -0.7903764 -1.2210107 0.47130683
0000f0 12 b9 bd 3e 2c f8 41 be a3 29 9a 3e 87 3c df 3c
       0.3705526 -0.18942326 0.3010989 0.027250541
000100 86 1c b3 3c e4 98 f5 bc 57 34 ac bc 1a 11 d6 3e
       0.021864187 -0.02998013 -0.021021051 0.41809922
000110 05 35 8f 3e 36 8f 13 bd a4 8a 74 3e 04 e6 6f be
       0.27970138 -0.03602525 0.23881012 -0.23427588
000120 e9 d1 ea 3a fc e6 3e 3a f7 2e 65 bd d1 53 9e bd
       0.0017915341 0.0007282344 -0.055952992 -0.077308305
000130 5a f2 32 bf 9e 90 cc bc 04 08 c9 3d 88 7f 9c 3e
       -0.6990105 -0.024971303 0.09815982 0.3056605
000140 a4 f7 a2 3b 82 6f db be 96 bb 8a be 00 c8 25 bd
       0.0049733687 -0.4285851 -0.27096242 -0.040473938
000150 9d 06 47 bf 1a 3b 2e bf 20 52 02 bd c8 2b 28 be
       -0.77744466 -0.6805893 -0.0318166 -0.16422951
000160 32 29 b2 bd a1 9e ea 3d 66 c9 85 be 7f 3d 1e be
       -0.08699264 0.11456037 -0.26130217 -0.15453146
000170 bb 4a a0 be de b8 17 3c cf 3f c4 3d 16 c2 ab 3e
       -0.31307015 0.009260384 0.09582483 0.33546513
000180 57 0f 24 bf 60 67 85 3f 50 f5 e6 bc da ff da bc
       -0.64085907 1.0422173 -0.028193146 -0.026733328
000190 0d 2c 88 bd 39 02 3c bd 13 e0 9d 3d cc b5 0a 3f
       -0.06649027 -0.045900557 0.077087544 0.5418365
0001a0 62 9e 95 3e 7f 79 ec 3d 17 67 a3 3c 9c ae 00 bc
       0.292224 0.11546611 0.019946618 -0.00785413
0001b0 9b 23 01 3e 50 16 f7 3e 55 8d 9a 3e 04 2c 8b 3e
       0.12611239 0.4825921 0.30185953 0.2718202
0001c0 56 97 85 be 07 fa 71 3e b3 d5 20 3d e2 32 50 3e
       -0.26092023 0.23630534 0.0392663 0.2033191
0001d0 ef 51 25 3e 68 58 54 be 38 5d 41 3e b7 f3 b2 3d
       0.16144536 -0.2073685 0.18883216 0.08737891
0001e0 ca 53 d3 bf a3 49 28 3f 2a d1 18 3f 6a 3d e8 be
       -1.6509945 0.6573736 0.5969416 -0.45359355
0001f0 79 fe 1a 3f 01 a3 8c 3e 9e 8e 03 3e 23 5d 3c 3c
       0.60544544 0.27468112 0.12847373 0.011496815
000200 69 68 00 3c b6 1f 20 3e 8e ed 97 bf 2b 2b 02 3e
       0.007837393 0.15637097 -1.1869371 0.1271178
000210 ec 11 b5 3d 1d 0d 9d 3d e1 75 a1 3d ea 32 7f 3c
       0.08841309 0.07668517 0.07883812 0.015576104
000220 ef cc eb bc 51 af 1f be b1 4d 62 3d b0 fa 8c 3e
       -0.028784243 -0.15594222 0.055249874 0.2753501
000230 de 9c 82 bf 6c 9f 6f 3d 35 82 1a be 5b c5 aa be
       -1.0204122 0.058501646 -0.15088733 -0.33353695

onnx::Conv_667 f4 [16]
000000 38 1a 38 3e 60 32 10 bf 29 b1 62 40 be 6e 21 3f
       0.17978752 -0.56326866 3.542063 0.63059604
000010 2b a3 ee 3f f2 d3 b3 3f f1 59 b6 3f 98 83 b4 bd
       1.8643545 1.4049056 1.4246198 -0.08814162
000020 27 b1 7b 3f c8 7b 15 40 00 8c 78 bb e4 b3 80 be
       0.9831719 2.33568 -0.0037925243 -0.25137246
000030 70 9c 84 3d 9c fa 66 3f 18 21 56 40 15 0e f0 3f
       0.064751506 0.9022615 3.34577 1.8754297

onnx::Conv_669 f4 [16, 16, 1, 1]
000000 83 26 b0 be 05 95 27 3f 7e b9 88 bd 37 f3 1c be
       -0.34404382 0.6546176 -0.06676005 -0.15327154
000010 36 09 44 3d d9 69 08 bd 7e 10 8a 3d f4 9e 53 bd
       0.047860347 -0.03330407 0.06741427 -0.05166526
000020 dc 11 34 bd 4b d6 b1 bd 91 6f 13 bc fe 69 ec 3b
       -0.043962345 -0.08683451 -0.0089987675 0.0072147837
000030 73 03 5d 3e 9b b3 da 3d 16 e9 17 3e b4 83 a0 3e
       0.21583347 0.10678788 0.14835009 0.31350482
000040 01 2e c6 be f1 68 8d bc 65 67 05 3e 53 34 85 bd
       -0.38706973 -0.017261954 0.13027723 -0.06504121
000050 75 61 a6 3e ae 7b 06 be 4b 6a f2 bd d9 ca 8d 3e
       0.3249623 -0.13133118 -0.1183668 0.27693823
000060 54 06 13 3e 47 c2 26 3e a7 26 d8 bd df 07 0a 3f
       0.14357883 0.16285048 -0.10554247 0.5391826
000070 92 3b fc 3d d9 7a 07 3b dc aa 3f be 9e ea 33 be
       0.1231605 0.0020672588 -0.18717521 -0.17569968
000080 a6 91 31 3b bb 1b 15 3b fe 64 aa bb a6 38 69 39
       0.002709487 0.0022752124 -0.0052000275 0.00022241715
000090 8a 51 ee bb 32 ee 96 3b 31 73 10 3c 4e 07 39 bc
       -0.007272904 0.004606032 0.008816526 -0.0112932455
0000a0 a9 ae 63 3b 4d 08 ba bc 81 7d 28 3c 45 9f 18 bb
       0.0034741557 -0.022709036 0.010283829 -0.0023288291
0000b0 3b 5c ae ba 25 af bf 3a 00 3d 09 3b e0 f1 dd b9
       -0.0013302633 0.0014624341 0.00209409 -0.00042332616
0000c0 30 1e b3 3d f0 96 0c 3e 95 97 bd 3e 1a e3 81 be
       0.08745992 0.13729453 0.3702971 -0.25368577
0000d0 02 71 92 3e 4b c9 6e bd 3d 77 57 3d ee d0 9f be
       0.28601843 -0.058297437 0.05260395 -0.31214088
0000e0 79 8a 56 3e 2a dd 9c 3e e6 b5 93 bd ca f3 08 3e
       0.2095126 0.30637485 -0.07212429 0.13374248
0000f0 07 70 1d 3e e3 9c cd bd 7d 21 40 3c 8f 89 eb 3d
       0.15374766 -0.100396894 0.011726734 0.115008466
000100 74 24 a6 bd c2 77 6f 3e e4 ae 0e be ba b6 6e 3e
       -0.08112422 0.23385528 -0.13933903 0.23311892
000110 e1 de 70 3e 89 34 bd be a6 15 16 bd 93 75 50 3d
       0.23522522 -0.36954144 -0.03664174 0.050893378
000120 e9 2b 8e be ca a5 07 3d 37 ee e3 3c 8f 41 19 3e
       -0.27767876 0.033117093 0.02782355 0.14966415
000130 80 5c a5 bd e7 78 21 bd 9d 1e a2 3e e1 1a f1 3d
       -0.080742836 -0.039421942 0.3166398 0.11772705
000140 34 dd 10 3c e2 eb 8a 3d 3f 70 5b bd bc 4f 31 3e
       0.008841801 0.06783272 -0.053573843 0.17315573
000150 20 b2 05 bc 7d 2d e0 3d 00 39 82 bf a7 58 67 3d
       -0.008160144 0.10946176 -1.0173645 0.05648103
000160 e4 dd 1c be 8a 89 e1 be 85 43 39 3f 56 28 68 bd
       -0.1531902 -0.44050246 0.7236865 -0.056679092
000170 03 b4 1a 3e e6 5b 34 bc 42 bf 8b 3d 46 df e7 bc
       0.15107732 -0.011008238 0.06823589 -0.028304707
000180 e2 8d bb bd 7f 1e e1 bd 12 3f 68 3e 0a 1f f0 3e
       -0.091579214 -0.10992145 0.2268031 0.4689868
000190 e6 87 7e be 12 88 e4 3e e8 d3 77 bd 71 b9 8f bd
       -0.24856529 0.44635063 -0.060504824 -0.07017792
0001a0 38 69 35 3e 95 b4 b3 3d ba 21 08 bd 91 33 ff bc
       0.17715919 0.08774678 -0.03323529 -0.031152518
0001b0 19 6c a4 3d fb a1 b4 be 0e 43 44 be 53 dc d9 3d
       0.080284305 -0.3527983 -0.19166204 0.10637727
0001c0 76 2a 20 be 4a b3 a5 be ae b8 85 3e 0d dd 00 be
       -0.15641198 -0.3236335 0.26117462 -0.12584324
0001d0 2b f8 b8 bc 33 f2 b2 3d af a0 c0 3d cd 2a 9e 3c
       -0.022579273 0.08737602 0.09405648 0.019307518
0001e0 61 f4 5e bd 31 de a2 3e d0 2f ed bd 39 af 15 3e
       -0.054432277 0.31810144 -0.11581385 0.14617623
0001f0 e2 d1 e7 bd 8f db f9 3d ad f8 08 3e d5 d7 0e 3e
       -0.11319329 0.122000806 0.13376112 0.13949521
000200 01 12 0f be 71 a5 0a be 20 a0 2d be bd 21 cc 3d
       -0.13971712 -0.13539673 -0.16955614 0.099673726
000210 f4 6a 85 be 38 26 65 bd c0 2d 24 bd 0d e1 aa 3d
       -0.2605816 -0.05594465 -0.040082693 0.08343706
000220 c4 8b e3 3d 32 fa a4 3c f3 26 78 3d 14 81 0d 3d
       0.111106426 0.020138834 0.06058402 0.034546927
000230 4c 48 14 3e 22 8c 65 be ae 93 0e 3f 5b 69 7e be
       0.14480704 -0.22416738 0.5569409 -0.24844877
000240 43 dd e8 3e c7 3e 69 3e d2 02 27 3e 18 41 87 3d
       0.4548131 0.22777854 0.1630967 0.066042125
000250 c8 b9 a7 be 96 4e 19 bc 5c 8e 47 be 13 6f 04 3f
       -0.32758927 -0.009357115 -0.194879 0.51731986
000260 ac ec 96 3e 13 ac 90 bd a1 c6 2d 3d 2b 75 cf be
       0.2947744 -0.070640706 0.042425755 -0.4051908
000270 0e d0 b2 3e 10 c0 2a 3e fa f7 8c 3e ed cb fd 3d
       0.34924358 0.16674829 0.2753294 0.123924114
000280 31 cd 9d 3c c1 e6 1f bc 01 de 17 be a1 48 d5 3d
       0.019262882 -0.009759606 -0.14830782 0.104142435
000290 35 0a 7c bd 3f 7f ad 3e a9 3c 34 bd 35 ee 2f 3e
       -0.06153317 0.33886144 -0.044003163 0.17180713
0002a0 74 8c dc 3c e5 52 08 bd 61 be c4 bc 8b 9c 05 be
       0.026922442 -0.03328218 -0.024016561 -0.13047998
0002b0 d0 9d ad 3e 9d a9 ad 3e 02 6b ad be c4 b7 d3 3d
       0.33909464 0.33918467 -0.33870703 0.10337785
0002c0 2c 06 a7 3c 1b 6b f6 bd 0d 94 b4 be 66 6f d7 bd
       0.020388685 -0.120321475 -0.35269204 -0.105192944
0002d0 73 71 df bd 8d ff 97 3c 72 72 a8 bd a0 2f 77 bb
       -0.109103106 0.018554473 -0.08224954 -0.0037717596
0002e0 5b cb 8b 3d 63 f2 3c 3e 59 51 d4 bd f5 30 9c 3c
       0.06825896 0.18451838 -0.10367078 0.019066313
0002f0 3d 4b d9 3e bf d2 14 be 7f 59 22 be bb 14 45 3e
       0.42440215 -0.14533518 -0.15854453 0.1924619
000300 47 55 90 3e 34 fa 0c bf 35 02 80 3e 7c a3 47 be
       0.2819006 -0.5506928 0.25001684 -0.19495958
000310 9e df b6 3d 34 77 4a bd 87 be e8 3b 36 cc 01 bd
       0.0892937 -0.049430087 0.0071027908 -0.03168889
000320 4e 15 cf bd 0d 4d 41 3e c4 bd 84 bd 34 39 82 3e
       -0.101114854 0.18877049 -0.064815074 0.25434268
000330 7e 2a 98 3c 89 ec 4d be e5 78 97 be 15 03 d8 be
       0.01857495 -0.20109762 -0.29584423 -0.4218985
000340 98 56 18 b9 80 e8 9b ba 3b 50 0d 3c a3 b5 1f 3a
       -0.00014528108 -0.0011894852 0.008625085 0.00060924346
000350 91 3b 28 3b 65 ae e1 38 2c a9 36 3a cb 4f d2 b9
       0.002567027 0.000107613196 0.00069679576 -0.00040113772
000360 88 c4 22 b8 80 73 0b 3c d2 d7 38 ba 7b 65 86 3a
       -3.8806844e-05 0.008511424 -0.00070512027 0.0010253632
000370 92 10 09 bc 33 96 30 3a ce f4 87 3a 81 f1 8d ba
       -0.008365767 0.00067362486 0.001037264 -0.001082942
000380 00 bf 60 bb 17 67 59 3b eb 5c 0f bc 26 c4 4e bb
       -0.0034293532 0.0033173019 -0.008750181 -0.003155002
000390 10 e0 09 bb 8f 65 01 3b e1 e9 88 bc bd 03 92 3b
       -0.0021038093 0.0019744372 -0.016713085 0.004456012
0003a0 f6 b5 75 bb a4 99 dc 3d 7b 3c 21 bb c3 66 1c bc
       -0.003749249 0.10771492 -0.00246027 -0.009545985
0003b0 02 09 ec bb c9 d1 41 3a df ca 99 ba ef a6 53 bb
       -0.0072032223 0.0007393626 -0.0011733434 -0.0032295545
0003c0 32 af 83 3d e4 58 30 bc 98 08 bf bd d5 04 f8 3d
       0.064299 -0.010763381 -0.09327811 0.12110297
0003d0 55 df fd 3d 6a d4 5d be f0 69 2c bd e0 55 64 bd
       0.12396113 -0.21663061 -0.042093217 -0.05574596
0003e0 3d 59 e0 be 04 bc 10 3e cc 57 15 be b8 e8 3b bc
       -0.43818083 0.14134222 -0.14584273 -0.011469059
0003f0 e8 f9 68 3e 33 64 94 3e d9 c7 67 3c 60 5f 5d be
       0.22751582 0.28982696 0.0141467685 -0.21618414

onnx::Conv_670 f4 [16]
000000 1b 3c d2 bf 6b 60 69 3f 78 98 96 3f 4c 8c bd 3e
       -1.6424593 0.9116275 1.176528 0.370211
000010 50 4b 87 bf fe aa 64 3f 02 63 be 3e 9c 4d 49 3f
       -1.0569859 0.89323413 0.37184912 0.7863405
000020 48 50 68 3e 09 b9 ac bf 87 e4 92 be a5 c6 d4 3f
       0.22686875 -1.3493968 -0.28689978 1.6623122
000030 9c a0 02 40 b1 21 9a 3f 09 b7 8f 3f ad 08 93 bd
       2.0410528 1.2041532 1.1227733 -0.07179389

onnx::Conv_672 f4 [16, 16, 1, 1]
000000 9c 83 c9 be 02 dc 34 bf 01 4f 24 3d 0a 4c 47 3f
       -0.39358222 -0.70648205 0.040114406 0.778504
000010 3c 32 ad be ed a6 00 bd d8 41 81 3d 95 63 ad 3e
       -0.33827388 -0.031409193 0.06311387 0.33865038
000020 7e 28 33 bd fd 09 b3 3e 5a d3 14 bf 0d b9 ea be
       -0.04373979 0.34968558 -0.58134997 -0.45844308
000030 40 66 8e 3d 0f 79 e1 3e 92 5a f7 bc fc e3 d5 3d
       0.069530964 0.44037673 -0.030194554 0.10443875
000040 50 2d 18 3f 1a 1e 68 bf a4 b4 99 3f 39 08 59 3d
       0.5944414 -0.9067093 1.2008252 0.052986357
000050 5c 30 32 3e 5f d6 cd 3d 23 45 23 bd b1 43 5d be
       0.1740126 0.10050654 -0.039860856 -0.21607853
000060 c3 82 f8 bd 19 08 a0 bf c1 67 e3 3e c2 22 b8 bf
       -0.12134316 -1.2502471 0.44415095 -1.4385607
000070 89 8c 75 3d e6 e8 66 3c a0 7b 8f 3b 00 60 59 3f
       0.059948478 0.014093613 0.004378751 0.8491211
000080 46 70 0c 3c f4 69 c7 3d 26 0d e1 3c 10 62 75 3e
       0.00857169 0.09737006 0.02747209 0.23963189
000090 bd ab b6 bb 8c 7a 09 3d 04 ca 6f 3d 87 9f b0 be
       -0.005574672 0.033564135 0.058542266 -0.3449671
0000a0 14 c9 0a 3e a6 37 2d bc 1e f5 f2 3b 85 9e d5 bc
       0.13553268 -0.01057235 0.007414474 -0.026076565
0000b0 dc bf 8d bf 1c 84 eb 3e d8 05 59 3c 2f 23 13 3e
       -1.1074176 0.4599923 0.013246022 0.1436889
0000c0 a8 8b 1e 3d 34 48 04 3e 15 e1 33 bf 0c 20 0e bf
       0.038707405 0.12918168 -0.7026532 -0.5551765
0000d0 b0 de 03 3f b3 b2 57 3e 15 4c 06 bf a6 54 03 3e
       0.5151167 0.21064262 -0.5245984 0.1282526
0000e0 fb 5f 75 bf 38 5f 1d bf 8b 32 1c bf a5 27 2e 3e
       -0.9584958 -0.6147342 -0.6101462 0.1700731
0000f0 e5 8c 03 3d ff 25 d1 3d 3b c1 fc be ad f6 82 3c
       0.03211679 0.10212325 -0.49366173 0.015986765
000100 0f 1b d0 3f 48 fe 37 bf 13 46 65 bf 22 bf 2f bf
       1.6258258 -0.7187238 -0.8956005 -0.6865102
000110 88 ae 5b be 6c 18 e9 3c 0b 35 df 3d 3a 95 85 3e
       -0.21453297 0.028454028 0.10898789 0.26090413
000120 0a a2 59 3e a7 49 19 be b2 6a 01 bf c8 ba 58 3f
       0.21253219 -0.14969502 -0.5055343 0.84660006
000130 08 bd 68 bd 56 98 1e 3e c5 0c 07 be 23 f3 99 bd
       -0.0568209 0.15487799 -0.13188465 -0.07517078
000140 80 5a 1b 3d 16 61 f4 be 05 be 0d be 2e 3a 3b 3f
       0.037928104 -0.4773032 -0.13842018 0.7313565
000150 48 12 2a 3e 26 18 3e 3f a4 8d 49 bd 09 bb 20 bf
       0.16608536 0.742556 -0.049207345 -0.62785393
000160 53 da 2b be 59 f1 38 3e ce 60 00 3c 25 70 d0 bd
       -0.16782503 0.18060817 0.00783558 -0.1017764
000170 5d 32 9e bd 7a 7c ef 3e e6 49 d8 3d 3f 2c ed 3e
       -0.0772445 0.46774656 0.1056097 0.4632282
000180 50 9c 7b bf 31 cb 0e 3f 48 ab ef 3e 98 b1 bb 3e
       -0.9828539 0.55778795 0.46810365 0.3665893
000190 98 c0 b6 3f 59 91 8a 3d ce 0b 1a 3e f0 46 6d 3d
       1.4277525 0.06766004 0.15043566 0.05792898
0001a0 1c a0 aa be c8 da 11 3e 01 3c c5 3e 7a 0f e4 be
       -0.3332528 0.14243615 0.38522342 -0.44543058
0001b0 53 52 9f 3a ed 89 d4 bd e3 43 c5 bf d6 0a 71 3e
       0.0012155272 -0.1037787 -1.5411342 0.2353929
0001c0 91 e1 14 bf a3 b3 3d 3f 39 e6 d4 3e 99 cb 49 bf
       -0.5815669 0.7410223 0.41581896 -0.7882629
0001d0 8a a0 af be d9 59 a8 3e 2a 9e fc bd 12 56 7a be
       -0.3430217 0.32881048 -0.12334855 -0.24446896
0001e0 6b ac 8a 3e a9 f2 b6 3e b1 dc 2f be 55 cd df be
       0.2708467 0.3573201 -0.17174031 -0.43711343
0001f0 01 69 60 3c de 44 f1 3c 79 9e 2d ba 8d 79 24 3f
       0.01369691 0.029451784 -0.00066230405 0.6424797
000200 56 c3 32 3e 37 75 31 bf b6 36 53 3f 29 10 a9 3e
       0.17457327 -0.6931948 0.8250536 0.33020142
000210 23 f3 bd 3e a3 63 27 be fd 83 bd bd 56 57 2b 3f
       0.3709956 -0.16346602 -0.092536904 0.6693014
000220 cf 00 c4 bc cd 30 81 3e 92 4c 95 bf 35 1f b4 be
       -0.023926167 0.25232545 -1.1663992 -0.3518006
000230 36 f0 aa 3c 84 14 82 3e 64 ae 17 bf 7b bf 0c 3e
       0.020866495 0.25406277 -0.59250474 0.13744919
000240 f7 2f 45 be 2d e7 4b 3e 3d 77 5e bf 06 9c 2d 3f
       -0.19256578 0.19912405 -0.86900693 0.678162
000250 fc 02 65 3e 37 47 ac bc aa 7b 2f 3e 2c a2 e3 3e
       0.2236442 -0.021030052 0.17137018 0.44459665
000260 85 97 04 3f 45 1e 78 3f 7c a4 35 bf 8d 4a 25 3f
       0.517937 0.9692119 -0.7095411 0.6456688
000270 96 a4 88 bd fd 31 b4 3e 68 46 86 be d4 94 ce 3d
       -0.06672017 0.35194388 -0.2622559 0.100869805
000280 8c 57 9e bf 62 29 d5 3d 3d 66 6d 3e 99 b0 a8 bd
       -1.2370467 0.10408284 0.23183532 -0.08236808
000290 05 a9 aa bf 6c 68 0f be 92 c6 eb 3c 15 b3 0f be
       -1.3332831 -0.14004678 0.02878121 -0.14033158
0002a0 80 36 cb 3d c4 92 3e bf b8 a3 a5 3f 58 50 1a be
       0.099225044 -0.74442697 1.2940588 -0.15069711
0002b0 2d 24 f8 bc 0f 3c 9c 3c d2 1a c6 3f 13 cc aa 3d
       -0.030290687 0.019071607 1.5476935 0.08339705
0002c0 de 02 4e bd 12 89 71 bf e9 e2 74 be 07 b7 08 3f
       -0.050295703 -0.9434978 -0.23914684 0.5340428
0002d0 e0 2e 50 3e aa 19 fa 3c 68 77 4c 3d 08 85 93 3e
       0.20330381 0.030529816 0.049918562 0.28812432
0002e0 6e 47 89 3e 21 68 72 3e e1 4c 3d 3e 9a 55 fd 3c
       0.2681231 0.23672535 0.18486358 0.030924607
0002f0 68 ea 20 bf aa 69 cf 3e 03 68 98 bc f3 4b 81 3e
       -0.62857676 0.40510303 -0.018604284 0.25253257
000300 74 df bf 3e bf 95 17 3f f5 69 90 bd 51 19 d2 bc
       0.3747517 0.5921287 -0.0705146 -0.025646837
000310 b6 3d f3 bc 08 2b 39 3e db 90 98 3e 63 92 f9 bb
       -0.029692512 0.18082821 0.29798016 -0.0076163276
000320 b9 56 a5 3d 90 bc 14 bf e4 84 3d 3f 1d d9 38 3f
       0.08073182 -0.58100224 0.740309 0.7220629
000330 87 96 90 3d c5 de 8f bd 4e 42 65 be 3f c7 54 3f
       0.07059961 -0.07024912 -0.22388574 0.83116525
000340 d0 42 29 3c 8e 9b 97 3d 6f 95 0f 3d 8a ff fa 3d
       0.010330871 0.074027166 0.03505462 0.122557715
000350 36 5f f3 bb e5 2a da 3d 43 44 36 bc 46 96 6f be
       -0.0074271215 0.10652713 -0.011124673 -0.23397169
000360 c0 45 6c bd 65 c5 d6 3b d4 b7 c5 3b 60 73 56 bb
       -0.057683706 0.006554293 0.006033877 -0.0032722577
000370 00 b2 51 bf d2 36 af 3e e0 ab 4e 3c 19 87 49 3e
       -0.8191223 0.34221512 0.01261422 0.19680442
000380 a5 66 99 3c d8 24 fd 3d 0b 00 a2 3d df 84 6b be
       0.018725703 0.12360543 0.079101644 -0.22999905
000390 b9 b2 bc 3c 54 07 89 bf 90 a4 52 be 48 c4 30 3e
       0.02303444 -1.0705361 -0.20570588 0.17262375
0003a0 02 32 9b bc 5c 6f 84 3b 87 69 f4 bb 47 1a 5c 3b
       -0.018944744 0.0040415954 -0.007458869 0.0033584998
0003b0 65 a1 bd be 17 21 09 be 3c d9 b4 39 76 6e 91 3d
       -0.37037197 -0.13391529 0.00034494128 0.07101147
0003c0 e3 67 18 3f 93 1c a8 be 9d 92 22 bf 88 bf 3f be
       0.5953352 -0.328343 -0.63504964 -0.18725407
0003d0 5c 28 b3 bf f3 fb 06 3e 5d f8 5a 3c f2 b6 4c 3e
       -1.3996692 0.13182048 0.0133648785 0.19991663
0003e0 98 74 be 3d 26 ef 64 bc cc b3 a1 bf 03 1f b3 be
       0.09299582 -0.013973033 -1.2632995 -0.34984598
0003f0 36 c4 fa bc c7 cb ca 3d 45 1b c1 3f 2f 38 4e 3f
       -0.030611139 0.09902149 1.5086447 0.8055448

onnx::Conv_673 f4 [16]
000000 b3 88 5d 40 f4 20 2f bf 66 35 84 40 a0 d4 8c 40
       3.4614685 -0.6840966 4.1315184 4.400955
000010 b0 3f 81 be cc ee 77 be c2 34 65 3f e8 b7 9f 3e
       -0.25243902 -0.24212188 0.8953363 0.31194997
000020 6c 38 2c 40 d6 f2 41 40 04 3c c2 bd ca 4f 88 40
       2.6909437 3.0304465 -0.09484103 4.25974
000030 1a 84 73 c0 0a b2 4d 40 61 61 8e 40 23 51 fd 3f
       -3.8049378 3.2139916 4.449387 1.9790386

onnx::Conv_675 f4 [16, 1, 3, 3]
000000 ed 15 13 be 18 23 71 bd 7d d5 ac bb 90 ab 85 3e
       -0.14363833 -0.05887136 -0.005274473 0.26107454
000010 02 23 1e 3f d4 69 f6 bd 52 75 08 be 43 48 16 3e
       0.6177217 -0.12031904 -0.13326004 0.14676003
000020 dc a6 e4 3d 4e 62 59 bc b7 c6 92 3d 20 22 94 bc
       0.111646384 -0.013268067 0.07166808 -0.018082678
000030 43 39 fc 3d 94 5b b8 3e 9c 7f cb bd b3 a5 fb 3c
       0.12315609 0.3600737 -0.09936449 0.03071866
000040 b9 47 ca be c9 88 8d 3c bc 89 84 be 90 79 be bd
       -0.39507845 0.017277138 -0.25886333 -0.0930053
000050 6b 9c a7 3e 9b d3 1a 40 fd 96 19 bf 21 cf f4 bf
       0.32736525 2.4191654 -0.59996015 -1.9125711
000060 5a 5d 19 3f e6 0a 14 bd 9e e0 c8 be e3 03 bf bd
       0.5990807 -0.036143206 -0.3923387 -0.09326913
000070 1c 2c ab bd 98 90 9a bd 52 40 35 3b c6 d1 06 3f
       -0.083580226 -0.0754711 0.0027656746 0.5266384
000080 87 5c 69 be 98 b9 b3 bd 9a 5f e6 3c a4 e2 81 bc
       -0.22789203 -0.087756336 0.028121758 -0.015855141
000090 54 ad 54 bb 26 d1 1c be f1 b4 1b bc 44 fe 5b 3c
       -0.0032451944 -0.15314159 -0.009503589 0.013427321
0000a0 34 81 37 bd 59 ed 65 3b 06 0c d1 bd 05 a3 b4 be
       -0.044800952 0.0035084097 -0.102073714 -0.35280624
0000b0 74 04 87 bd 6d 64 54 bc 16 d1 8b 3e 57 cd d0 3d
       -0.06592646 -0.0129633965 0.27307957 0.101954155
0000c0 46 2b 68 be a6 03 78 be 1d e1 f9 3e db 43 c2 be
       -0.22672758 -0.24220142 0.4880456 -0.37942395
0000d0 cf 0a 5e be 71 4c f4 bc ae 4e 19 bd 0f 0b 2f 3c
       -0.2168381 -0.029821606 -0.03742855 0.010683789
0000e0 fc ce a2 bc 4b f4 8b 3d 5b 0f d5 3e 06 90 ba 3d
       -0.019874088 0.068337046 0.41613278 0.091095015
0000f0 45 74 78 bc 96 e6 f5 3b 1d 2c 95 bd 1e e7 22 bc
       -0.01516444 0.0075042946 -0.072838046 -0.009942798
000100 96 27 f1 3d 21 cd 84 bd c5 c4 9d bd c5 65 f8 3e
       0.117751285 -0.06484438 -0.077035464 0.48515144
000110 35 44 7a bd 95 7c d3 3d ce d8 24 bf fb df 35 3d
       -0.061100204 0.103264965 -0.6439332 0.044403058
000120 63 8d 0b bd f3 0f 95 bd bf bb 4f 3c 7d 99 3b 3d
       -0.034070384 -0.07278433 0.0126790395 0.045800675
000130 fe 54 bb be e6 77 c4 3b ab 38 2f 3d e6 0b c2 3e
       -0.3658828 0.0059957383 0.042778652 0.37899703
000140 cd b8 2f 3e 1d 4e 16 be 15 e9 83 3e e2 61 00 3b
       0.1716034 -0.14678235 0.25763765 0.0019589593
000150 e4 5a 40 3e f0 71 fa bd de 73 f1 bd 04 1a 0e bc
       0.18784672 -0.12228763 -0.11789678 -0.008673195
000160 a8 a4 2e bd 80 7c 4c 3d 63 00 2f bd b7 66 4e be
       -0.042637497 0.04992342 -0.04272498 -0.2015637
000170 01 b8 f2 bd 81 e0 ea bd b4 72 d9 3d 04 db 7b 3a
       -0.11851502 -0.11468602 0.10617581 0.0009607526
000180 08 b5 bd bd 55 03 51 be 88 a4 08 be 63 4e b6 3d
       -0.092630446 -0.20411427 -0.13344014 0.0890167
000190 8f a5 1e 3e d3 18 07 3e a6 cb b2 3c d1 b6 e9 3e
       0.15492843 0.13193063 0.021825623 0.4564729
0001a0 cb ac a0 bc 7d f2 03 be 1f 9f fd be c6 0e 3b be
       -0.019613644 -0.1288547 -0.49535462 -0.18267354
0001b0 b8 67 a2 bc fe f7 2c bd 50 1a 0f 3d 09 ab 12 3e
       -0.019824848 -0.04222869 0.034937203 0.14323057
0001c0 6d ee fd 3e 8d 7d 56 bc 60 5f f4 bc 9b b7 a4 3d
       0.49595967 -0.013091457 -0.029830635 0.080428325
0001d0 1f 5c f7 bc 35 ab 76 3d d1 2e 94 be 41 02 e1 3c
       -0.030195294 0.06022187 -0.28941968 0.027466895
0001e0 ef 51 f7 be 4a de 67 c0 06 9f 8d be 4d f7 bb 3e
       -0.48304698 -3.6229424 -0.27660388 0.36712113
0001f0 20 7c 81 40 b1 1f 15 3e f2 cd 03 bd 6f e8 c2 3d
       4.046402 0.1456287 -0.032178827 0.095169894
000200 e3 38 04 be d0 18 f7 3f 23 71 1e 3d fb 95 ec bf
       -0.12912326 1.9304447 0.038682114 -1.848327
000210 56 5e d6 3e 2e 20 86 bd a0 96 df be 15 e4 1b 3b
       0.41868848 -0.065491065 -0.43669605 0.002378707
000220 99 59 f7 bb 71 02 3a 3c fe 99 3f 3d cc a1 b7 be
       -0.0075485227 0.011353121 0.046777718 -0.3586563
000230 12 b6 55 3d 37 c6 10 bc c4 22 e4 3d 3a 85 6f 3d
       0.05217559 -0.008836321 0.111394435 0.058476664

onnx::Conv_676 f4 [16]
000000 16 95 39 bf 98 58 20 3f 7a 5c 77 40 7c b1 83 3f
       -0.7249311 0.62635183 3.8650193 1.0288539
000010 30 e2 81 3f a8 bf a4 3c 18 88 9d be 4a 26 2b 40
       1.0147152 0.02011092 -0.30767894 2.674212
000020 34 18 1e 3f 5e 71 fc 3e a0 ac 9d 3f 86 5d 83 3f
       0.6175568 0.49305242 1.2318306 1.0262916
000030 62 13 29 bf a4 b1 2f 40 65 e5 69 40 49 c5 29 40
       -0.660452 2.7452173 3.6546261 2.6526663
